ml/models/TP53_8_4 Model_3.pt (torch, 103311 bytes, 7 tensors)

conv.weight f4 [32, 1, 8]
000000 2e 2e 25 3d 51 f0 20 be e9 58 83 be 32 20 3a 3e
       0.040327244 -0.15716673 -0.2565377 0.18176344
000010 fa ad b0 3e c6 26 97 be 8a de 1e 3e 61 45 19 be
       0.34507734 -0.2952177 0.1551458 -0.14967872
000020 57 04 51 be 2f 32 94 3e 4f 62 2b 3e 6c eb 74 be
       -0.20411812 0.28944537 0.1673672 -0.23917931
000030 a0 43 34 3e d1 1d 54 be 67 21 4e 3e 50 64 9b 3e
       0.17603922 -0.20714499 0.2012993 0.3034997
000040 c9 3c a3 bc 71 d0 9d be 60 a9 a1 3e 9c a9 30 be
       -0.019926446 -0.3082309 0.31574535 -0.17252201
000050 47 81 75 3e 11 47 d4 3d 74 db aa 3d 28 88 09 3e
       0.23975097 0.10365117 0.083426386 0.13430846
000060 97 9d a7 3e 6b c3 60 3e fb 01 4c 3e d8 06 2a 3e
       0.3273742 0.21949546 0.1992263 0.16604173
000070 1b db 56 3d 92 9e 12 3e 3e 57 ad be dc 78 64 3e
       0.05245505 0.14318302 -0.33855623 0.22311729
000080 47 70 a7 be 6b ae d3 3c ad 9e bf bd 13 4e 32 3e
       -0.32702848 0.025840005 -0.09356437 0.17412595
000090 43 1e cc bd 3f a0 b7 bd 28 03 f7 3d 04 a8 a7 be
       -0.099667095 -0.089661114 0.12061149 -0.32745373
0000a0 bd 65 fe 3d fe 11 96 3e a7 5b 36 be 4c e2 2b 3e
       0.12421749 0.29310602 -0.178084 0.16785544
0000b0 b8 d1 41 bc 64 0d 1c be bd 86 e9 bc 94 59 bc 3d
       -0.011829786 -0.15239483 -0.028506631 0.09196773
0000c0 38 0a 50 be dd 70 3a be 95 cb 91 3e ec a6 84 be
       -0.20316398 -0.18207116 0.28475633 -0.259086
0000d0 73 b5 b2 3d 40 85 6b 3c ce 0f e2 3d ae 22 90 be
       0.08726015 0.014375031 0.11038171 -0.28151459
0000e0 96 4b 8d 3e c5 17 84 3d 01 60 95 be 75 34 ad 3e
       0.2759673 0.06449846 -0.29174808 0.33829084
0000f0 9d a1 2b 3e 1c 2e 39 be c9 85 92 3e d5 b5 29 3e
       0.1676087 -0.18083996 0.28617695 0.1657327
000100 79 cf 08 be f5 82 89 bc 92 ea d7 3c 1f e4 fe 3d
       -0.13360395 -0.016786078 0.026356969 0.124458544
000110 97 a5 71 bd 25 84 95 3e 34 52 5d 3b f2 6b a0 be
       -0.05899581 0.2920238 0.003377092 -0.31332356
000120 57 18 46 be 29 86 3a 3e fe 94 58 3e 0d 2d 8e be
       -0.19345222 0.1821524 0.21150586 -0.27768746
000130 2b e7 8f be 15 60 e7 bd 94 bd fb bd 3f 3d 98 be
       -0.28106055 -0.11297623 -0.122920185 -0.29734227
000140 92 7e 86 3e 1a 6f 1d 3d 6a 0b ab 3e f0 4d 1b 3e
       0.2626844 0.038436033 0.33407146 0.1516645
000150 91 c0 99 3e 3a 5d 9c be 2c c6 8d 3e 9d 1c 10 3e
       0.3002973 -0.30539876 0.27690256 0.14073415
000160 88 6b 94 bd 4f e9 95 3e ec 1b 6e bd ce 3a c4 bd
       -0.072470725 0.29279563 -0.058132097 -0.095815286
000170 25 02 d6 3d f7 ed a3 be fb 9c 5c 3e 4e 00 38 be
       0.10449628 -0.3201749 0.21544258 -0.17968866
000180 95 42 97 bb 77 53 7e be f5 cf ca bd 8a da 70 be
       -0.0046160915 -0.24836527 -0.09902946 -0.23520866
000190 30 7c 7c bd 5f 71 7a bc 80 8e 20 3e 84 a9 04 3e
       -0.061641872 -0.015285819 0.1567936 0.1295529
0001a0 9e ca 15 3d 3a 6c b0 3e 38 c4 8e be bd c3 b0 3e
       0.036570184 0.3445757 -0.27884078 0.34524336
0001b0 fa e5 08 be ba 07 4d 3e fa c1 90 3e 84 89 d0 3d
       -0.13368979 0.20022479 0.28272992 0.10182479
0001c0 9e 1b 9a be c6 b7 3e 3d 16 2b 03 be 0e 3f a6 be
       -0.30099195 0.04656198 -0.12809405 -0.32469982
0001d0 1a a5 a1 be ff 56 3d be 8d 3b 29 3e 9f 0b 6c 3e
       -0.31571275 -0.18490218 0.16526623 0.23051308
0001e0 e3 73 56 3e da 9a f3 3d af 35 97 be 2e 7f 4e bd
       0.20942645 0.1189477 -0.29533145 -0.050414257
0001f0 92 5e e4 3d e3 36 00 be 5a 5d ab 3b ce b2 5d 3e
       0.1115085 -0.12520938 0.005229634 0.2165024
000200 46 d5 75 be 8c 57 58 3e 13 48 b3 3e 44 41 16 3d
       -0.24007139 0.21127146 0.35015926 0.036683336
000210 0d c1 42 3e fa a8 2e bd b5 50 52 3e 03 e5 d5 bd
       0.19018956 -0.042641617 0.205386 -0.10444071
000220 31 50 e7 bd 5a 2d 80 3e 67 d4 03 3c 90 d2 b4 3e
       -0.11294592 0.250346 0.008046246 0.35316896
000230 a9 ba af be 03 b6 9c 3c af 1a 28 3e d2 56 81 be
       -0.34322098 0.019129759 0.16416429 -0.2526155
000240 c9 c2 62 3e 4a 83 9d bd bf b2 80 3e bd 3e 54 3e
       0.22144617 -0.07691057 0.25136372 0.20727058
000250 1f 2b 09 be 16 0e 98 be 2b b3 21 bd 57 d9 9d 3e
       -0.13395356 -0.29698247 -0.03947751 0.3082988
000260 a9 1c 23 3e 97 50 86 be 76 52 15 be ef f0 4a be
       0.15928902 -0.2623336 -0.14582238 -0.19818471
000270 96 53 64 3c 26 c8 ef 3d da a9 21 3e 48 2a 82 bd
       0.013935944 0.11708097 0.1578745 -0.06355721
000280 70 4e 6f bd 68 bb b0 3e 58 4c 24 bd a4 a6 25 be
       -0.058424413 0.3451798 -0.04011187 -0.1617685
000290 ec 2d ee 3c 8f 46 43 bd ff 2d 6d 3d 98 ec d1 3b
       0.029074632 -0.04767471 0.057905193 0.006406378
0002a0 12 3d 23 be db 09 69 be a6 84 23 be 7e 4b 61 3e
       -0.15941265 -0.22757666 -0.1596857 0.22001454
0002b0 68 ea 99 bd 62 98 f2 3d e6 ca 0e bc 5f 85 ab be
       -0.075154126 0.11845471 -0.008715367 -0.33500192
0002c0 10 9b 92 be 3a bb a3 3d 67 29 34 be d2 99 00 be
       -0.28633928 0.07994695 -0.17593919 -0.12558678
0002d0 2f 0d 85 3e 26 77 64 bd e0 63 12 be fa d8 b2 be
       0.2598662 -0.05577769 -0.14295912 -0.34931165
0002e0 51 7f ac 3e 30 ef dc bc 9c cf 2b 3e c9 28 91 3e
       0.33690885 -0.026969522 0.16778415 0.2835143
0002f0 d6 2f 95 3e ed 1b 43 be 91 e2 67 3e f5 d2 58 3e
       0.29138058 -0.19053622 0.22645022 0.21174224
000300 e0 4f 80 3e d9 1b 87 be e1 5d 8e 3e 9a 63 08 bd
       0.2506094 -0.26388434 0.27806 -0.033298112
000310 f8 33 70 3c d4 f6 b4 be c9 ab 34 3e c2 49 0f bc
       0.014660828 -0.35344565 0.17643656 -0.008745613
000320 da b0 c2 3d 73 3a 8e 3e e9 7b 32 bc c8 f5 f7 3d
       0.09506388 0.27778968 -0.0108938 0.12107426
000330 a5 41 1d be 63 c7 49 3e fb 2a 8e 3e 23 1b 84 be
       -0.15357073 0.19704966 0.27767166 -0.25801954
000340 d4 9b 89 bd 15 07 85 3e a7 6f 60 be c3 3f 3b bd
       -0.06719175 0.25981966 -0.21917592 -0.045715105
000350 da 33 51 be e9 2e 99 3d 46 04 cc bc 92 dc c2 bd
       -0.20429936 0.074796505 -0.024904381 -0.09514727
000360 7c ca 1e be cb 07 5c 3d 00 28 23 be f5 cc 83 3e
       -0.15506929 0.05371837 -0.15933228 0.25742307
000370 29 92 5c 3e 47 12 8b be 01 0c 45 be 94 c8 a0 be
       0.2154013 -0.27162382 -0.1924286 -0.3140303
000380 cb 92 61 3e 53 08 1d 3e 82 c4 40 3e 25 7b 4f 3e
       0.22028653 0.15335207 0.18824962 0.2026182
000390 c3 41 82 bd 31 44 9f be b6 de 14 bd 93 52 db bd
       -0.06360199 -0.31106713 -0.036345206 -0.10709109
0003a0 b7 92 68 3e 31 60 38 bc 6a d3 03 3e ae 4e a2 3d
       0.22712217 -0.011253403 0.12873617 0.07925163
0003b0 37 c3 6a be 8f d0 0c 3e fc 9e 73 be 73 0f 0b bd
       -0.22926031 0.13751434 -0.23791116 -0.03395028
0003c0 23 b9 fb b6 02 62 98 be 92 10 0f 3e 40 74 95 3e
       -7.5019357e-06 -0.29762274 0.13971165 0.29190254
0003d0 2d 39 90 be 38 65 aa 3e 71 69 1e bd 8b 40 e8 bc
       -0.28168622 0.3328035 -0.038674776 -0.028351089
0003e0 95 f7 6a be ec 6c 49 3e 22 7f 82 bd 4d fd a6 3e
       -0.22946008 0.19670457 -0.06371905 0.32615128
0003f0 da 73 7b bd 50 93 3c be 21 00 31 bb 6c 75 3e be
       -0.06138978 -0.1841557 -0.0027008133 -0.1859948

conv.bias f4 [32]
000000 05 e3 a1 bd ab 90 9b 3e 76 0a 9d be 74 a1 4d be
       -0.07904629 0.3038381 -0.30672044 -0.2008112
000010 67 3f 31 3e 0d ad d3 bc d6 f3 ae 3e 1f 85 99 be
       0.17309342 -0.025839353 0.34170407 -0.29984376
000020 7e 92 b3 be 5b 16 dc bc f8 ef 9d be 1d 18 b3 3e
       -0.35072702 -0.026866129 -0.30847144 0.34979334
000030 33 24 0d be c8 52 a9 be ea a1 07 3d 63 6e 12 be
       -0.1378334 -0.3307097 0.033113398 -0.14299922
000040 d8 66 ad 3e b8 5b b3 3e fd 46 0a 3e 52 a4 07 3e
       0.33867526 0.35030913 0.13503642 0.13246277
000050 50 25 53 3e 3f fd 18 3d cf 59 af 3e 50 3a 9d 3e
       0.20619702 0.03735089 0.34248206 0.3070855
000060 d3 b0 ec 3d 4b 1d 62 3e f6 77 69 bd 42 3f 70 3e
       0.11557164 0.22081487 -0.05699917 0.23461631
000070 84 2d 99 3e f3 69 30 be 46 8e b5 bd d2 bc 55 3e
       0.29917538 -0.17227916 -0.08865027 0.2087281

model.0.weight f4 [256, 32]
000000 cb d6 cc bd 7e 2a 24 3d e8 67 9a bc 36 90 98 bd
       -0.10001906 0.040079586 -0.018848374 -0.07449381
000010 80 c4 c5 3d 67 e4 87 3d cf e0 08 be 92 42 1d be
       0.0965662 0.06635361 -0.13367008 -0.15357426
000020 cb 67 e5 3d 8d 24 10 be fd 77 25 bd 22 dc 50 3d
       0.112014376 -0.14076443 -0.040397633 0.050991185
000030 0d 2a 0f 3e 11 4b 60 3c 36 2a 4d bd 2b c2 b1 bd
       0.13980885 0.013689772 -0.050089084 -0.08679613
000040 9c eb 12 be c3 f7 2f 3e 06 f1 47 bd c6 38 0d 3e
       -0.1434769 0.17184357 -0.048813842 0.13791189
000050 29 1d 22 be b2 42 6d bd 96 b3 07 be a5 d3 b3 3c
       -0.15831436 -0.057924934 -0.132521 0.021951506
000060 44 8a e5 bd aa ab 33 be 41 95 ed bc 92 7e 07 be
       -0.11208013 -0.17545953 -0.029001834 -0.13231876
000070 46 73 ca 3d 01 94 eb 3d 2f 28 02 be 27 7e 2a 3e
       0.09885268 0.11502839 -0.12710641 0.16649686
000080 07 2f 18 3e 65 82 f5 3d 9c c8 24 bd ad ec 0b bd
       0.1486169 0.119877614 -0.04023038 -0.03416126
000090 d5 36 9a 3c c8 9b 56 bd 79 e7 d1 3d 47 bd b3 3d
       0.018824974 -0.05239466 0.10249228 0.08776336
0000a0 3c eb 81 bd 39 ec dc 3d 2a 90 30 bd 9b 84 ec bc
       -0.063436955 0.107872434 -0.043106236 -0.028871825
0000b0 7b 87 48 bb 29 8d 92 bc e7 ae 1c bd 5b 11 03 3e
       -0.003059833 -0.017889576 -0.038252737 0.1279959
0000c0 59 fd 68 bd d9 3f 92 3d 61 af 22 3d a5 cb bb 3d
       -0.056882236 0.07141084 0.039718036 0.091697015
0000d0 a3 d0 1e be 70 c5 b3 3d 4c 8f 21 be 73 cb a2 3d
       -0.15509276 0.087778926 -0.1577732 0.07948961
0000e0 6a da a9 bc 4d 1c 6d bd dd c0 22 be 62 43 27 bd
       -0.02073403 -0.057888318 -0.15893884 -0.040835746
0000f0 9a d9 00 3d 1d 22 10 3d e5 e7 e5 bb 25 4d 1d 3d
       0.03145752 0.035188783 -0.0070161694 0.03840365
000100 5b 7e 28 3b 93 e8 d5 3b fb 6c 88 3d c5 7d dc bd
       0.002571008 0.006527969 0.066614114 -0.10766176
000110 5c 37 f8 3c 1f 33 43 3d f6 6d 2c 3d 73 68 2c 3d
       0.030299835 0.047656175 0.042097054 0.042091798
000120 b4 e0 3a 3d d9 66 8e bd 05 68 19 3e cf 83 5f 3d
       0.04562445 -0.069532104 0.14981087 0.05456906
000130 0a cb 1d be fa 25 af 3d a0 b5 2f be c6 15 f6 bc
       -0.15409485 0.08552165 -0.17159128 -0.03003968
000140 90 4d 1e bd 66 64 e2 3d 85 f7 1e be d2 45 a7 bc
       -0.038648188 0.11054306 -0.15524109 -0.020419035
000150 00 60 27 3e bd c7 28 3e a6 03 a2 bd 7b b6 26 bd
       0.16345215 0.16482444 -0.07910852 -0.04070137
000160 33 48 18 be aa 56 81 bd 6e 2b 5e 3d d2 0e c7 3d
       -0.14871292 -0.06315358 0.054240637 0.097196236
000170 71 d4 1b 3e 9c 01 7f bd 0d 43 81 bd 2f 1e e0 bd
       0.15217759 -0.062257394 -0.06311617 -0.10943257
000180 d7 25 00 3c 40 d4 d9 3d c0 5d 0a 3e 7c bd 23 3e
       0.007821522 0.106361866 0.13512325 0.15990251
000190 b9 cc 35 3c da a7 1d 3e c7 60 fb 3d c5 42 2f be
       0.011096173 0.15396062 0.12274318 -0.17115314
0001a0 5b f8 fb bc e0 cc db bd f0 31 26 3e fe 11 30 3e
       -0.030758074 -0.10732436 0.16229987 0.17194363
0001b0 93 f9 2d bd 1a 05 12 3e 30 ea ff bd db e9 6f 3c
       -0.04247434 0.14259759 -0.124958396 0.014643158
0001c0 32 4f 01 be 70 b2 23 be 3b 04 13 3d 4d bb e0 3d
       -0.12627867 -0.15986037 0.035892706 0.10973225
0001d0 c3 0a e3 bd 38 50 87 bd fd d5 3d bc 63 44 ec 3d
       -0.11086037 -0.066070974 -0.011586663 0.11536481
0001e0 9f d8 ce bd f2 9b 08 bd 2b 74 c6 bd f0 91 de bd
       -0.10099911 -0.033351846 -0.09690126 -0.10867679
0001f0 56 7e c8 3d b6 bf c1 3d 3e 86 18 be cc 6a 97 3d
       0.09789722 0.09460394 -0.1489496 0.07393417
000200 85 12 1a be 57 2b e2 bd c7 4c 84 3d 9d 8a 2d 3e
       -0.15046127 -0.11043423 0.064599566 0.16947408
000210 e1 58 08 3e b5 31 b3 bc 82 b6 ff bd 46 2f 2a 3e
       0.13315155 -0.021874288 -0.124859825 0.16619596
000220 6e 2c 61 bd 8d c5 2f 3e f3 cb 16 3e 71 08 26 3e
       -0.054974012 0.17165203 0.14726238 0.16214158
000230 0f 49 0b be bc 32 34 3e c7 b4 21 3e a3 6d ea bd
       -0.13602088 0.17597479 0.15791617 -0.11446693
000240 00 66 f7 3b 82 03 c5 3d 79 00 db 3d 13 73 dd 3c
       0.007550001 0.0961981 0.106934495 0.02703241
000250 cf 8b 23 bc 6c f9 c1 bd 0c a0 5d 3d 3f 07 0c 3e
       -0.009982063 -0.094714016 0.05410771 0.13674639
000260 34 aa f3 bc db 5c 49 3d 0a 4d d4 bd f1 95 dc bb
       -0.029744245 0.04916082 -0.103662565 -0.0067317416
000270 e7 cc c9 bd f9 74 03 3d cd e7 b3 3d bb 35 c1 bd
       -0.09853535 0.032093976 0.08784447 -0.094340764
000280 42 43 3f bc 59 e1 f9 3d 99 5c 6e 3d 66 2c 34 3e
       -0.01167375 0.12201185 0.058193777 0.17595062
000290 17 63 eb 3d 84 d0 08 3d cf d6 a6 bd c8 1f 87 bd
       0.11493509 0.03340198 -0.0814644 -0.06597859
0002a0 04 12 31 be 4a a7 2a 3e ef f8 df bc 32 83 4b 3c
       -0.17292029 0.16665378 -0.02734038 0.012421416
0002b0 f7 27 09 3e 2e e1 9e bd 0b 4f 76 3d 41 5e 32 be
       0.13394152 -0.07757793 0.060133975 -0.17418768
0002c0 d1 1f e3 3c a2 dc 68 3d 46 b4 74 bd c0 7e 1a 3e
       0.027725132 0.056851037 -0.059742235 0.15087414
0002d0 6d 55 1d be 20 e8 af 3d e4 2e eb 3d d7 38 60 bd
       -0.15364619 0.08589196 0.11483553 -0.054741707
0002e0 23 c0 19 3e ae 08 10 be 0e 48 ed 3b 6f 5c 72 bd
       0.150147 -0.14065811 0.0072412556 -0.059170183
0002f0 7a 91 fa bd 62 30 28 3d 41 d7 95 bd 5a 18 99 bd
       -0.12234779 0.041061766 -0.07316447 -0.07475348
000300 09 06 a5 3d 6f 3a 27 3e 8f 41 88 bd 0a 34 e7 bd
       0.08057792 0.16330884 -0.06653129 -0.112892225
000310 65 98 d8 3d a1 c4 15 be ee 16 30 be 4a 23 16 be
       0.10575942 -0.14625789 -0.17196247 -0.14661899
000320 90 48 26 be f7 94 57 bd 1c 16 b2 3c c9 06 1e bd
       -0.16238618 -0.0526323 0.021739058 -0.03858069
000330 7d 0b 18 3e 87 2c 17 3e 90 cc 25 be 09 d7 c3 bc
       0.14848132 0.1476308 -0.16191316 -0.023906248
000340 d8 9f 9c 3d 1d 44 f6 bd eb 16 91 3d 48 b1 17 3d
       0.07647675 -0.1202471 0.070844494 0.037034303
000350 de 4b dd bd 60 fe 72 bd bb b0 19 bc 0a d0 11 be
       -0.10805486 -0.059324622 -0.009380515 -0.14239517
000360 5a 29 92 3c bf 9c 07 be 57 94 f7 3d 05 fd 1c 3e
       0.017841984 -0.13243388 0.120888405 0.15330894
000370 15 25 4d bd 40 51 87 bd 06 83 2c be 6e 17 a4 3d
       -0.050084192 -0.06607294 -0.16846856 0.08012281
000380 60 2b d9 3d d0 fd db bd 15 c3 c4 bd 69 2f dd bd
       0.10603976 -0.1074177 -0.096075214 -0.108000584
000390 7a 22 78 bd 70 c3 ed bd 77 e9 e5 3c 22 a9 21 3e
       -0.060579754 -0.11609542 0.028065426 0.15787175
0003a0 7d ab 1a be 0a 23 e9 3c 83 73 1d be dc 2d d5 bb
       -0.1510448 0.02845909 -0.15376095 -0.006505711
0003b0 5f bc 1a 3e 03 82 0b 3d 75 24 23 bc e4 4d f3 3d
       0.1511092 0.034059536 -0.0099574225 0.11880091
0003c0 e1 f6 bd 3d b9 00 0e bd 65 f2 34 bd c2 b1 e4 3d
       0.09275604 -0.034668658 -0.044176478 0.11166717
0003d0 aa dc 05 3d a0 51 2d be 88 a7 34 3e 62 a9 ab 3d
       0.032681145 -0.16925669 0.17642033 0.083819166
0003e0 b9 32 09 be f4 11 83 3d ea 6f 48 3c 7a a3 12 3e
       -0.13398255 0.06399909 0.012233714 0.14320174
0003f0 08 88 c4 3d c9 00 17 bd af 8f 03 3d a5 e9 4b 3d
       0.095962584 -0.036865983 0.03211945 0.049783368

model.0.bias f4 [256]
000000 55 c2 73 3d 68 a0 19 3e b9 f3 b6 3d ce 1d 9e 3d
       0.0595115 0.15002596 0.08933205 0.077205285
000010 fc d7 eb bd 68 30 88 bd 1c c4 65 3d 31 d3 cb 3d
       -0.11515805 -0.06649858 0.056095228 0.09952391
000020 1e a1 c7 bd d3 e8 9c bb 7c e7 9c bd 96 de ba bc
       -0.097475275 -0.004788497 -0.0766134 -0.022811215
000030 fe fa ca bb 43 41 85 3d 41 4f 0d bd 8b 7e f1 3d
       -0.0061944714 0.06506588 -0.03449941 0.11791714
000040 45 7b 72 3d 5b fc 11 be 99 15 29 3d d1 95 5b 3c
       0.05919959 -0.14256422 0.041280363 0.013402418
000050 b3 03 8c bc 1e 99 13 be db c1 0d bd 4c 2c 8b 3d
       -0.017091608 -0.14413878 -0.034608703 0.06795558
000060 6b 1f 0d be 34 ea 34 3d 4a 9b 5f 3c d2 f1 63 3d
       -0.13781516 0.044168666 0.013647864 0.05565054
000070 9d dc 80 3d 55 0b 1e 3e 8a 0d 62 bd cf 5b 91 bc
       0.06292079 0.1543401 -0.055188693 -0.017743973
000080 38 10 ad 3d 77 97 b4 3c a4 4e b0 bd 6e 8a 04 be
       0.08450359 0.02204488 -0.086087495 -0.12943432
000090 25 90 30 3e 33 b1 5e 3d 2d 7b 1e 3e ec c7 0e bc
       0.17242487 0.05436821 0.15476675 -0.008714657
0000a0 06 02 f1 3d a2 7c 23 be 92 ba 1f be 16 67 74 bc
       0.11767964 -0.15965512 -0.15598515 -0.014917156
0000b0 e9 56 1c be 79 ed 96 bd 51 cb 0c 3e 4d 97 eb 3d
       -0.15267529 -0.07369513 0.13749434 0.11503468
0000c0 d2 85 0d 3e c1 2a 33 be c5 dd 8e 3d 95 b9 0b be
       0.1382058 -0.17496778 0.06975893 -0.13645013
0000d0 17 04 1b be 57 2e 03 3e 52 4d 5f bd 23 c8 00 be
       -0.15138279 0.12810646 -0.054517098 -0.12576346
0000e0 19 75 0d 3e 6b 52 f7 bc 01 b1 53 bd 84 72 08 be
       0.138142 -0.030190667 -0.051682476 -0.13324934
0000f0 11 5c 8f 3d 03 75 2e be 39 1b 09 3d fa ca 16 be
       0.06999982 -0.17036824 0.033473227 -0.14725867
000100 d3 7d c1 3d 92 7b 98 b9 8b f2 ba 3d 15 a4 ba bd
       0.09447827 -0.00029083766 0.09128293 -0.091133274
000110 1f 5f 05 3e 87 b3 2b bd fa 8a f6 3b 74 7e 0e bd
       0.13024567 -0.041919257 0.0075238915 -0.034788564
000120 1b 40 a9 3d 4f 3d 07 be 02 11 13 bd 84 cd 1a 3e
       0.0826418 -0.13206981 -0.03590489 0.1511746
000130 f4 0e 9b 3d c7 d9 6f 3d fd e2 ef 3d 22 9d 75 3c
       0.075712115 0.058557298 0.117132165 0.014991077
000140 8c b2 27 be b1 ad dc 3d 56 ff 76 3d f4 93 08 be
       -0.16376704 0.107753165 0.0603021 -0.1333769
000150 90 15 bb 3d 7a a0 3a 3d a0 5f d1 3d 8d 03 0f be
       0.09134972 0.0455632 0.10223317 -0.13966198
000160 1e 97 f2 bd a9 5d b1 bd 9a 11 04 be 09 3b 4c bd
       -0.118452296 -0.086604424 -0.1289734 -0.049860988
000170 2a a0 27 be 84 3e 53 3b 58 77 b3 3d fc 34 05 be
       -0.16369691 0.0032233307 0.087629974 -0.13008493
000180 5a e1 a4 bd cb c7 31 3e 96 a1 29 3e 74 58 11 3e
       -0.08050795 0.17361371 0.16565546 0.14193898
000190 7c 90 a5 3d 60 2f 50 3d 8d 42 f5 bd 2d cf 0f bd
       0.08084199 0.05082643 -0.11975584 -0.035109688
0001a0 31 7b 59 3d e5 e2 fa 3d 1b 77 68 3d fd 63 82 3d
       0.053096 0.12250308 0.056754213 0.063667275
0001b0 2c 57 a1 bd 2b 91 17 be 69 0f 77 3d 3c 6b 03 3e
       -0.07877955 -0.14801471 0.06031743 0.12833875
0001c0 bb 51 18 be cf d0 c2 bd 67 90 33 be 99 75 0f 3d
       -0.14874928 -0.09512483 -0.17535554 0.03502426
0001d0 b5 a5 ed bd 3f b7 19 3e 68 6f 2d be 8b db b5 bd
       -0.11603872 0.15011309 -0.1693703 -0.08879765
0001e0 60 3d 3b 3d ea 2c f7 bc d7 a6 2a 3e e8 2c 83 3d
       0.04571283 -0.030172784 0.16665207 0.064050496
0001f0 af ca 04 be a9 0d c1 3d 8f 36 a9 bd 3e dd 31 bd
       -0.12967943 0.094264336 -0.08262359 -0.043423884
000200 32 29 4e 3d 41 bf 33 3e 3a 99 1c be 3f b5 14 3e
       0.050332256 0.17553426 -0.15292826 0.14522265
000210 4c 5c 1d 3e 8c 42 5d bd 25 5e 36 3d 24 0b 8f 3d
       0.1536724 -0.054018542 0.044523377 0.06984547
000220 00 f6 09 bd 81 ab 14 be 47 e6 8a bd 90 37 b4 bc
       -0.03368187 -0.14518549 -0.06782203 -0.02199915
000230 60 e4 78 3d bb c7 c4 3d 8f 76 06 be 82 bd 10 3e
       0.06076467 0.09608408 -0.13131164 0.14134791
000240 2d 50 cb bd 23 63 d8 3c f9 fa 47 bd 59 bd 43 bd
       -0.09927402 0.02641446 -0.04882333 -0.047787998
000250 ef 68 a8 3d 7c 7a aa 3c 70 49 24 3e f4 8b 2b 3e
       0.082231395 0.020810358 0.16043639 0.16752607
000260 c3 e2 25 be d2 4c 2c 3e 69 3e 00 3e d1 4d 82 bc
       -0.16199784 0.1682618 0.12523808 -0.015906246
000270 4c ef b7 3d e3 b0 53 3d 0e 5a b0 bd bd 36 df bd
       0.08981189 0.051682364 -0.086109266 -0.108991124
000280 ca bb da 3d a2 6d a8 bc a8 fe 33 3e 3e e2 57 3c
       0.10680349 -0.02056009 0.17577612 0.013176499
000290 04 fa 32 3e d8 da ea bd ef 31 13 be 32 29 6b bd
       0.17478186 -0.114675224 -0.14374517 -0.057412334
0002a0 b9 af e5 3d 57 45 b9 3c 67 2c 01 be 67 cd 7e 3d
       0.11215157 0.022616072 -0.12614594 0.062207606
0002b0 5e 92 9f bc be 1c d4 3d 0a fe 25 be 17 24 d9 bc
       -0.019478973 0.10357045 -0.1621019 -0.026506467
0002c0 5d a2 13 3e b2 8f d4 bd f7 cb 26 3e 8b 06 9f 3d
       0.14417405 -0.1037897 0.16288744 0.0776492
0002d0 93 68 26 3e f5 5a c8 bd ca 8c ac 3d 9c 0d 0e be
       0.1625083 -0.09782974 0.08425291 -0.13872379
0002e0 23 df 1a bc 0d 1c 16 3e 10 0f 2d 3e 36 73 bc bd
       -0.009452614 0.14659138 0.16900277 -0.09201662
0002f0 1c 98 2d bd 8e db c5 bd bf 9c 7f 3d fb 82 ba bd
       -0.04238139 -0.09661017 0.062405344 -0.09107014
000300 27 16 f0 3d e1 e5 23 3e ad 0e a3 bc 11 fa dd 3d
       0.11722975 0.1600566 -0.019904459 0.10838712
000310 8d a5 33 be 2f b7 08 be c0 8c 04 3e 88 ae 4e bd
       -0.17543621 -0.13351129 0.12944317 -0.050459415
000320 5d 4d ae 3a 6d 72 c7 bd fc 04 fd bc 6d 97 19 3d
       0.0013298203 -0.09738622 -0.030886166 0.037497927
000330 52 6b c7 bd e1 3c 53 3d 20 de 31 be e8 e3 b2 39
       -0.097372666 0.05157173 -0.1736989 0.0003412061
000340 ca 68 2b 3e 50 be cf bd 77 7e 7d bd 9f 74 04 be
       0.16739193 -0.10143721 -0.061888184 -0.12935112
000350 7a cb ee 3d 5f 87 aa 3c a9 f4 f4 bd 4b e8 04 3b
       0.11659904 0.020816503 -0.11960728 0.002028006
000360 56 49 95 3c 6b 1a 29 3d 5a 8d cc bd 1a 27 67 3d
       0.018223446 0.04128496 -0.09987898 0.056433775
000370 77 bb 8a 3d 1e cd 8f bb fe 12 23 be b5 e6 c5 3d
       0.06774037 -0.0043884655 -0.15925214 0.096631445
000380 ea 60 8a bd f0 73 34 3e ba 58 01 be 4e 59 20 3e
       -0.06756766 0.17622352 -0.12631503 0.15659067
000390 0c 7b 09 be f3 6a 6e bd 06 f8 74 bd a3 e7 0f be
       -0.13425845 -0.058207463 -0.059806846 -0.14053206
0003a0 55 95 05 be c0 28 26 bd 06 8e cd 3d 7c ad 2c be
       -0.13045247 -0.040566206 0.100368544 -0.16863054
0003b0 f6 e0 8e ba a9 37 2b bd ba 0f f1 3c 37 28 bd bd
       -0.0010900784 -0.04180113 0.029426444 -0.09236186
0003c0 74 2a 13 bd 2e 94 22 3e 32 c8 b9 3d dd 2f f4 3d
       -0.03592916 0.15876839 0.09071387 0.11923192
0003d0 f9 48 38 bc d5 21 df 3c ad 47 d2 3d 16 36 83 3b
       -0.011247867 0.027237812 0.10267577 0.0040042503
0003e0 76 e9 ae 3d b5 b8 b7 bd dd dc 18 be f4 94 bf bd
       0.08540623 -0.08970777 -0.14928003 -0.093545824
0003f0 59 2d 1f be af b9 33 3e f3 a7 2c 3d 5e 3a a2 3d
       -0.15544643 0.17551301 0.042152356 0.07921289

model.1.weight f4 [64, 256]
000000 b1 59 ce 3c f7 63 d1 bc ca 7e c4 bc c1 fd e8 3b
       0.025189253 -0.025560362 -0.023986239 0.007110328
000010 c2 d6 fa bc c8 74 01 bd 09 24 23 bd c1 d6 19 3c
       -0.030619983 -0.031605512 -0.039829288 0.00938958
000020 f4 37 08 3d 44 cf 01 3d c4 ad 08 bd 3e dd 52 bd
       0.033256486 0.031691805 -0.03336884 -0.051480524
000030 43 45 08 3d 6f 3b 2e 3d 8e c1 2a bc b1 f4 08 3d
       0.033269178 0.04253715 -0.010422124 0.03343648
000040 04 01 16 bd 1c d5 31 bd fb 17 09 bd 6c 9c 13 bc
       -0.036622062 -0.043416128 -0.033470135 -0.009009462
000050 51 03 65 3d fa 8a bf bc b5 83 cb b9 45 71 7f 3d
       0.055911366 -0.023381699 -0.00038817307 0.06236388
000060 ee d3 d8 3c 58 a9 28 3c 53 d0 00 bd 66 ca 0a bc
       0.026468243 0.010294281 -0.031448673 -0.008471107
000070 7c 55 24 bd 39 51 1e bd 43 13 45 3d cd e5 5f 3d
       -0.040120587 -0.03865168 0.048114073 0.054662514
000080 bb ad 4f 3d 60 e1 87 bc 0c fe db 3c 85 af 2b bd
       0.05070279 -0.01658696 0.026854537 -0.041915435
000090 2c 1b 49 bd f3 c7 02 bc 24 b3 68 3c e9 08 1e bb
       -0.04909818 -0.007982242 0.014202867 -0.0024114198
0000a0 72 de 14 3d 0a 5b 73 bd 8b e6 9e bc a6 4b d1 bc
       0.036344953 -0.059412993 -0.01939704 -0.025548767
0000b0 2a 30 b6 3c 28 3a e3 3c eb f6 5d bd 73 25 39 3d
       0.022239763 0.027737692 -0.054190557 0.04520173
0000c0 fa fd c0 3c d6 98 ce 3c e5 1c 3d bd db 47 51 3d
       0.023558605 0.025219362 -0.046170134 0.051093917
0000d0 52 8f 37 3c 6c 64 c3 3c a2 8a 3c bd cc 7b 42 bd
       0.011203604 0.023851596 -0.046030648 -0.047481343
0000e0 ef 33 16 bd 89 34 3e bd 45 e0 7d ba c4 16 c0 3c
       -0.03667062 -0.04643682 -0.0009684603 0.023448355
0000f0 a0 33 06 3b 01 55 32 bd 31 21 eb 3c ea 30 79 3d
       0.0020477548 -0.043538097 0.02870235 0.060837664
000100 28 2d 63 3d 64 4a 66 3d 7a 19 27 3d f6 b9 36 bd
       0.055462986 0.05622329 0.04079578 -0.04461094
000110 47 a2 2b bd df 0c 9a bc 2c 4d fa bc 2e e3 fa 3c
       -0.041902807 -0.018804966 -0.030554377 0.030625906
000120 80 fe 0e bc 74 a4 db ba 96 ec c9 3c d1 07 1a 3d
       -0.00872767 -0.0016757385 0.024648946 0.03760511
000130 29 c7 75 3d e1 39 48 3d d8 96 7b 3d c9 ee a9 39
       0.060004387 0.048883323 0.061423153 0.000324121
000140 15 bc 66 bd 64 08 31 bd 22 17 2e bc 5d 3e 7d bd
       -0.056331713 -0.043220893 -0.0106256325 -0.061827052
000150 cb 43 55 3d 78 81 9b bc 6c 2d 01 bd ac 5e a5 bc
       0.052066606 -0.018982634 -0.03153746 -0.020186745
000160 04 aa 14 3d e1 59 c8 bc b0 e3 2e 3d c8 f1 53 bd
       0.036294952 -0.02445692 0.04269761 -0.051744252
000170 1b 5f 03 bd b5 7d 2c bd a0 e2 00 bd 49 27 56 bd
       -0.03207312 -0.04211207 -0.031466126 -0.05228356
000180 95 b4 95 3c 56 db 87 3c d9 d7 87 bb 58 e4 36 3d
       0.018274585 0.01658408 -0.004145604 0.04465136
000190 97 16 05 3d 68 47 4e bc f1 20 77 bd b6 00 1d bd
       0.032492246 -0.012590267 -0.06033415 -0.038330756
0001a0 c2 3b 29 3d ff 24 33 3d 50 47 8c 3c 19 bd 3f 3d
       0.041316755 0.043736454 0.017123848 0.046811197
0001b0 35 48 49 bd f3 4f 11 3d 84 73 88 3c 47 93 24 3d
       -0.049141128 0.035476636 0.016656645 0.040179517
0001c0 93 f3 3d 3d 9f df f7 bc ba 16 95 bc 70 db 0d bb
       0.04637487 -0.030257998 -0.018199313 -0.0021645688
0001d0 e4 40 7c bd de 29 51 3d 17 ce 55 3c 3a 85 d7 bc
       -0.061585322 0.05106532 0.013049624 -0.026308645
0001e0 d8 f9 72 bd 1c ad 7e 3d 3e 63 c9 3a 2d cf c6 bc
       -0.0593203 0.06217681 0.001536466 -0.024268711
0001f0 c9 6d 50 3d 75 f0 b8 3c f1 49 35 3d b3 42 9c bc
       0.05088595 0.022575596 0.04425997 -0.019074773
000200 eb 51 ca 3b 05 55 f0 bc e6 6e 2e 3c e8 71 44 3d
       0.006174316 -0.029337415 0.010646557 0.047960192
000210 46 05 28 3c d7 c6 76 bd 0a 22 0e bd 89 68 f5 3b
       0.010255164 -0.060248222 -0.03470043 0.007489268
000220 bb bb ca b9 93 f5 19 3d 3b cc 1a 3b 4f 94 22 bb
       -0.00038668312 0.037587713 0.0023620266 -0.0024807637
000230 8d a2 b4 3c 8a af 75 bd 0c 73 71 3d cd 19 9d 3c
       0.022050167 -0.05998186 0.058947608 0.019177342
000240 56 97 1b bc 29 77 a4 bb 64 f4 cc bc cc 3f 32 bd
       -0.0094965305 -0.005019088 -0.025018878 -0.043517873
000250 76 ca 07 bd d5 c2 18 bd ce e0 21 3d df a8 2c bc
       -0.033152066 -0.03729518 0.03952103 -0.010538309
000260 b1 5a 0f 3c 43 2c 7b 3d 52 0d a1 3c f7 10 c9 3c
       0.00874965 0.06132151 0.019659672 0.024544222
000270 f1 c0 d8 3c d3 76 90 bc 5f d3 1c 3c ae a9 a7 bc
       0.02645919 -0.017634785 0.009571879 -0.020466652
000280 f5 55 62 3b 9d 8b 7b bd c7 f8 11 bd 02 cb 5f bb
       0.0034536098 -0.061412442 -0.035637643 -0.0034148102
000290 ed 8a b8 bc 65 f3 70 3d 03 ff d2 3c 90 be 95 3b
       -0.022527182 0.05882587 0.025756365 0.004569836
0002a0 40 55 3d 3d e4 75 47 bd a4 52 4a bd 35 79 89 3c
       0.04622388 -0.048696414 -0.04939522 0.016781429
0002b0 3e 57 64 3d f4 82 d3 bb 2f 79 4c 3d 03 83 8a bc
       0.055747263 -0.00645482 0.049920257 -0.016908174
0002c0 a2 48 94 bc d3 74 af bc fc d3 2e bd bb 70 c9 bc
       -0.01810104 -0.02141801 -0.042682633 -0.024589887
0002d0 0d 4d 4d 3c fd dd dd bb b5 f0 e1 bc 17 27 a8 bc
       0.012530577 -0.006770848 -0.027580598 -0.020526452
0002e0 3f ec 41 3c 6c 7f e6 3c 88 ac 2f bd 2d 95 4d bd
       0.011836111 0.028136931 -0.042889148 -0.050191093
0002f0 d9 21 44 3c 0e 85 e0 bb 68 cc 0d bd d3 a7 45 bd
       0.011970961 -0.006851799 -0.034618765 -0.048255753
000300 17 2a 09 bc b5 24 9b 3c af e1 1d bd 78 64 45 3d
       -0.008371851 0.018938402 -0.038545307 0.048191518
000310 0e 15 6e bd a0 27 b3 b9 10 da 23 bd 15 fa 60 3d
       -0.058125548 -0.00034171063 -0.040002882 0.054925997
000320 30 e3 3c bb 16 0a e8 bb c2 70 e1 3b 12 7b 2e 3d
       -0.0028821938 -0.0070812805 0.006879897 0.042597838
000330 7c 36 2d bc 20 63 55 3d dd 22 1c 3c 31 8d 71 3d
       -0.010572072 0.052096486 0.009529796 0.05897254
000340 4e ef 54 bd 81 33 3e 3c bf bb a4 bc 7d c2 61 bd
       -0.05198603 0.011608959 -0.020109056 -0.05511712
000350 36 a5 76 3d 47 22 3e 3d 4d f7 67 bd 5a 49 37 bc
       0.06021615 0.04641941 -0.05663233 -0.011186922
000360 3e 6b ae bc 68 03 2d 3d 35 30 4f 3d 44 2b 4d bc
       -0.021291371 0.042239577 0.050583083 -0.012522522
000370 5c 0e 2c 3d 72 eb 58 bd 6d b0 55 bd 4c e6 32 3c
       0.04200588 -0.052958913 -0.052170206 0.010919165
000380 56 b5 4d 3c c7 c1 f0 bc f5 d1 99 3b ce 43 da bb
       0.012555441 -0.029389275 0.0046942183 -0.006660915
000390 4a 05 36 bb 89 91 09 bd 39 74 2a 3d e8 e4 6c 3c
       -0.0027774149 -0.03358606 0.041614745 0.014458872
0003a0 53 85 99 bb b8 47 44 3d ad 06 71 bd 37 9e b1 3b
       -0.004685083 0.04791996 -0.058844257 0.005420472
0003b0 2e f5 68 bd ba 36 2c 3d e5 8d 11 3c 9a 30 17 bd
       -0.056874447 0.04204438 0.008883928 -0.036911584
0003c0 55 92 92 bc 67 d9 45 bc da e5 58 3a a6 cd 34 bc
       -0.017892042 -0.012075759 0.00082739966 -0.0110353585
0003d0 b1 9f 71 3d d6 10 20 bd 8b 25 ca 3c 79 37 62 3c
       0.058990184 -0.039078556 0.024676105 0.013807171
0003e0 2d 6e f3 b9 9e 96 94 bc 33 57 62 3c 9c dd 52 bd
       -0.0004643066 -0.018138226 0.013814735 -0.051480874
0003f0 35 12 e4 bc 64 80 08 3c 30 16 21 3d 91 66 fa bc
       -0.027840713 0.008331392 0.0393278 -0.030566486

model.1.bias f4 [64]
000000 33 64 d0 bc e5 84 4d bd 48 80 9f 3c 48 55 25 bd
       -0.025438404 -0.050175566 0.019470349 -0.040364534
000010 1a 50 d7 bb 28 62 d7 bc e8 06 24 bd 25 21 4b 3c
       -0.006570828 -0.026291922 -0.04004565 0.012398039
000020 d8 6a 72 3d 33 92 84 bc fa 29 d4 bc 8d 19 45 3d
       0.059183925 -0.016182994 -0.025898922 0.04812007
000030 11 dc d6 3b 93 ea 36 bc 0a 80 03 bd 91 d4 40 bd
       0.0065569957 -0.011164325 -0.03210453 -0.04707772
000040 90 ab 5e bd 31 24 50 3c 57 90 a4 3c 7b 32 95 3c
       -0.054362833 0.012703941 0.020088358 0.018212548
000050 f9 e2 c3 bc 18 ea 00 3d d9 07 cf 39 1e 90 5f bd
       -0.02391194 0.03147325 0.00039487964 -0.0545808
000060 a1 c1 60 bd 60 94 1d 3d 4f d2 0e bd 6e 16 5c 3d
       -0.05487216 0.03847158 -0.034868535 0.053732328
000070 8d 89 b0 3c de bd 1e bb e6 41 3f 3c 7d 43 8d 3c
       0.021549964 -0.0024222056 0.011673426 0.017244095
000080 cc a7 05 3d 98 6e 7b 3d ea 1e 63 3c 5f 4c 2e 3d
       0.032630727 0.061384767 0.013862351 0.042553302
000090 54 9a 13 3c 8b eb 79 bd 9b 4f 00 3a 5d b0 4f bd
       0.009008963 -0.061015647 0.00048946746 -0.050705303
0000a0 6b cb 76 bd bd d0 25 3d a5 3d 02 bd 94 47 55 bd
       -0.06025259 0.04048227 -0.03179707 -0.052070215
0000b0 d9 50 24 3d 8d e0 4e 3c 58 e3 49 bd e9 76 dc 3c
       0.040116165 0.012626779 -0.049289078 0.02691217
0000c0 53 8c 3e bc 4b 70 e8 3c b3 f6 1d 3d 00 43 33 bd
       -0.011630136 0.028373858 0.03856535 -0.043765068
0000d0 0f 26 07 bd 8a 91 40 bd 31 7e 30 bd b6 15 91 3c
       -0.03299528 -0.047013797 -0.043089096 0.017710548
0000e0 6c e6 1b bd 94 cc e3 bc d2 4f 72 3d 9c b6 46 bd
       -0.038061544 -0.027807511 0.059158154 -0.048513994
0000f0 32 06 b8 bc ba ee 1d bd 79 53 0d bc f3 0f da bc
       -0.022463892 -0.038557746 -0.008625858 -0.026618933

model.2.weight f4 [1, 64]
000000 4f 12 cf bd 38 ba 98 bc 5b 10 a2 3d 00 fb 47 3d
       -0.10110914 -0.018643484 0.07913276 0.048823357
000010 cb be bb bc dc 25 75 bd 00 01 e1 bc 56 b0 7d 3d
       -0.022918126 -0.05985056 -0.027466297 0.061935745
000020 a9 99 9a 3d f4 67 ee 3d f9 ba 13 3c 24 b0 2d bb
       0.075488396 0.11640921 0.009016746 -0.0026502693
000030 bf c2 42 bd 3b 6c bb bb 9a 96 af 3d ad 6b 63 bd
       -0.047549006 -0.005719689 0.08573647 -0.05552261
000040 99 d2 d0 bd 04 a3 82 3c 1f 46 4d 3c 10 d7 81 3d
       -0.10196418 0.015946873 0.012528925 0.06339848
000050 0f 45 d0 bd 83 b0 93 3c 83 71 cb bd b9 41 e2 3d
       -0.10169422 0.018028503 -0.0993376 0.11047692
000060 72 45 0c 3d ab c4 98 3c 53 3f d6 3d 44 98 6c bd
       0.034245916 0.018648466 0.10461297 -0.0577624
000070 06 31 87 3d 9c 62 f9 bc 67 6b 33 3d a3 1e 79 bd
       0.06601147 -0.030442528 0.0438036 -0.060820233
000080 92 72 fa 3c ad c3 bc bd 2c c5 5b bd 7b c8 ca bd
       0.03057221 -0.0921701 -0.053654835 -0.0990152
000090 73 ec bd 3d f9 92 df bd 77 e4 bc 3c fd dd 35 3c
       0.09273615 -0.10916705 0.02305816 0.011100289
0000a0 bf 2f ba 3c 42 3c 9f 3c 20 54 00 3e 15 17 7b bd
       0.022727845 0.019437913 0.12532091 -0.06130131
0000b0 b8 9a d5 bc 3b 54 cc bd 82 f8 65 3d 33 8f b0 bd
       -0.026074752 -0.09977003 0.0561452 -0.08621063
0000c0 45 77 e1 3d 81 e5 8e bd ac f2 a5 bd ba 33 41 bd
       0.11009077 -0.06977368 -0.081029266 -0.04716847
0000d0 c2 8f 9f bd ba ed c9 3c 77 7f c5 3d d1 98 64 3d
       -0.077910915 0.02464949 0.096434526 0.0558098
0000e0 87 21 1a bc 59 fd fa bd e8 95 63 bd 6a 47 04 3e
       -0.009407408 -0.122553535 -0.055562884 0.12917867
0000f0 54 8b b9 bd 2b f9 c1 bd e4 0e 1b bc b0 5b d4 3c
       -0.09059778 -0.09471353 -0.009463999 0.025922626
