ml/models/TP53_8_8 Model_3.pt (torch, 137231 bytes, 7 tensors)

conv.weight f4 [64, 1, 8]
00000000: 4871 a93d 49a4 f7bd a318 86bd 70ec 0bbd
00000010: 1b16 12bc c674 ae3e 1437 87be 746a 65be
00000020: 5d82 333e c6a3 b4be 8db7 e3bc 5410 8ebe
00000030: 15ef 9abe 73df 8b3d 0f50 7b3e 0cee 6b3e
00000040: a5bb 27be 06b7 ae3e 5b65 46be 5af0 a93e
00000050: 07b2 45be e07c 16be 42bb 1c3e d473 abbe
00000060: 5ba5 61bd 0ee4 19be f340 94be 441e 9b3e
00000070: 1c9c b2be 7f7b e4bc 8c96 b4be e2a4 063e
00000080: 3c55 37be 8f2a 613e 60f6 333d 6aee 783e
00000090: c22b 57be 3a2d 133e f4a6 b0be edf0 813e
000000a0: eeb8 893e e219 6a3e c50b 95be 6302 d83d
000000b0: 91c5 133e 260d 8a3e 1bf1 0ebe 8ee2 553e
000000c0: b546 633e c822 a5be 84be 48be e8ac 913e
000000d0: 960b 623e 09b5 f0bb a235 143e 4709 ab3e
000000e0: 392a 75be bdee 15bd ab71 97bd 68e6 883e
000000f0: 8b5c 7fbe 2860 e5bd 0644 353e e6e9 acbc
00000100: edbf a3be f8f8 7f3e 2e97 0abe 07c2 80bd
00000110: 7e59 143e e737 a93e 8ab1 673e 00eb 72be
00000120: 6a5e 8abe a694 963e d45d 92be 848b 29be
00000130: b62d 713d 190d aebe 9e84 b13e 014e 893d
00000140: 0793 a33e 0ac0 943e ea57 5c3e f7ce 673e
00000150: 78cc 233d 5474 5b3e 0576 9d3e 5dc0 07be
00000160: c6e7 473e ca7d 883d b258 aabe c9ea 643a
00000170: 151b 00bd 8e1c 9b3d 7d98 38be 3974 aebe
00000180: 092d 0a3e 4bff 433e 2462 9f3c 7fa8 4bbe
00000190: 4e9f 25be c46a 8b3e a29f 23be 5395 413c
000001a0: 4c63 15be 3df4 a43e 4aac 22be 038d 863e
000001b0: aa41 a93d ccb0 b0be 4f2d 373d 1924 08bd
000001c0: ef70 fe3d adfe b1bc 57bc 703e b902 91be
000001d0: 6bd3 f13d 8a6b f23b 22a5 94be ed3c efbd
000001e0: 5baa e3bc 059e 04be 64dc b33d d23d 8dbe
000001f0: d811 783e bf4d aebe 1bd1 8abd 4bdf ab3e
00000200: eb34 a8be d676 cabc 0e19 ecbd 935d 7ebe
00000210: c5fe 50be 9603 4dbb 46f2 453e 59b6 9e3e
00000220: 05da 7ebe fa05 843e bf60 d93d 12e0 a6be
00000230: 1e80 8cbd e3ad 3bbd 4171 6c3c 0a70 9e3d
00000240: fb8a 05bd 6508 d2bd 6ddc b13e cfce b03d
00000250: 88f0 f13d 5564 88be c194 85bc f434 50bd
00000260: 3bfe 643e e841 b33e e787 703e 6243 2ebe
00000270: f2bc e4bc 1105 d9bc 6996 ea3c 7251 b5bd
00000280: cbd5 1bbe 0843 783e 7f4e 943e c901 ae3e
00000290: 7314 49bd 3960 ae3d c74b 9ebe eb54 bdbd
000002a0: 2cb9 933c a5af ac3d 46a9 823e 949b 933e
000002b0: 5b10 a73e 4d73 c5bd 2f71 813c f3e1 2f3c
000002c0: 1914 b03e 4ade 16bd 8b27 a2bc aa80 97bd
000002d0: b7b5 153e d5f3 0f3e 9766 97be adb7 8cbd
000002e0: 8bb1 a5bd 0ec4 45be 9de6 263e 004f 803e
000002f0: 1f70 2cbe 8143 95be 8169 67be 3b7c 453e
00000300: edf7 ea3d 4b3f eebc 7740 483e 8162 27be
00000310: b138 613e a898 a43e e16c 1abe fb8b 8b3e
00000320: bf5b 7bbe 1c23 eebb 7997 8a3e 9ded 833e
00000330: 7657 603e fd0e be3a e2b2 233e 070a 553e
00000340: 8eae c83d a6d3 aabe d254 f73d 2e8e 0c3e
00000350: 777a 89be 19fc 8abe 69d0 7ebe 8ed6 71bd
00000360: f8ff 7c3d 0cd9 d6bd 9191 af3e de12 2f3e
00000370: 4b7c c33d ad6f dbbc 6007 88be 687e 8f3e
00000380: a2b1 a73e 3819 a23e 6406 883d f4d0 d5bd
00000390: 5391 9abe 7a2b 19bd f27d b23d 205a 9bbe
000003a0: 239e 39be db97 ae3e 3a44 9cbe 612f a8be
000003b0: c1e3 413e 2284 0a3e 8ada 95be 8e2a d83d
000003c0: ec44 cbbd ca3c 843e f2c7 143d 6822 40be
000003d0: 7dc7 943e b83f b73d 25c8 88be b035 2a3d
000003e0: f91f 7abe 6873 883e 399e 87be 51c5 13be
000003f0: b0c0 35bd 9cba 17be a69d 01bc 8069 ae3e
0.0827356 -0.12091882 -0.06547668 -0.03416103 -0.008916403 0.34073466 -0.2640921 -0.2240389
0.17530198 -0.352812 -0.027797485 -0.27746832 -0.3026053 0.06829729 0.24542259 0.23040026
-0.16380174 0.3412401 -0.19374602 0.33191186 -0.19306193 -0.14696074 0.15305808 -0.33486807
-0.055089336 -0.15028402 -0.28955802 0.30296528 -0.34884727 -0.027890919 -0.35271108 0.13148835
-0.17903608 0.21988891 0.043936133 0.24309698 -0.21012786 0.14372721 -0.34502375 0.25379124
0.26898903 0.22861436 -0.29110542 0.1054733 0.14430834 0.26963156 -0.13959162 0.20887205
0.22194941 -0.32253098 -0.19603926 0.2845223 0.22074732 -0.0073458 0.14473584 0.33405516
-0.23941888 -0.03660463 -0.07394727 0.26738286 -0.24937646 -0.11199981 0.1770173 -0.021107625
-0.31982365 0.24997318 -0.13534233 -0.06287008 0.14487264 0.33050463 0.2262632 -0.23722458
-0.27025157 0.29410285 -0.2858721 -0.16557127 0.058881484 -0.33994368 0.3467149 0.06704331
0.3194811 0.29052764 0.21517912 0.22637545 0.03998992 0.21431094 0.30754104 -0.13256975
0.19522008 0.06664617 -0.33270794 0.00087324955 -0.031275827 0.07573806 -0.1802692 -0.34073046
0.13493742 0.19140355 0.019455977 -0.19888495 -0.16174051 0.27229893 -0.15978864 0.011815387
-0.1458866 0.3221759 -0.15886036 0.26279458 0.082644776 -0.34509885 0.044720944 -0.03323755
0.12423884 -0.021727884 0.23509346 -0.2832239 0.11807903 0.0073980736 -0.29032236 -0.116815425
-0.027791193 -0.12950905 0.087822706 -0.27586228 0.24225557 -0.3404369 -0.06778165 0.33568797
-0.32852873 -0.024714869 -0.11528216 -0.24840383 -0.20409687 -0.0031282655 0.19330701 0.30998495
-0.24887855 0.2578581 0.10614156 -0.32592827 -0.06860374 -0.04582013 0.014431299 0.077362135
-0.032603245 -0.102555074 0.34738484 0.086331956 0.11813456 -0.26639047 -0.016306283 -0.05083175
0.22362606 0.3501122 0.23489343 -0.17017892 -0.027922127 -0.026491674 0.028636174 -0.08853425
-0.15218274 0.2424432 0.28966138 0.33985737 -0.049091768 0.08514447 -0.3091719 -0.092447124
0.018032633 0.08431939 0.2551977 0.28829634 0.32629666 -0.096411325 0.01580104 0.010735023
0.34390333 -0.036833085 -0.019794246 -0.073975876 0.146201 0.14057858 -0.29570457 -0.06870971
-0.08090504 -0.1931307 0.1629891 0.25060272 -0.16839646 -0.29153064 -0.2259884 0.19285671
0.11473069 -0.029082915 0.19555841 -0.1634617 0.21994282 0.32147717 -0.15080597 0.27255234
-0.24546717 -0.007267369 0.2706869 0.25767222 0.21908364 0.0014500316 0.15986207 0.20804606
0.09798919 -0.333646 0.12076725 0.13726112 -0.26851246 -0.2714546 -0.2488419 -0.059042506
0.06176755 -0.10490617 0.34290746 0.17097041 0.095451914 -0.02678665 -0.26568127 0.28026128
0.3275271 0.31659865 0.06641844 -0.10440245 -0.30189 -0.037394978 0.087154284 -0.30342197
-0.1812673 0.34100232 -0.30520803 -0.32848647 0.18934537 0.13526967 -0.29268295 0.10554992
-0.09925255 0.25827628 0.036323495 -0.18763125 0.29058447 0.089477 -0.26715198 0.041555107
-0.24426259 0.26650548 -0.26487902 -0.14430739 -0.044373214 -0.1481728 -0.0079111215 0.34064865

conv.bias f4 [64]
00000000: 9edd 6bbe bd77 febd 2770 cf3d 8a2e 053c
00000010: fa98 f33c 67a1 90be 07fc ad3e 1e2d 98be
00000020: 961d 3fbe 982f 99be e68d a0be 2be4 0abe
00000030: e175 8bbe 0cd6 913e 44c8 0d3d 49b1 56be
00000040: 7593 213c 9e9f df3d 0fee 9fbe d2de 2b3c
00000050: 5a13 643e 6571 84bd d05c 763d a1f9 8cbe
00000060: e4a2 563c 5fbb 17be 9e4f 28bd 6f0c 163e
00000070: 1880 603d dd0b f33d 434c 16be f034 843e
00000080: bee4 5f3e 5495 45be 4726 96be a3cd b03e
00000090: 0f44 3bbd e576 90be 4a4d a3bd d880 ac3c
000000a0: 5e86 6ebe 292f 7bbe d125 87be 78a6 5d3e
000000b0: 727a 1d3e 64ae 01bd e614 52be 11fd 7cbe
000000c0: 0d7a 6c3e a1c7 83be b809 2fbe f550 25be
000000d0: 4e9d 203e 3c04 993d 7921 9cbe 5daf a0bd
000000e0: cfa0 9bbe 31ad 60bd a40b 323d c41b 673e
000000f0: e175 9d3e 1a68 eb3d 13c4 4bbd 64b8 563e
-0.23033759 -0.12425182 0.10128813 0.008128772 0.02973603 -0.2824814 0.33981344 -0.29721922
-0.1866363 -0.29919124 -0.3135826 -0.13563602 -0.27238372 0.28483617 0.034614816 -0.20966066
0.009861817 0.109191164 -0.31236312 0.010490136 0.22273007 -0.06466941 0.060147107 -0.27534202
0.01310036 -0.1481757 -0.041091554 0.1465318 0.05480966 0.11867497 -0.14677529 0.25821638
0.21864602 -0.19295245 -0.29326078 0.34531888 -0.045719203 -0.2821571 -0.07973726 0.021057531
-0.23293445 -0.24529709 -0.2639604 0.21645534 0.1537874 -0.031660452 -0.20515785 -0.24705912
0.23093434 -0.25738242 -0.17093551 -0.16144164 0.15685007 0.07471511 -0.30494288 -0.07845948
-0.30396125 -0.05485267 0.043468133 0.22569185 0.30753997 0.11494465 -0.049747538 0.20968777

model.0.weight f4 [256, 64]
00000000: 68e2 ffbd 8e1e 6fbd 1270 d8bd b417 c73c
00000010: a07c 96bc c429 ecbc 72ab 623c 1dec 68bd
00000020: cd95 2a3b 9a7e 7abb 21a0 c7bd 05ca 953d
00000030: ffbc 9b3d 1fc7 c6bd 0dde a23d 97e3 4dbd
00000040: fa3c 7fbc ccae 94bd 505f e1bd 6c5e c23d
00000050: e1f2 d13b 091d d93d 494b 1cbd 97e8 f23c
00000060: ef62 ef3d 84b3 60bd 0c76 123d 31ff 0abb
00000070: 04e5 773d c456 d33c 5aa2 8bbd 5942 4a3d
00000080: 8cc9 6ebd ac66 1abc 341e 133d a2e1 ab3d
00000090: 08af 27bb 4123 ab3d c770 7fbd b0bf c3bd
000000a0: 5b9c e3bd 3b34 e0bc 6f4a 72bd 49f3 ae3d
000000b0: 4cba c3bd f524 043d 99b5 013d 21aa be3d
000000c0: 42d0 be3c 5c55 35bb e6d6 813d bdf1 a1bd
000000d0: bd9c 6bbd e568 a33d 0cc6 36ba e0d1 8f3d
000000e0: ebfb d9bd 9913 dbbd fd8e ff3d 8ecd ccbd
000000f0: 5c83 f7bd 9851 e23d b15b 5a3d 6c7b 79bd
00000100: 7b95 d93c 4fe0 9bbd 4630 b33d 713f 04bb
00000110: d66a 4dbc 56f6 98bd 20e8 e23c 4f50 dd3d
00000120: dea0 6abd 5305 d5bd ee89 edbd 4d62 ebbd
00000130: 857e a43d 29a9 bdbd dfb8 d43d 0ea8 253b
00000140: 6004 bdbd f3b6 b7bd 0316 ad3c 33e5 d03d
00000150: ebf0 f53d ebe8 633d d1bb e6bd 8259 81bd
00000160: c429 0fbd 3669 56bd 0091 8e3d 3206 adbd
00000170: d37b ee3c 6d06 fdbd 77bc d7bc 3384 3f3d
00000180: f810 1dba f6d1 c2bd f6cb fa3d 9fa9 d5bd
00000190: 2162 15bd 4f77 b2bb babd 11bc e2ba dc3d
000001a0: b9d1 683d df33 a93c 5e02 ec3c f61f 75bc
000001b0: c930 56bd 90ae 84bd bb74 f13b 3b6b 923d
000001c0: 1428 aabd 0eec 2abd f17c f73c a814 253d
000001d0: 6ab1 84bd ef22 b43c f3e7 5c3d 2d65 de3c
000001e0: 48d9 923c 9656 d4bc 2bc7 febb 6da9 92bc
000001f0: a886 803d 2101 063c 7bc9 3ebd 0e77 ecba
00000200: d984 d33d adce fd3d 6f01 39bd c0ed 00be
00000210: f30e 88bc 04b5 5dbc 4238 dc3d 1324 b83d
00000220: 9b25 573d 6d88 b2bd d019 e43d 7f96 153d
00000230: 25dd ea3d c4a8 97bd ae92 943d f348 46bd
00000240: 0ee9 203d b3a4 e53d 552d 5cbd 1ef6 4abd
00000250: 4a21 a2bb 6262 833d bac8 4bbd 645d d6bd
00000260: 8257 4b3d 4362 e93d 81f6 37ba 8ebc f93d
00000270: 365b cabb 60fc e63d e901 a1bc f03c ef3d
00000280: 7712 233d 0ec8 643a 8be4 ebbc 792d b4bd
00000290: a5d9 1f3d 451e 10bd 596e 953d aecc 003d
000002a0: f6ee 5fbd 7d9a 3abc fe4a d23d c005 b93d
000002b0: a530 f63b ae5c c43c d38a 9fbd 42da e93d
000002c0: cc32 46bd 77a3 543c 2a88 24bc 8ae5 c93d
000002d0: fb53 19bd 89d2 83bd 3ddd 6d3d 498b c1bd
000002e0: d54d fd3d cbbd 623b 11fa 8e3d 1dfd 76bd
000002f0: 1f32 a23d 00a5 1c3d 8f82 613c 36e3 99bd
00000300: 2370 36bd 1401 7ebb ba83 14bd 8db9 87bd
00000310: 900c 0e3c 57db 113d 4a2a 98bd a149 e9bd
00000320: 4ba7 e5bc 75c5 7a3d c538 c73d 08f9 33bd
00000330: d3c4 883d 07c9 d5bc ac57 ddbd 8cf2 90bd
00000340: 9ad8 cbbd f7bc 05bd b451 b63b abc7 e7bd
00000350: e2b2 2bbd ccf5 023d ded2 913d 715e f7bd
00000360: 256d a63d 95db df3c 34cb ecba 3077 1f3d
00000370: ce51 b9bd f8ef 5ebd cfba 54bd 6283 1bbd
00000380: 578e 8fbd 2d84 d5bd 429d 82bd 6925 303d
00000390: c140 21bd 8db3 b8bc 42ff 113d ce01 433d
000003a0: bba6 fcba 29cf 5c3d 2ced 81bd 455b d7bd
000003b0: 5897 423d 58c7 cbbd 7f8a 68bd 3cff fe3d
000003c0: 71b5 973d cfab e7bc 460f a3bd 2fcd f7bd
000003d0: ce8c ac3c 26c3 37bd 1dbf 8e3c cc69 923d
000003e0: 843e e7bd 5341 70bd b8ac 6dbd ca9f b0bd
000003f0: efe7 ed3d d8ea 59bd 7f58 d23c 4be3 3b3d
-0.124943554 -0.05837875 -0.10568251 0.024303295 -0.018369973 -0.02882851 0.013834821 -0.0568658
0.002602923 -0.0038222433 -0.09747339 0.07313923 0.076044075 -0.09705948 0.07952509 -0.050265875
-0.015578503 -0.07259902 -0.110045075 0.09490666 0.0064071272 0.10601241 -0.038157735 0.029651923
0.11688792 -0.0548587 0.03575711 -0.0021209235 0.06052114 0.025798209 -0.068180755 0.04937968
-0.05829768 -0.009423893 0.035917476 0.083926454 -0.0025586504 0.083563335 -0.062363412 -0.09558046
-0.11113807 -0.027368655 -0.059153017 0.08542497 -0.09557018 0.032261807 0.031667326 0.09309793
0.023292664 -0.0027669286 0.06339817 -0.07907436 -0.057522524 0.079789914 -0.00069722603 0.07022452
-0.10643753 -0.10697097 0.12478445 -0.10000144 -0.12085602 0.11050719 0.0533101 -0.06090872
0.026560536 -0.07611143 0.08749442 -0.0020179416 -0.012537679 -0.0746886 0.027698576 0.10806333
-0.05728232 -0.10401406 -0.115985736 -0.11493359 0.08031944 -0.0926078 0.10386824 0.002527717
-0.0922935 -0.08970442 0.02112866 0.10199966 0.12008842 0.05564205 -0.11266292 -0.063159004
-0.03495194 -0.05234643 0.0696125 -0.08448447 0.029111778 -0.12354741 -0.026334984 0.046756934
-0.0005991603 -0.09512703 0.12245934 -0.10432743 -0.036470536 -0.0054463516 -0.008895332 0.107778326
0.056840632 0.020654617 0.028809723 -0.014961233 -0.05229262 -0.06478608 0.0073686517 0.07149359
-0.083084255 -0.041729026 0.030210944 0.040302902 -0.064791515 0.021989314 0.05393214 0.027147854
0.017925873 -0.025920194 -0.0077752075 -0.017903054 0.06275684 0.00817898 -0.046578865 -0.0018040852
0.10328073 0.12392936 -0.045167383 -0.12590694 -0.01660869 -0.013531927 0.10752918 0.089912556
0.052526098 -0.087174274 0.11137736 0.036520477 0.11467961 -0.07405236 0.072545394 -0.048409414
0.03928476 0.112130545 -0.05375417 -0.049551122 -0.004947816 0.064152494 -0.049751975 -0.104670316
0.049644 0.11395695 -0.0007017628 0.12194167 -0.006175424 0.112786055 -0.019654231 0.11681545
0.03981253 0.000872732 -0.028795501 -0.08797736 0.03902592 -0.035185117 0.07296438 0.031445198
-0.05467125 -0.011389372 0.1026821 0.090343 0.007513123 0.023969974 -0.077901505 0.114185825
-0.048388287 0.012978426 -0.01004223 0.09858234 -0.037433606 -0.06436641 0.058072317 -0.09450395
0.12368361 0.0034597989 0.0698129 -0.06029998 0.07919716 0.038243294 0.013764038 -0.0751404
-0.044540536 -0.0038757967 -0.036258437 -0.06627188 0.008669987 0.03560957 -0.07429941 -0.11390997
-0.028033873 0.061223466 0.09727625 -0.043938667 0.06678166 -0.026096834 -0.10807738 -0.07077512
-0.09953423 -0.032650914 0.005563939 -0.113173805 -0.041918643 0.03197269 0.07120298 -0.1207856
0.081262864 0.027326385 -0.001806593 0.038932025 -0.09048806 -0.05442807 -0.051935967 -0.037967093
-0.07009571 -0.10425601 -0.06377651 0.043004427 -0.039368395 -0.022546554 0.035643823 0.047609143
-0.0019275764 0.0539085 -0.06344065 -0.10515455 0.047507614 -0.09950131 -0.056772705 0.12451026
0.07407654 -0.028280167 -0.079618976 -0.120996825 0.021063235 -0.044863842 0.017425114 0.071490854
-0.11291221 -0.058656048 -0.058026046 -0.08624227 0.116165034 -0.05320248 0.025676964 0.04587106

model.0.bias f4 [256]
00000000: bc6a 33bd 62ee a3bd 9616 043d f43c 993d
00000010: 77a2 d9bd 6c5d 70bd 1649 dcbd d2cb e2bd
00000020: 295d 1dbd cf47 77bd 0f3b 723c b8ff 8cbc
00000030: 275b d53d b510 88bd fa0d fdbd 9991 73bd
00000040: e0ce 773d 1a4a afbb d091 a6bd 6c1e f23d
00000050: 90b5 b03d 1ce4 fcbd 3598 7abd f52e 9abc
00000060: 2498 2dbd 2cd6 aebc d069 a4bd b2a2 d73d
00000070: e9f7 6a3c a1f2 0d3d 6564 ffbc 0c41 b6bd
00000080: 83b5 d0bd ea22 c2bd 3817 74bc 01a5 9bbd
00000090: 7f1b 5b3d 63de 87bd a7fc 75bd d251 dabd
000000a0: e2a9 13bc 3f3b 793c 1a6c df3d 0478 df3d
000000b0: e287 6a3d f306 5c3d 0bfc 91bd 3682 7abd
000000c0: bca8 efbd e06e 06bd 90ff 60bb 7615 bf3d
000000d0: d25a f93c fadf 733d f553 d43d 825e f83d
000000e0: aa4f dfbd b1ac e7bd 5260 aebd e952 e3bc
000000f0: fe93 983d 706b 8f3d fd82 b33d b52c f8bd
00000100: c2ba 3d3d 0bc7 b33d 178b 5e3d 1484 7b3d
00000110: ad10 bf3d 58de 983a b6b4 1d3d d93f c23c
00000120: 9c85 ec3d 84e7 55bd 3224 ea3c bf8e c13d
00000130: 1a4e 9b3d 1793 b5bd 85ac 4f3d 9ee6 43bd
00000140: 4c14 c03d be2d a83d e0a7 45bc 9f82 3c3d
00000150: d1f4 b33c 9a71 733d f9c9 753d a82e 823d
00000160: 3d41 a3bc 4ae2 a3bd 6c38 a23d ffa0 c53c
00000170: ed64 4dbd 27d3 d03d b9fc 983c 85a9 1f3c
00000180: b658 4d3d 5cae a2bd e731 f73d cf27 643c
00000190: 2c08 a63d 6de3 bebd 7a0c d53d 987c 503d
000001a0: ae61 6c3d d41a 733d 7268 fcbd 204d bcbd
000001b0: 6bc3 853d 96c1 5c3d c57a 543d ccd0 cb3d
000001c0: 62e2 a03d eaee 883d 3996 f0bc 7257 6a3d
000001d0: c5a5 75bd aa26 403d e971 4dbd 3225 f1bd
000001e0: 2c8b d63d 3d47 5f3d ad58 bbbd 077d 94bd
000001f0: 4322 c1bd 01ef 09bd 8ce0 86bd 8dd2 88bd
00000200: e90d febd 55a2 cbbd e5d7 ca3d 7772 15bd
00000210: 31b2 ae3d 354a efbd afcc e7bd b901 a4bd
00000220: ea4e d0bd dee4 b2bd f84d 573d 63ec b43c
00000230: 237b c13d 1e79 c63d f7af aabd 7767 d0bd
00000240: f143 c13d 4f0c b9bd f09d 413d 5989 d03d
00000250: 1302 f53d 38c0 8bbd ab4c c33d 685f 68bd
00000260: 8fd1 ab3d 435c e33d 0344 123d c7d6 21bd
00000270: ca9f ccbd cfa8 e6bd 15b6 9e3d 4067 c83d
00000280: 4fbc 9f3d 51d9 5c3c cced 8e3c 7781 a2bc
00000290: cb99 d0bc f187 28bd 2a6f cbbd aed1 e33d
000002a0: 1f0a d23d 554c cdbd 25a3 a53d 4969 7b3c
000002b0: 6423 c73b 088d 563d 6949 a33d 4738 62bd
000002c0: 02d2 8ebd 2641 a0bd b08d c03d 4d9e abbc
000002d0: 98bc d2bd 6d45 a53d 6742 ca3d dd61 b53c
000002e0: 7a42 31bd f2b0 8c3c e602 a3bc 01f6 2a3d
000002f0: fc09 a43c 664c dbbd 39cc cebd 53e2 abbd
00000300: 7907 b1bd e4b2 e13d 4d44 39bc 5e08 503d
00000310: 4264 f6bd 6185 6b3c 4ee2 3ebd 56f1 763c
00000320: 8ef6 58bd 89b6 04bd e910 463d 55d7 f5b9
00000330: 4ba7 cc3b 8729 27bd bbc9 b43c 8dbc abbd
00000340: d821 81bc 1d51 aa3d a8f9 9cbc cbd4 003b
00000350: ef1c 8abd 5aa6 81bd 90ec 0f3d 26b0 ab3d
00000360: 5ff7 9a3d 296e b0bc f209 cd3c f6ea 803d
00000370: 303c f9bc ebf1 cabd 94b8 ca3d 69c2 833c
00000380: ad00 e13c faa0 8a3c 4d13 98bd fe9d 0b3d
00000390: 9367 7bbd 3682 b6bd 65f2 84bd 4a74 17bc
000003a0: 5a33 fa3d 1f62 35bd 2422 d93d e1f2 063d
000003b0: 09c1 19bb d9df ddba 29e4 d1bc e400 4ebd
000003c0: e727 dd3d 8384 783d b879 2ebd 7f40 ab3d
000003d0: f7be 4cbd 510f c1bd 376f 89bd c853 c93d
000003e0: 8bbc 93bd e04b bb3d 9695 563d fa18 3abc
000003f0: 25b5 1dbd 2426 d2bd 1f9b 5c3d 97e9 443d
-0.04380296 -0.08004452 0.032248102 0.07482329 -0.10626691 -0.058682844 -0.107561275 -0.11074032
-0.038418923 -0.060371216 0.0147845885 -0.01721178 0.104177766 -0.066438116 -0.123561814 -0.059465025
0.060500026 -0.0053494098 -0.0813328 0.11822209 0.0862838 -0.12348196 -0.061180312 -0.018821219
-0.04238142 -0.02134236 -0.08027995 0.105290785 0.014341333 0.034655217 -0.031175802 -0.088991255
-0.101908706 -0.094793156 -0.014898114 -0.07599831 0.05349302 -0.06634214 -0.0600554 -0.10660137
-0.009012671 0.015211879 0.109092906 0.10911563 0.057258494 0.053717565 -0.071281515 -0.061159335
-0.117021054 -0.032820582 -0.0034332015 0.09330265 0.030438814 0.059539773 0.10367576 0.12127401
-0.109038666 -0.11312235 -0.085144654 -0.027749496 0.07450102 0.07002914 0.087652184 -0.12117902
0.046320684 0.08778199 0.054331865 0.061405256 0.093293525 0.0011662943 0.038502418 0.023712086
0.115489215 -0.052222744 0.028581712 0.09451055 0.07583256 -0.08865946 0.050701637 -0.047827356
0.09378871 0.0821185 -0.01206395 0.046023007 0.021967323 0.05943451 0.06000707 0.06356555
-0.019928569 -0.080021456 0.07920918 0.02412462 -0.05014508 0.10196524 0.018675195 0.009745006
0.05013343 -0.07943413 0.12070065 0.013925507 0.081070274 -0.09320722 0.1040277 0.05090007
0.057710342 0.059351757 -0.12324609 -0.09194398 0.06531414 0.053895555 0.051874895 0.09951934
0.07855679 0.06686194 -0.029368507 0.0572123 -0.059972543 0.046911873 -0.05015746 -0.117746726
0.10475764 0.054511297 -0.09147773 -0.072504096 -0.09430363 -0.033675198 -0.06585798 -0.066807844
-0.12404997 -0.09943072 0.0990446 -0.036486115 0.08530081 -0.11684076 -0.11318337 -0.08008141
-0.10171302 -0.08735059 0.05256459 0.022085374 0.094473146 0.0969107 -0.08334344 -0.10175984
0.09436787 -0.09035551 0.04726976 0.10182447 0.11963286 -0.06823772 0.09536108 -0.05673161
0.083895795 0.11101582 0.035709392 -0.03951147 -0.09991415 -0.112626664 0.07749573 0.097853184
0.07799589 0.013479547 0.017447375 -0.019837124 -0.02546396 -0.04114527 -0.09933312 0.111239776
0.10255837 -0.10024325 0.08087758 0.015344926 0.006077217 0.05238059 0.07972986 -0.05522945
-0.069736496 -0.07824926 0.09402025 -0.020949507 -0.10289878 0.080698825 0.098759465 0.022141391
-0.043276288 0.017174218 -0.019898843 0.041738514 0.020024292 -0.10707931 -0.10097546 -0.08392777
-0.086440034 0.11020449 -0.011307788 0.05078923 -0.120308414 0.014375062 -0.04660254 0.015072187
-0.052969508 -0.03240064 0.04835597 -0.00046890476 0.006245529 -0.040811088 0.022068849 -0.083855726
-0.015763208 0.083162524 -0.019162014 0.0019658084 -0.067438 -0.06330557 0.035137713 0.08383207
0.075667135 -0.021536903 0.025029156 0.06294815 -0.030424207 -0.099094234 0.09898487 0.016083913
0.027466143 0.016922463 -0.07425556 0.03408622 -0.061378073 -0.089115545 -0.064915456 -0.009244034
0.12216826 -0.04428303 0.10602215 0.03294647 -0.0023461005 -0.0016927674 -0.02562149 -0.050293818
0.107986264 0.060673248 -0.04259655 0.08361911 -0.049986806 -0.094267495 -0.06710666 0.09830433
-0.07213696 0.091453314 0.05238875 -0.011358494 -0.03850283 -0.10261181 0.053858873 0.04807433

model.1.weight f4 [64, 256]
00000000: ad44 21bd 3c58 ac3c fa17 143d 053b 403c
00000010: be13 683d ce55 0d3c 84c5 743d 7aa9 293d
00000020: 245d 0bbc 0009 09bd 7c06 3fbc c4a9 5cbc
00000030: 6650 fe3a de10 4cbd 7528 82bc 66ef fb39
00000040: a4e3 53bd 0f48 1fbd 8556 57bd 98c5 2e3d
00000050: 0900 423c a120 eb3b c9b0 ee3b 720e bf3c
00000060: 7d77 b8bb 0847 183c 4e6d 683d 3a65 a13b
00000070: 2e11 543d 0c1c e5bc 68ad 603d a88d 663c
00000080: caa2 3f3d 1e64 313d 4df1 e9bc ebbc daba
00000090: 1e92 fc3c ac46 01bd 9c1c 9bbc 8fb5 49bd
000000a0: ecec 6a3d a970 29bd dc80 b43c c161 1ebd
000000b0: 4e6f b4bc c244 083d c857 64bd b13d 0f3d
000000c0: dfe4 513d 6b77 3cbc 3ce8 963c 5902 403c
000000d0: 22e9 053c 00c5 4c3d 2c08 56bd f636 b9bc
000000e0: ee53 81bc 2ec8 bc3c c8ab 5b3d 0cc3 26bc
000000f0: 4346 3e3d 8983 86bd a42a 853d 5117 c1bc
00000100: 29a7 89bc 940e 323c 86c8 5cbd b1b8 a5bb
00000110: ce78 473d 5e89 183d 6f9c 1ebd 1045 643d
00000120: 05ac e63c b198 f7ba 1c55 d93c 8f0e bebc
00000130: f8c7 fcbc 190b acbc e694 9aba 81cb 0abd
00000140: fd11 143d 27e5 a43c 3870 d8bc fa0d a9bc
00000150: 56e6 38bd d048 593d 46f2 133c 0470 803c
00000160: e4a9 eebc 9c9e 87bc 4082 ec3b 195b 813c
00000170: 3af7 343d d1f6 613d e47d f5bc b157 883c
00000180: fa02 3d3c bb1d 19bc a00f c7bc a382 dc3c
00000190: 65dd c13b 6377 9abc b762 213d e8db 153d
000001a0: 422d c1bc 1eab 18bd 3366 abbc 2bde 8f3c
000001b0: 4aa8 1ebd f8e3 34bc 5aea 90bc faad 27bd
000001c0: a829 033d a59b 0c3c 0398 d83c 0057 5cbd
000001d0: b2cd 3e3d 8b90 253d da9b af3c d1d0 55bd
000001e0: 9f5b 573d f67d 253d feaa 2e3c 6edc 2f3d
000001f0: 39f7 84bb 7fd7 c8ba 4354 65bd a97b 4ebd
00000200: 05b0 2dbd 735b 05bd 9104 103c 0e85 2fbd
00000210: a9c6 d83c f681 59bd cfff 7e3d 73a1 3d3d
00000220: 993e 75bd 9342 23bd 0fb4 1d3d d528 b63c
00000230: 93d2 1abc 64af 4c3d 0a76 cf3c b21f 3ebd
00000240: b894 7eb9 1ad2 4bbd f076 763d 1024 21bc
00000250: 7e7d 07bd 4a08 853c eadb 59bd 545f 3ebc
00000260: 7d3a 863c 1a3e 343d 71dc bebc 6d73 fabc
00000270: 9b51 493d b836 5cbc 73df 0fbd 759d 253d
00000280: e447 e33c 98c5 7b3d 3f3b 16bd 87bf 333d
00000290: b2f7 023d 6cda dd3c ae96 9abb ce27 14bd
000002a0: 9b6f 9439 595b 453d 5308 84bd d7d9 493d
000002b0: 9838 9dbb 1f15 29bb c8fd 243c ecaf 9a3c
000002c0: 7efd 943b 62ba e73b d9b7 083c 0be8 c7bc
000002d0: 91c5 eebc d91b 273d c977 473d bbbe 103d
000002e0: 8f06 71bd 9d51 38bd c5b6 643d 107b 7b3d
000002f0: 900a 57bc 5050 3e3d afd1 3cbd cd19 f2bb
00000300: 56f7 f4bc 2503 74bd 3aa9 3c3d cebf 223d
00000310: 1fd0 44bd 9cae 3c3d 583a 2f3d 2673 103d
00000320: e47e 61bd c77d 613d 1ad7 043d 6658 1c3d
00000330: f9ac 293d 081d 94bc 2234 57bd 4b8e 2ebd
00000340: 121b c6bc b327 3bbd 6056 50bd 11f5 3e3d
00000350: 8be7 4a3d f7b4 973c 426d 423d bfe8 6b3d
00000360: 310e 42bd dd76 5a3d 11ee d4bc 8abb 05bc
00000370: b9a2 9738 6978 0dbd 6e6f f13b 4487 7b3c
00000380: a33a 17bd c7bd 5bbd b564 21bd 6610 c2bb
00000390: 7378 b5bc 33a0 48bd 1bd4 7ebb e387 133d
000003a0: 96a0 9e3c 114d fa3c 5dce dd3c 55fd 16bd
000003b0: 7cad b4bb 94bf 433d 71d5 58bd 6707 f33c
000003c0: 40df 0dbb a043 07bd 1229 393d 8186 4b3d
000003d0: 2774 f6bc 9827 f9ba 5caa 263d f49a 433d
000003e0: d6b1 393d 862a 46bd 70f4 b83c 0d84 6c3d
000003f0: a23c bdbb 2f69 79bd 85b6 75bd 6e9c 063d
-0.039372135 0.021038167 0.03615568 0.011732821 0.056659453 0.008626414 0.059758678 0.04142139
-0.008506093 -0.03345585 -0.011659261 -0.01346821 0.0019402623 -0.049820773 -0.015888432 0.00048052816
-0.051730767 -0.03888708 -0.052572746 0.04266891 0.011840829 0.0071755205 0.007284258 0.023322318
-0.0056294785 0.009294279 0.056744866 0.004925397 0.051774196 -0.027967475 0.054852873 0.014071859
0.046786107 0.04330837 -0.028557444 -0.0016688382 0.030831393 -0.03156154 -0.01893454 -0.049245413
0.057354853 -0.041367207 0.022034101 -0.038667444 -0.02202573 0.033268698 -0.055747777 0.034970943
0.05124366 -0.011503081 0.018421285 0.01171931 0.008173259 0.04999256 -0.052253887 -0.022609215
-0.015787091 0.023044672 0.05363062 -0.010178339 0.046453726 -0.06568057 0.06502274 -0.023570688
-0.016803341 0.0108677335 -0.05390217 -0.0050574173 0.048699193 0.03724038 -0.038723405 0.055729926
0.028158197 -0.001889011 0.026529841 -0.023200301 -0.030857071 -0.021001386 -0.0011793643 -0.033885483
0.036149967 0.0201288 -0.026420698 -0.020636547 -0.04514154 0.053047955 0.00902993 0.015678413
-0.029133745 -0.016555123 0.0072176754 0.015790509 0.044181086 0.055167023 -0.029967256 0.016643377
0.011536354 -0.009345467 -0.024299443 0.026917761 0.005916285 -0.018855756 0.039400782 0.036586672
-0.02358115 -0.037272565 -0.020922756 0.017561993 -0.03873471 -0.01104068 -0.017689873 -0.0409374
0.03202215 0.00858203 0.026439672 -0.053793907 0.046582885 0.04042105 0.02143662 -0.052201096
0.05257761 0.04040333 0.010660885 0.042934828 -0.0040577915 -0.0015323012 -0.05598856 -0.0504109
-0.042404193 -0.032557916 0.008790151 -0.0428515 0.026461916 -0.053102456 0.062255677 0.046296548
-0.05987415 -0.039858412 0.038501795 0.022236267 -0.009449619 0.049971953 0.02532484 -0.046416946
-0.0002427873 -0.049760915 0.06017202 -0.009835258 -0.033078663 0.016239304 -0.053188242 -0.011619408
0.016385311 0.044004537 -0.023298474 -0.030572617 0.04915009 -0.01344078 -0.035125207 0.040433366
0.027744241 0.061467737 -0.036677595 0.043883827 0.031974502 0.02708169 -0.0047176694 -0.036170773
0.00028311912 0.04818282 -0.064469 0.049280014 -0.0047980063 -0.0025799943 0.010070272 0.018882714
0.00454682 0.007071779 0.008344614 -0.024402639 -0.029146941 0.040798042 0.04869822 0.035338145
-0.058844145 -0.044999707 0.055838365 0.06139666 -0.013125077 0.04646331 -0.046098407 -0.0073883296
-0.029903095 -0.05957331 0.046059825 0.0397337 -0.048050042 0.046064958 0.04278025 0.035266064
-0.055052653 0.05505159 0.0324317 0.03817024 0.041424725 -0.01808025 -0.052539952 -0.04261617
-0.02418283 -0.045692157 -0.050863624 0.046620432 0.049537223 0.018518908 0.047467478 0.05759501
-0.047376815 0.053336013 -0.025992425 -0.008162389 7.2305505e-05 -0.03453866 0.00736802 0.015352074
-0.036921155 -0.053647783 -0.039402682 -0.005922365 -0.022152161 -0.048980903 -0.003888375 0.036018264
0.019363683 0.030554326 0.02707594 -0.03686269 -0.005513845 0.047790125 -0.05293793 0.029666616
-0.002164796 -0.033023477 0.045205183 0.04968882 -0.030084683 -0.0019008992 0.04068981 0.047755197
0.045335613 -0.048380397 0.022577494 0.05774312 -0.0057750503 -0.060891327 -0.059988517 0.032864027

model.1.bias f4 [64]
00000000: f1cd 9fbc 6bc1 21bd 1b02 103d a2f5 85bc
00000010: 33e2 e8bc e9b5 f63c 66d6 5fbc 9a6b 303c
00000020: 3eeb 64bd 84fc 5f3d 96a9 56bd b281 a1bc
00000030: c36f 0abd 9cfa c23b 991f 4c3d a1cd bd3c
00000040: b1ad 623d 69fd ac3b 46ca 61bd ff21 2cbd
00000050: b26f ee3c bfdd 183d eb5f 40bb d1a7 03bd
00000060: fd26 3b3d e772 7bbd fe01 333d 28ee 583d
00000070: 651e 4f3d ba71 4f3c 6e38 af3c 6b5b 6cbd
00000080: 0626 133b 743d 78bd 067e 78bd 2e52 25bc
00000090: 0935 693d e850 4f3d e4e9 be3c 171a 1ebd
000000a0: f0ba 643d 9f4a bdbc 64de 65bc 65b2 273d
000000b0: 7c44 d63b 14d3 71bc f1ba 37bd efd0 e8bc
000000c0: 8bf7 053d c0a8 3e3d cce9 6cbd eb78 673d
000000d0: 927e 3d3d 11f1 7fbc a5ab 1f3d cd42 f5bc
000000e0: 3092 273b b121 f6bc 63d0 793d 7fd4 7e3d
000000f0: 29a6 e33c c1de 463d bfdb 2f3d 618e d3bc
-0.01950738 -0.0394911 0.035158258 -0.016352478 -0.028428173 0.030116038 -0.013661956 0.010767842
-0.055888407 0.054684177 -0.052407824 -0.019715164 -0.03379799 0.005950285 0.04983482 0.02316934
0.055341426 0.0052792323 -0.055124544 -0.04202461 0.029105995 0.03732085 -0.0029354047 -0.032142464
0.04569148 -0.061388876 0.04370307 0.0529615 0.050566096 0.012661392 0.021389212 -0.05770437
0.0022453084 -0.06060548 -0.06066706 -0.010090394 0.056935344 0.050614268 0.023304887 -0.0385991
0.05584234 -0.023106871 -0.014030073 0.040941615 0.0065389257 -0.014759798 -0.044856016 -0.02841994
0.03270678 0.04654765 -0.057840154 0.0565118 0.046263285 -0.01562144 0.038982052 -0.02993908
0.0025569312 -0.030045362 0.06098975 0.06221437 0.027789192 0.04855228 0.042934176 -0.025824727

model.2.weight f4 [1, 64]
00000000: 0075 bfbd 2da1 eabd e2d1 08be 8373 b3bd
00000010: 94c8 fe3c 5819 1abe bde3 193e 708b 9cbc
00000020: 28d8 31be 9ff1 f8bd 1182 a0bd 28c4 8f3c
00000030: 6384 c8bd d7dc cdbc d40d d43d 7686 843d
00000040: 472c edbd 1fd1 e1bd daff 0b3c 19dd f53d
00000050: 6e3f 013e 62dc a13d 2fc3 c93d f9ac 513d
00000060: 735a bbbd 975e 0c3e 8b1c 27bd b510 d8bd
00000070: 5738 c6bc bd1e fc3d 7e66 d9bc 56e1 c5bc
00000080: ce94 863d 91f9 a9bd e23c b43d 5351 10be
00000090: add0 963d 184a ce3d 4122 c53d c283 3c3d
000000a0: 129a 26bd db8e 62bd 5e00 bd3d 86ca f2bb
000000b0: 1c94 833c 47f9 09be 9ee9 f43d 8e1c 683d
000000c0: 8557 bc3d 6dab 0dbd 5639 eabd 1345 cc3d
000000d0: 0558 843d b33d e3bd 5bee d8bc 04de 073e
000000e0: ecd7 f33d 7ae3 133e 238c f1bc 9b3a 1ebe
000000f0: 3e9b 3ebd 3dbd 08bd b6f3 f5bd 74b6 693b
-0.09348488 -0.11456523 -0.13361314 -0.087622665 0.031101502 -0.1504873 0.15028282 -0.019109458
-0.17367613 -0.121554606 -0.07837308 0.01754959 -0.09790876 -0.025129719 0.103542 0.06470959
-0.11580711 -0.11026215 0.0085448865 0.12005062 0.12621853 0.07903363 0.098516814 0.05119035
-0.09148111 0.13707958 -0.040798705 -0.105500616 -0.024196787 0.1231055 -0.02653813 -0.0241553
0.06571351 -0.08299554 0.08800675 -0.14093523 0.073640205 0.10072726 0.09625674 0.04602409
-0.040674277 -0.05531202 0.09228586 -0.0074093966 0.016061835 -0.13473998 0.119586214 0.056667857
0.091963805 -0.034587312 -0.11436717 0.09974112 0.06462101 -0.110957526 -0.026480844 0.13268286
0.11906418 0.14442244 -0.029485768 -0.15452044 -0.04653477 -0.033383597 -0.12009375 0.003566173
