ml/models/TP53_8_8 Model_3.pt (torch, 103311 bytes, 7 tensors)

conv.weight f4 [32, 1, 8]
0.08652944 -0.25185665 0.10047144 -0.16153324 0.18790682 -0.32182428 -0.1562727 0.12173784
0.047055192 -0.12583247 0.22331816 0.09581733 0.31695375 0.22165397 -0.0752281 0.17330961
-0.13637835 0.03261333 0.23943616 -0.28880003 0.12540287 -0.036344826 -0.03214347 0.35161814
-0.14315225 -0.019870527 0.2566875 0.34238467 0.09990196 -0.048953 0.30846018 -0.30787066
-0.3244196 -0.27390182 0.36434698 -0.08674101 -0.15858324 -0.36918584 -0.26117602 0.362584
-0.33653733 -0.3169722 -0.028008502 0.12143335 0.28455067 -0.15185611 0.09359793 -0.025523258
-0.26122054 -0.17343093 0.34082875 0.097203694 -0.15776871 -0.04572653 -0.047008798 0.1359178
-0.16948429 -0.35600054 0.39944687 -0.22155605 -0.23360763 -0.10166977 0.37220046 -0.34522107
-0.22362961 -0.20339496 0.3259066 -0.32321444 -0.040372994 0.3437914 0.26843023 0.25470862
-0.34107956 0.028668849 0.32554263 0.26491526 -0.061926194 0.07472175 0.24719448 0.13669278
-0.06142602 0.27163377 0.08714325 0.34293708 -0.13959217 -0.21242441 -0.10768149 -0.23196445
-0.23338126 0.1109964 0.06550366 -0.27499032 0.3044613 0.01587284 -0.1186588 -0.3494515
0.21865791 0.31463948 -0.23306464 0.35183936 -0.2913977 -0.28430843 -0.23871426 -0.20494823
0.1500271 -0.13225949 0.0818116 0.08360689 0.007168522 -0.21284102 0.32856676 0.11413969
0.32435468 -0.05862479 0.019317864 -0.21524897 -0.22260705 -0.3310603 0.014988389 -0.18554412
-0.13893792 -0.13218154 0.15209028 -0.2359888 -0.17338906 -0.21061462 -0.16916193 0.007147494
-0.28573957 -0.32941324 0.080543816 -0.263653 0.1768365 0.23363446 -0.22596973 0.3128632
-0.011732028 -0.28630736 -0.20364514 0.19390708 -0.34125477 0.33372885 0.15552936 -0.0712227
-0.2665529 0.15845788 -0.22466356 0.121454015 0.021080866 0.25055707 0.11898494 -0.34163052
0.08957106 0.3356317 0.2940831 -0.13407816 0.27216023 -0.10116812 0.35382515 -0.19610769
0.18146859 0.111657895 0.13867322 -0.18578751 -0.100579955 -0.051742 0.037008826 0.07123895
0.020113215 -0.0686296 0.34838846 0.18574846 0.2741985 -0.1911252 0.0362651 0.25600985
-0.1417978 -0.28019908 -0.24164145 0.07263985 -0.28304192 0.14635283 -0.016529946 -0.17870972
0.3150888 0.17246856 0.07552853 0.07851161 0.32053638 -0.3282268 -0.0042518037 0.13385458
0.013473964 -0.14061594 -0.34731123 0.07483323 -0.35089535 0.1862887 -0.07575521 0.2559639
-0.2969803 0.23567143 0.30307063 0.042667262 0.2033434 -0.108394206 0.28132638 0.031963307
-0.11932479 0.35403854 0.14786416 0.33411467 -0.014687393 -0.22178066 0.26697376 0.12049113
0.26742414 0.3218673 -0.030444818 -0.3269235 -0.0026395002 -0.30682194 -0.15639953 -0.19317836
-0.02984844 -0.048295442 0.027275695 0.29342806 -0.04388372 -0.2265037 -0.27284855 -0.0077875573
0.0018976644 -0.1233787 -0.2976356 -0.24975565 0.15459639 -0.23444238 -0.07287506 -0.056336258
0.12138315 0.008943146 -0.2174607 0.21845655 -0.18533656 -0.11015781 0.09053595 0.17828247
0.039593592 -0.31857872 -0.32716182 -0.2281789 -0.121023834 0.2648068 0.22594562 0.09567848
00000000: 5936 b13d 5bf3 80be f8c3 cd3d f868 25be
00000010: a56a 403e 27c6 a4be f305 20be b051 f93d
00000020: f2bc 403d 3ada 00be 84ad 643e e03b c43d
00000030: c347 a23e 42f9 623e 3111 9abd 1378 313e
00000040: c4a6 0bbe 8e95 053d c12e 753e 99dd 93be
00000050: 9c69 003e 50de 14bd dfa8 03bd 4b07 b43e
00000060: 8196 12be 84c7 a2bc 8b6c 833e 0b4d af3e
00000070: 6699 cc3d f182 48bd 7eee 9d3e 39a1 9dbe
00000080: 531a a6be dc3c 8cbe b08b ba3e 45a5 b1bd
00000090: a563 22be ed05 bdbe ddb8 85be 9ca4 b93e
000000a0: 9f4e acbe 2e4a a2be 1672 e5bc 0cb2 f83d
000000b0: a0b0 913e 2b80 1bbe 46b0 bf3d 2716 d1bc
000000c0: b3be 85be e197 31be 1b81 ae3e bb12 c73d
000000d0: 1f8e 21be be4b 3bbd 4c8c 40bd 092e 0b3e
000000e0: 4a8d 2dbe b445 b6be 4d84 cc3e 97df 62be
000000f0: d736 6fbe 3e38 d0bd 0f91 be3e d1c0 b0be
00000100: 29ff 64be c546 50be 3bdd a63e 5d7c a5be
00000110: 275e 25bd 6d05 b03e b06f 893e 2b69 823e
00000120: fba1 aebe efda ea3c 86ad a63e f9a2 873e
00000130: 52a6 7dbd b807 993d 8d20 7d3e 31f9 0b3e
00000140: da99 7bbd 9513 8b3e 2978 b23d 7395 af3e
00000150: 40f1 0ebe c985 59be 1d88 dcbd 1788 6dbe
00000160: 7ffb 6ebe 1552 e33d c826 863d 88cb 8cbe
00000170: 5ae2 9b3e c207 823c 6303 f3bd 4feb b2be
00000180: dce7 5f3e 6d18 a13e 7fa8 6ebe 4a24 b43e
00000190: 1432 95be e090 91be 8371 74be f3dd 51be
000001a0: b4a0 193e 086f 07be d78c a73d 173a ab3d
000001b0: ece5 ea3b fff2 59be e739 a83e 12c2 e93d
000001c0: d111 a63e 8c20 70bd 7f40 9e3c 3a6a 5cbe
000001d0: 1af3 63be bc80 a9be dc91 753c 47ff 3dbe
000001e0: be45 0ebe 995a 07be 8ebd 1b3e 0ca7 71be
000001f0: e78c 31be 5cab 57be c938 2dbe 8635 ea3b
00000200: 754c 92be daa8 a8be 28f4 a43d 87fd 86be
00000210: a114 353e df3d 6f3e 9c64 67be 9b2f a03e
00000220: b137 40bc e196 92be 5a88 50be 948f 463e
00000230: f2b8 aebe 82de aa3e 1743 1f3e 35dd 91bd
00000240: 9f79 88be c842 223e 340e 66be e2bc f83d
00000250: c8b1 ac3c 0449 803e 60ae f33d 32ea aebe
00000260: 0871 b73d ebd7 ab3e 0f92 963e c94b 09be
00000270: 9658 8b3e 3b31 cfbd 9228 b53e 74d0 48be
00000280: e7d2 393e e5ac e43d 5a00 0e3e 153f 3ebe
00000290: ddfc cdbd 6bef 53bd 9196 173d bae5 913d
000002a0: 78c4 a43c ad8d 8cbd f95f b23e d834 3e3e
000002b0: bf63 8c3e 53b6 43be b78a 143d b913 833e
000002c0: 7133 11be 4176 8fbe db70 77be 34c4 943d
000002d0: dfea 90be 84dd 153e cf69 87bc aeff 36be
000002e0: 5253 a13e 999b 303e b4ae 9a3d b2ca a03d
000002f0: 581d a43e 580d a8be b752 8bbb 2d11 093e
00000300: e7c1 5c3c a0fd 0fbe c7d2 b1be 2a42 993d
00000310: 8ea8 b3be 77c2 3e3e 8c25 9bbd b30d 833e
00000320: cd0d 98be da53 713e 132c 9b3e dec3 2e3d
00000330: 4139 503e c8fd ddbd 030a 903e f5eb 023d
00000340: 8e60 f4bd 8a44 b53e b469 173e 1411 ab3e
00000350: 64a3 70bc 781a 63be c9b0 883e 0ec4 f63d
00000360: d1eb 883e cacb a43e 6967 f9bc 8462 a7be
00000370: 77fb 2cbb c417 9dbe 3327 20be 8cd0 45be
00000380: b784 f4bc 71d1 45bd 4771 df3c 343c 963e
00000390: 6abf 33bd 96f0 67be ceb2 8bbe c42e ffbb
000003a0: 0dbb f83a f9ad fcbd b263 98be f2bf 7fbe
000003b0: 844e 1e3e aa11 70be 853f 95bd d9c0 66bd
000003c0: bb97 f83d 4686 123c 05ae 5ebe 13b3 5f3e
000003d0: dec8 3dbe 6b9a e1bd ea6a b93d ae8f 363e
000003e0: e42c 223d c01c a3be c181 a7be bba7 69be
000003f0: 58db f7bd c294 873e 4a5e 673e 14f3 c33d

conv.bias f4 [32]
-0.025705442 -0.05624605 0.3524216 -0.34568006 0.07348434 -0.099906795 -0.18828872 0.09637752
0.34474486 0.13016036 -0.047839176 0.2070537 -0.17639592 0.0354537 0.07098589 0.15913142
0.026371922 -0.15929082 -0.30223852 0.22304192 -0.24814959 -0.04606616 -0.04392818 0.15826282
-0.009211265 0.15997317 -0.15336606 0.31451675 0.2323197 -0.10862134 0.11742043 0.12989384
00000000: 3894 d2bc 4262 66bd 9b70 b43e fafc b0be
00000010: f57e 963d ef9b ccbd c2ce 40be 9461 c53d
00000020: 6682 b03e c248 053e 03f3 43bd e305 543e
00000030: 22a1 34be e637 113d 0d61 913d 59f3 223e
00000040: ee09 d83c 221d 23be 02bf 9abe 1a65 643e
00000050: ed1a 7ebe dfaf 3cbd 09ee 33bd a60f 223e
00000060: d8ea 16bc 02d0 233e fe0b 1dbe 5708 a13e
00000070: 37e5 6d3e dd74 debd 1f7a f03d e402 053e

model.0.weight f4 [256, 32]
-0.02833395 0.01682577 0.13022123 -0.06742917 0.108258605 0.16253392 0.16905932 -0.15546109
-0.10018396 0.17538002 0.11609079 -0.017367104 0.11343461 -0.15991995 -0.09505716 0.07687246
0.09972501 -0.047912944 -0.00429729 0.11917482 0.103409104 0.0069173784 -0.1601721 -0.06510595
-0.0378645 -0.061814487 0.10740899 -0.1284162 -0.08088591 -0.116091944 -0.05558487 -0.1620732
0.13020806 -0.0023652716 -0.132961 -0.038479358 0.10194314 0.00479126 0.025593765 -0.050973296
0.014656397 0.11835297 0.16676182 -0.10988869 -0.1614199 -0.028779145 0.15674864 -0.0075571393
0.116091825 -0.12966692 0.09005621 0.16853419 0.10763903 -0.17446807 0.14193673 -0.050127406
-0.14891997 -0.04831903 -0.17633101 -0.13013422 -0.09999383 -0.16224106 0.14408839 0.005100548
0.01846881 0.13000666 0.16612858 0.17613359 -0.15374058 -0.1508433 -0.07845915 -0.029555434
0.12450075 -0.10894566 -0.07228765 0.14936231 -0.035195168 0.034433212 -0.16396895 0.17338091
-0.050438996 -0.16756852 0.17185669 -0.07895677 -0.15592568 -0.05753812 -0.09840445 0.028912246
0.021197211 0.02175788 0.16966738 0.14849852 -0.12308367 0.05431904 0.047700375 0.12666298
0.05028483 0.17008464 0.029979171 0.14226145 0.09148761 -0.03807705 -0.06767235 -0.09808819
-0.15057465 0.15054786 -0.13925417 -0.043836143 -0.12148377 0.09191381 0.09635368 -0.11581232
-0.1474434 0.0010396192 -0.047228314 -0.041047405 0.1178289 0.13725099 0.009944706 -0.039048105
-0.12660109 -0.11800405 -0.031333197 -0.083300166 -0.16314588 -0.0788809 0.15564434 -0.16402014
0.015438507 -0.032764103 0.034874033 -0.025870418 -0.14622742 -0.087707736 0.034432396 0.17005524
-0.13220096 0.053696692 -0.17634101 0.09097606 0.106330164 -0.095162 0.073244944 0.06976624
0.033446588 0.1711949 0.17304318 0.007435666 -0.16210392 0.10554248 -0.06200548 0.11390432
-0.112801984 -0.08900087 -0.14380762 0.12683372 -0.08774608 -0.09690132 0.12065 -0.15615824
0.12150993 -0.056634326 -0.07527537 0.082562774 0.16807888 0.17554983 0.013877816 -0.1548041
-0.0286455 0.025246384 -0.1600156 0.0850831 0.03526846 -0.107169196 0.025086528 0.030378556
-0.065854415 -0.09492283 -0.13856053 0.1749696 0.04604192 0.17348039 -0.08049578 0.09743381
0.09730554 -0.12965171 0.096330866 -0.0053164847 -0.057392452 -0.04461971 0.08678033 0.15390746
-0.11660212 0.09772504 -0.083197765 0.17382364 0.08398114 0.103930354 0.09257095 0.026954342
-0.15278429 0.007841017 -0.15854655 -0.09710733 -0.06784894 -0.116778314 -0.09751339 0.14752935
0.16359957 0.09697869 0.10299517 0.07912184 0.08458738 0.09058879 -0.15172715 -0.1280052
-0.15291989 -0.048482787 -0.008523283 0.102037825 -0.046567883 0.04813399 0.031927835 0.08175696
0.010073373 -0.087009154 0.07371106 0.09418337 0.060549535 0.11040333 0.007226296 -0.009118418
0.065598726 -0.0026059537 0.13587153 -0.056461867 0.04172087 -0.104699224 0.07016998 -0.04757006
-0.11680221 0.0037254526 0.1275103 0.15397726 0.12136158 -0.1340502 -0.012060266 0.1566167
-0.16714121 -0.11180965 0.036418077 -0.017811473 -0.15417515 0.007902164 -0.1054145 0.09697564
00000000: 9a1c e8bc 32d6 893c b758 053e 4e18 8abd
00000010: b0b6 dd3d 4b6f 263e e31d 2d3e 3131 1fbe
00000020: 3f2d cdbd d296 333e 02c1 ed3d 7545 8ebc
00000030: 6850 e83d 0ec2 23be 54ad c2bd 4f6f 9d3d
00000040: a03c cc3d 5d40 44bd 48d0 8cbb ee11 f43d
00000050: 27c8 d33d 2dab e23b 2804 24be 4556 85bd
00000060: ce17 1bbd 3031 7dbd 3ff9 db3d 897f 03be
00000070: 83a7 a5bd 9dc1 edbd f6ac 63bd 84f6 25be
00000080: 4355 053e ac02 1bbb ee26 08be 889c 1dbd
00000090: 91c7 d03d 0100 9d3b 04aa d13c 60c9 50bd
000000a0: 6221 703c 0b63 f23d 9cc3 2a3e 520d e1bd
000000b0: 424b 25be 3ec2 ebbc b782 203e e1a1 f7bb
000000c0: 8dc1 ed3d 68c7 04be 646f b83d 3a94 2c3e
000000d0: da71 dc3d c2a7 32be dd57 113e 6552 4dbd
000000e0: 7a7e 18be 2dea 45bd 1e90 34be e841 05be
000000f0: 91c9 ccbd 8522 26be e88b 133e 7f22 a73b
00000100: e74b 973c 7720 053e 9c1d 2a3e 5d5c 343e
00000110: 2c6e 1dbe ab76 1abe 31af a0bd 3d1e f2bc
00000120: 40fa fe3d e71e dfbd 8c0b 94bd 6ff2 183e
00000130: cf28 10bd d709 0d3d 7ae7 27be c48a 313e
00000140: 1f99 4ebd 1597 2bbe 33fb 2f3e 16b4 a1bd
00000150: fbaa 1fbe 17ad 6bbd 4688 c9bd 60d9 ec3c
00000160: c6a5 ad3c 953d b23c 49bd 2d3e ff0f 183e
00000170: 4b13 fcbd a47d 5e3d 7861 433d f1b3 013e
00000180: 77f7 4d3d ab2a 2e3e e196 f53c fcac 113e
00000190: db5d bb3d aef6 1bbd cd97 8abd 76e2 c8bd
000001a0: 3e30 1abe 3829 1a3e a598 0ebe 878d 33bd
000001b0: 7ccc f8bd 4f3d bc3d 1455 c53d 022f edbd
000001c0: 67fb 16be d543 883a 7a72 41bd 5321 28bd
000001d0: 4750 f13d 868b 0c3e 1fef 223c e8f0 1fbd
000001e0: b7a3 01be 1bac f1bd 3d57 00bd 4799 aabd
000001f0: b70f 27be 4f8c a1bd 3b61 1f3e e5f4 27be
00000200: cbf1 7c3c a733 06bd 13d8 0e3d 33ee d3bc
00000210: a4bc 15be 1da0 b3bd fc08 0d3d f622 2e3e
00000220: b05f 07be 10f1 5b3d bd92 34be a851 ba3d
00000230: a1c3 d93d 4be4 c2bd 7201 963d 9ae1 8e3d
00000240: 4aff 083d b74d 2f3e 3b32 313e e3a6 f33b
00000250: 92fe 25be a826 d83d 75f9 7dbd ab46 e93d
00000260: ba04 e7bd 1746 b6bd 4e42 13be b3e0 013e
00000270: 37b4 b3bd 3374 c6bd 5917 f73d f2e7 1fbe
00000280: 33da f83d 65f9 67bd f929 9abd ac16 a93d
00000290: df1c 2c3e 56c3 333e c75f 633c f784 1ebe
000002a0: f8a9 eabc 81d1 ce3c 21db 23be 0c40 ae3d
000002b0: a975 103d 867b dbbd 4382 cd3c 73dc f83c
000002c0: aede 86bd e766 c2bd d0e2 0dbe 3b2b 333e
000002d0: 7496 3c3d d8a4 313e f9da a4bd 618b c73d
000002e0: 2148 c73d 6bc3 04be 1e49 c53d e835 aebb
000002f0: 5914 6bbd 28c3 36bd e3b9 b13d eb99 1d3e
00000300: 18cd eebd 1124 c83d 9763 aabd d3fe 313e
00000310: 4efe ab3d 70d9 d43d d795 bd3d 5acf dc3c
00000320: 7c73 1cbe 9c77 003c 075a 22be 35e0 c6bd
00000330: 63f4 8abd 7829 efbd 1ab5 c7bd ef11 173e
00000340: a586 273e c39c c63d 22ef d23d a20a a23d
00000350: 263c ad3d 9e86 b93d 5d5e 1bbe cc13 03be
00000360: 0897 1cbe e395 46bd 3da5 0bbc 35f9 d03d
00000370: f7bd 3ebd 2628 453d c3c6 023d 3170 a73d
00000380: ca0a 253c db31 b2bd d3f5 963d 36e3 c03d
00000390: ca02 783d 241b e23d 90ca ec3b 6b65 15bc
000003a0: a058 863d a6c8 2abb e821 0b3e 8f44 67bd
000003b0: 81e3 2a3d 8c6c d6bd 47b5 8f3d d3d8 42bd
000003c0: ff35 efbd b926 743b 0f92 023e 37ac 1d3e
000003d0: 6c8c f83d 7544 09be 6c98 45bc 2160 203e
000003e0: 1127 2bbe 75fc e4bd 1f2b 153d 5ee9 91bc
000003f0: 17e0 1dbe 1478 013c 8fe3 d7bd 2a9b c63d

model.0.bias f4 [256]
0.11999644 0.043513495 0.07846936 -0.17323114 -0.0961294 0.13421735 -0.1163811 -0.07605914
0.13970742 0.06556894 -0.043529857 -0.113022625 0.14479445 -0.16419265 0.16502187 -0.115666375
-0.086653635 0.008927995 -0.15560527 0.098337196 0.16923787 0.14010252 -0.043710224 0.01096604
0.16240746 0.08323906 -0.09065082 -0.0036262244 0.04503152 0.115556255 0.065583706 0.07624476
0.11610927 0.10626965 0.13376674 0.13506469 0.03408684 0.0002628827 -0.07005006 0.13767263
0.017348731 0.15623356 0.06468729 0.08471879 -0.083802536 -0.072192095 0.083201915 -0.16974567
0.08635659 0.017032444 -0.080337524 0.1737044 0.16683 0.055966023 -0.03179089 0.046042126
-0.00981957 -0.17270955 0.16297407 0.14971074 -0.101936795 -0.07645289 -0.068434395 0.11642514
0.04669362 0.13644028 -0.12806185 -0.010546135 -0.030443408 -0.09154608 -0.03432823 -0.06792087
-0.117701426 -0.12643616 -0.10665112 0.044934794 0.07718379 -0.14089403 0.15184775 -0.122939765
0.17523709 -0.11865737 0.005549743 0.12252835 0.038237654 -0.019719869 -0.17722179 -0.12862696
-0.051181342 -0.0054677194 -0.09533773 0.05074772 -0.11577225 -0.06823358 -0.117875054 -0.07953062
0.008417197 0.15216523 0.06751001 0.16809185 0.067244925 0.0064394264 -0.14028174 0.14425132
-0.13502395 0.007910207 0.1247298 0.055191044 -0.0571591 -0.11566202 0.06892785 -0.09312818
0.0718085 -0.06785438 0.12540334 0.14533019 0.15053181 -0.10650325 -0.14214766 0.030698583
0.04359225 0.08904849 0.14009143 -0.12593456 0.041382357 -0.13608894 0.16823941 -0.10761022
0.082986996 -0.023634197 0.08199537 -0.06630446 -0.02824735 0.13415968 -0.14310189 0.036394633
-0.073573664 0.043875024 -0.0818335 -0.10634182 0.10120566 0.16426517 -0.14643344 0.15290795
-0.09527231 0.0687658 0.0017354542 0.08056039 -0.033769574 0.10022268 0.15465459 0.01625696
0.174412 -0.11852054 -0.09529222 -0.1660074 -0.085193716 0.07046523 -0.14202715 0.16261981
-0.06518796 -0.14957081 -0.04987778 -0.122691326 0.16569957 -0.08131008 -0.15336944 -0.1543167
0.04166923 -0.14419769 -0.011161194 0.040085517 0.08118864 -0.050112016 0.120626934 0.11490879
0.07035587 -0.09088447 0.1759315 0.15557522 -0.15545265 -0.07712831 0.1267022 0.16345665
-0.023688864 0.0103093535 0.13660502 0.09328993 0.11578897 -0.07127752 -0.08168333 0.077668525
-0.029046727 -0.15394635 -0.15142027 0.16771182 -0.04979732 -0.15719019 -0.167705 -0.08635383
-0.044814453 -0.04912355 -0.16142306 -0.054951735 -0.16766904 -0.1546391 -0.17758435 0.069807366
-0.0063342173 0.0057149804 -0.16311383 -0.057530183 0.026102733 -0.13326941 -0.04902264 0.010582695
-0.12140282 -0.029001366 0.140644 -0.02627881 -0.1604057 -0.16742492 0.14605582 0.022071926
0.16094966 -0.037648138 0.09818307 -0.08632984 0.11910951 0.1078933 0.10018361 -0.07214527
-0.093233325 0.10634604 0.15584984 0.111607395 0.046626158 -0.024516659 -0.15937914 -0.045411933
0.004867201 0.010776465 -0.088491865 0.11810671 -0.025661197 0.07549048 -0.13500522 -0.0016958058
0.1451352 0.059090033 -0.053258996 0.13058883 0.026955372 -0.13182807 -0.124511555 0.16855285
00000000: b2c0 f53d 353b 323d 8bb4 a03d 8163 31be
00000010: 7edf c4bd 4670 093e 3759 eebd e5c4 9bbd
00000020: 760f 0f3e 0249 863d 5d4c 32bd 6878 e7bd
00000030: ff44 143e 1e22 28be 7efb 283e 7ee2 ecbd
00000040: 7677 b1bd ba46 123c fd56 1fbe 0365 c93d
00000050: b14c 2d3e 0977 0f3e 7e09 33bd e8aa 333c
00000060: 244e 263e 3e79 aa3d 23a7 b9bd f3a5 6dbb
00000070: f972 383d c2a8 ec3d c050 863d 3626 9c3d
00000080: b2ca ed3d e7a3 d93d 26fa 083e 664e 0a3e
00000090: a49e 0b3d 85d3 8939 6876 8fbd 0efa 0c3e
000000a0: ed1e 8e3c b1fb 1f3e c57a 843d 0c81 ad3d
000000b0: aaa0 abbd 73d9 93bd c465 aa3d cfd1 2dbe
000000c0: b9db b03d a087 8b3c 0088 a4bd 91df 313e
000000d0: 7cd5 2a3e a13c 653d 2a37 02bd ab96 3c3d
000000e0: 43e2 20bc c6da 30be ade2 263e c64d 193e
000000f0: 3dc4 d0bd 5593 9cbd 5527 8cbd 4e70 ee3d
00000100: cf41 3f3d 00b7 0b3e a522 03be b2c9 2cbc
00000110: 7464 f9bc 837c bbbd c29b 0cbd 191a 8bbd
00000120: 720d f1bd 7b78 01be e76b dabd 8c0d 383d
00000130: 8912 9e3d 8646 10be fa7d 1b3e d8c7 fbbd
00000140: 5a71 333e a302 f3bd 9eda b53b 25f0 fa3d
00000150: 169f 1c3d 908b a1bc a179 35be c9b6 03be
00000160: 87a3 51bd 8e2a b3bb 6e40 c3bd d7dc 4f3d
00000170: 001a edbd 0cbe 8bbd 7a68 f1bd f3e0 a2bd
00000180: 48e8 093c 34d1 1b3e b042 8a3d 4520 2c3e
00000190: b5b7 893d d301 d33b 04a6 0fbe 9eb6 133e
000001a0: b843 0abe d099 013c 5672 ff3d 0110 623d
000001b0: a91f 6abd 36e0 ecbd 0b2a 8d3d fdb9 bebd
000001c0: 5610 933d 3df7 8abd bc69 003e 70d1 143e
000001d0: 0325 1a3e 601e dabd 288f 11be 987b fb3c
000001e0: ca8d 323d 0e5f b63d 2174 0f3e fdf4 00be
000001f0: 8c80 293d e65a 0bbe f446 2c3e bf62 dcbd
00000200: 16f5 a93d 819c c1bc 30ed a73d a2ca 87bd
00000210: fd66 e7bc 2861 093e 4d89 12be 8a12 153d
00000220: caad 96bd 4cb6 333d 5298 a7bd bdc9 d9bd
00000230: ea44 cf3d 2135 283e a6f2 15be e793 1c3e
00000240: 211e c3bd 15d5 8c3d 2e78 e33a d9fc a43d
00000250: f751 0abd 8c41 cd3d c65d 1e3e 512d 853c
00000260: 0f99 323e e6ba f2bd 9128 c3bd d8fd 29be
00000270: 0b7a aebd 1350 903d 916f 11be cf85 263e
00000280: 4481 85bd 1729 19be a54c 4cbd 9745 fbbd
00000290: 26ad 293e e685 a6bd e10c 1dbe 3205 1ebe
000002a0: 5bad 2a3d 8fa8 13be 71dd 36bc b630 243d
000002b0: 3b46 a63d 4242 4dbd 410b f73d 4d55 eb3d
000002c0: bd16 903d a321 babd 6327 343e 1c4f 1f3e
000002d0: fb2e 1fbe 73f5 9dbd 39be 013e 2e61 273e
000002e0: 260f c2bc 90e8 283c 30e2 0b3e ca0e bf3d
000002f0: c422 ed3d f3f9 91bd 9749 a7bd ad10 9f3d
00000300: 67f3 edbc 1da4 1dbe ea0d 1bbe a6bc 2b3e
00000310: 46f8 4bbd 77f6 20be dcba 2bbe 47da b0bd
00000320: 5c8f 37bd c735 49bd 164c 25be 1215 61bd
00000330: 6fb1 2bbe b659 1ebe acd8 35be 2af7 8e3d
00000340: 448f cfbb bb44 bb3b 5007 27be c5a4 6bbd
00000350: 66d5 d53c c777 08be f7cb 48bd 0a63 2d3c
00000360: 0ba2 f8bd 4694 edbc fb04 103e a946 d7bc
00000370: 6441 24be 7071 2bbe a88f 153e 2fd0 b43c
00000380: fdcf 243e ef34 1abd 3514 c93d b3cd b0bd
00000390: b0ef f33d 2af7 dc3d 112d cd3d e6c0 93bd
000003a0: 1df1 bebd f4cb d93d 1a97 1f3e 6b92 e43d
000003b0: 12fb 3e3d 29d7 c8bc 4934 23be dd01 3abd
000003c0: 0b7d 9f3b c58f 303c 393b b5bd eee1 f13d
000003d0: 6e37 d2bc c19a 9a3d cf3e 0abe cd45 deba
000003e0: 529e 143e 6408 723d 1b26 5abd 14b9 053e
000003f0: 83d1 dc3c f0fd 06be eaff febd 1e99 2c3e

model.1.weight f4 [64, 256]
0.047637857 0.038657464 0.024911819 -0.042832427 -0.017945949 -0.04839399 0.02403422 -0.033233598
0.010683084 0.031378336 -0.01797388 0.030002289 0.025924407 0.0038615635 0.06046905 0.011101043
-0.045282714 0.034724075 0.032056633 -0.013272899 -0.027163906 -0.008064908 0.042572137 0.038986523
0.038029224 0.047943626 0.03234402 0.003162881 -0.047240026 0.037408236 -0.056256156 0.013862298
-0.027951038 0.060124833 0.028864363 -0.033083744 0.042464323 0.028824132 -0.06040538 0.013397765
0.022801619 0.01228722 -0.044408098 -0.02167308 0.040410537 0.052173905 0.04156817 -0.034254175
0.062953226 -0.017389921 0.050242744 0.02261117 0.021547256 0.050714318 0.015645439 0.02800286
-0.04685475 0.041066535 0.033625994 0.023588007 0.0044247797 -0.043899678 -0.021388868 -0.04427089
0.047118805 0.0068905 0.054863404 0.032002516 0.015592 0.03777452 -0.058748912 -0.011993988
0.028172972 0.04070895 -0.01718632 -0.04326195 0.04661261 -0.05751589 0.004480676 -0.012119239
-0.062766045 -0.013625071 0.05850189 0.018151524 0.01838387 -0.029946385 -0.05756847 -0.026879553
0.062217638 0.010993294 -0.027148213 0.017582985 -0.043260854 0.02735571 -0.05843582 0.032938324
-0.017197007 -0.021840816 -0.05224432 0.03060955 -0.045816466 0.033906613 -0.051877078 0.022388587
0.045616213 -0.0041653533 -0.054004867 -0.049181104 -0.05936548 0.03360142 0.059301857 -0.030509103
0.029610926 0.032250952 -0.013772573 0.027774487 0.0017747683 0.03360904 -0.04443103 0.040486194
0.02552255 0.067130014 -0.02040198 -0.06252383 0.030887585 0.0010410071 0.0054879044 0.021692595
-0.000622658 0.030286351 0.016093204 0.005286082 -0.0038845986 0.021952638 0.054121435 -0.008953258
-0.01812626 0.030403659 -0.010288731 -0.0026913027 0.0547102 -0.0021629883 -0.047014125 -0.008074653
-0.014074386 0.024010355 -0.025783068 0.06086268 -0.05801223 0.006569988 0.015110586 -0.040004604
0.027373334 0.02154895 -0.015947035 0.0074087125 -0.0019083181 0.04906487 -0.030907692 -0.02067219
-0.020181892 0.005297348 0.0030650762 0.0031481613 0.053074494 -0.010201781 0.055779587 0.003979144
-0.048548274 -0.0148839615 -0.016029755 -0.022414872 0.02412526 0.031633157 0.010782005 -0.01853442
-0.065333836 -0.026175648 -0.003107662 0.0021324954 0.035002295 0.027038071 -0.025118979 -0.046829857
0.04988418 0.041254707 -0.03612516 -0.023772007 -0.025456708 -0.039854802 -0.050243683 0.055148836
-0.06360304 0.0023837357 -0.0108310655 0.018696705 -0.023469146 -0.019374076 -0.04308602 0.0059103277
0.046422366 0.022217227 0.044016182 0.0035436535 0.021543166 -0.001144565 0.0045343284 0.020380288
-0.027113842 -0.020992838 -0.010764166 0.021246333 0.021124024 0.0051429933 0.019541387 -0.04254829
-0.045945738 -0.00676848 -0.016864195 0.04786339 0.03517282 0.017761523 0.043883238 -0.008347031
0.0007937085 0.007181025 -0.05155292 0.032931007 0.013128156 -0.02407362 -0.025324186 -0.05944699
0.0555222 -0.010063534 -0.038570285 0.022437083 0.045545086 -0.015008054 0.035941724 0.03401301
-0.02613457 -0.04024714 -0.040425137 0.01889015 0.008380652 0.0549374 0.057956528 -0.0067276466
0.023078205 -0.012123045 0.03850427 -0.048878644 -0.049244665 0.013054318 -0.04582585 -0.016757717
00000000: ea1f 433d 4a57 1e3d df13 cc3c 0e71 2fbd
00000010: 6203 93bc c738 46bd 6ae3 c43c f41f 08bd
00000020: 1a08 2f3c 9286 003d f53d 93bc 5cc7 f53c
00000030: 6c5f d43c 4912 7d3b 65ae 773d 26e1 353c
00000040: 5e7a 39bd d53a 0e3d d14d 033d 9376 59bc
00000050: d786 debc ad22 04bc 1f60 2e3d 55b0 1f3d
00000060: 88c4 1b3d 8960 443d 2a7b 043d 5648 4f3b
00000070: c27e 41bd 6139 193d db6c 66bd b11e 633c
00000080: 93f9 e4bc 7545 763d f574 ec3c d282 07bd
00000090: 12ef 2d3d 9620 ec3c a26b 77bd 4d82 5b3c
000000a0: 76ca ba3c 5650 493c 44e5 35bd be8b b1bc
000000b0: 8585 253d 4eb4 553d 6343 2a3d 1b4e 0cbd
000000c0: 9fed 803d 4f75 8ebc 56cb 4d3d 0f3b b93c
000000d0: df83 b03c d1b9 4f3d dd2a 803c 4166 e53c
000000e0: c4ea 3fbd 6235 283d 69bb 093d a33b c13c
000000f0: befd 903b 26d0 33bd b537 afbc 6555 35bd
00000100: a6ff 403d b4c9 e13b 73b8 603d 1215 033d
00000110: 9775 7f3c 75b9 1a3d b3a2 70bd 6f82 44bc
00000120: 01cb e63c 6ebe 263d 53ca 8cbc 7133 31bd
00000130: ddec 3e3d c895 6bbd a2d2 923b c68f 46bc
00000140: 7c8b 80bd b13b 5fbc ae9f 6f3d 81b2 943c
00000150: c599 963c 1f52 f5bc eacc 6bbd 8232 dcbc
00000160: ecd7 7e3d 381d 343c ee65 debc 310a 903c
00000170: 4b32 31bd 1519 e03c 665a 6fbd 56ea 063d
00000180: bde0 8cbc 83eb b2bc 24fe 55bd e1c0 fa3c
00000190: 0caa 3bbd a9e1 0a3d 0f7d 54bd 4568 b73c
000001a0: 11d8 3a3d 847d 88bb 3534 5dbd 2072 49bd
000001b0: 3829 73bd a4a1 093d 81e6 723d 3aee f9bc
000001c0: 9d92 f23c 9319 043d 5ca6 61bc 5287 e33c
000001d0: 589f e83a a2a9 093d 50fd 35bd dad4 253d
000001e0: ab14 d13c 767b 893d 0e22 a7bc 7e0c 80bd
000001f0: f607 fd3c 6772 883a e1d3 b33b abb4 b13c
00000200: df39 23ba 151b f83c e5d5 833c df36 ad3b
00000210: c094 7ebb 05d6 b33c 70ae 5d3d b0b0 12bc
00000220: 867d 94bc 1811 f93c 1192 28bc 9160 30bb
00000230: cd17 603d ecc0 0dbb e291 40bd 8d4b 04bc
00000240: 4198 66bc 5db1 c43c 0337 d3bc 254b 793d
00000250: 3b9e 6dbd 0e49 d73b 6492 773c dedb 23bd
00000260: 0b3e e03c 6c87 b03c 5ba3 82bc c9c4 f23b
00000270: 8820 faba 3ff8 483d 2132 fdbc b958 a9bc
00000280: 7f54 a5bc 6095 ad3b 72df 483b 6251 4e3b
00000290: a464 593d 5f25 27bc 2379 643d 7b63 823b
000002a0: 8eda 46bd dcdb 73bc d550 83bc 659f b7bc
000002b0: 56a2 c53c c591 013d 02a7 303c 7fd5 97bc
000002c0: bfcd 85bd 506e d6bc eba9 4bbb 56c1 0b3b
000002d0: 915e 0f3d f27e dd3c 51c6 cdbc aad0 3fbd
000002e0: 5b53 4c3d b2fa 283d faf7 13bd 83bd c2bc
000002f0: 968a d0bc ca3e 23bd 52cc 4dbd bfe3 613d
00000300: 5042 82bd 7338 1c3b c874 31bc d529 993c
00000310: 5e42 c0bc 62b6 9ebc f77a 30bd 6cab c13b
00000320: 6125 3e3d e700 b63c 504a 343d a43c 683b
00000330: 4b7b b03c 3a05 96ba b494 943b 90f4 a63c
00000340: d91d debc 2cf9 abbc 2f5c 30bc ca0c ae3c
00000350: 4a0c ad3c 8e86 a83b 4215 a03c 1e47 2ebd
00000360: 9931 3cbd 20ca ddbb c826 8abc 670c 443d
00000370: 6011 103d 9d80 913c e9be 333d fcc1 08bc
00000380: e010 503a ce4e eb3b 2829 53bd aae2 063d
00000390: 7a17 573c 0a36 c5bc ab74 cfbc b07e 73bd
000003a0: 3f6b 633d 85e1 24bc e0fb 1dbd f9cd b73c
000003b0: 7c8d 3a3d 57e4 75bc a137 133d 3a51 0b3d
000003c0: 2a18 d6bc 2fda 24bd d494 25bd 84bf 9a3c
000003d0: 014f 093c 0a06 613d d363 6d3d 9773 dcbb
000003e0: 810e bd3c bc9f 46bc a7b6 1d3d f934 48bd
000003f0: c6b4 49bd c7e1 553c e3b3 3bbd 7b47 89bc

model.1.bias f4 [64]
-0.053239707 0.014116188 0.004128158 0.029888496 0.05507324 -0.04268487 -0.025492951 0.023782171
-0.0006554887 0.014504795 -0.041735496 -0.041690227 0.007081873 0.047948625 0.017880341 -0.00014071228
-0.041445058 0.022432322 -0.05247096 0.047640875 -0.029543197 -0.05261727 0.032784913 -0.01823552
0.018306488 -0.010571971 0.0023501667 0.04182185 0.017243953 0.041182593 -0.00521444 0.044804145
0.011203297 0.016514497 -0.0024106584 0.02514544 0.052573882 -0.044668335 -0.011847016 0.018013572
-0.0500396 -0.012577321 0.0043662055 0.002555482 -0.0106531875 0.054009695 0.01877068 -0.026602747
0.05013682 -0.0304644 0.0007078189 -0.024140222 0.0091178985 -0.026737757 -0.057938877 0.022317342
0.045290142 -0.030697672 0.055483688 0.034041874 -0.017165512 0.0150966365 -0.030715019 -0.056952093
00000000: e111 5abd 9547 673c 8045 873b b8d8 f43c
00000010: 7a94 613d 55d6 2ebd 98d6 d0bc d4d2 c23c
00000020: 1ad5 2bba 85a5 6d3c d7f2 2abd 5fc3 2abd
00000030: 0e0f e83b c765 443d cb79 923c 2a8c 13b9
00000040: 4bc2 29bd fdc3 b73c caeb 56bd 1423 433d
00000050: 9304 f2bc 3585 57bd 7949 063d a862 95bc
00000060: 7df7 953c 0f36 2dbc 4105 1a3b 634d 2b3d
00000070: 3143 8d3c 14af 283d e5dd aabb 8d84 373d
00000080: 098e 373c 6949 873c 23fc 1dbb cffd cd3c
00000090: b657 573d 25f6 36bd fd19 42bc 3391 933c
000000a0: 53f6 4cbd 1c11 4ebc 6312 8f3b e079 273b
000000b0: b58a 2ebc 4539 5d3d f8c4 993c 01ee d9bc
000000c0: 445c 4d3d 7a90 f9bc ec8c 393a b7c1 c5bc
000000d0: 3d63 153c 2409 dbbc 5151 6dbd dcd2 b63c
000000e0: 2882 393d af79 fbbc dd42 633d 7e6f 0b3d
000000f0: b09e 8cbc e257 773c 109e fbbc 9946 69bd

model.2.weight f4 [1, 64]
0.09673995 -0.1455775 0.01953255 0.1410453 -0.06922853 -0.25118038 0.17947212 -0.1624489
0.090109 -0.16864412 0.06610307 -0.16416542 -0.063180536 -0.17380519 -0.09385416 -0.0024481749
-0.03044654 0.1766372 -0.21013989 0.13242877 -0.10763607 -0.09224191 0.013218071 0.1880965
-0.1727439 0.14210841 -0.05993662 -0.04731254 0.114919744 0.12284098 -0.23988752 -0.18729821
0.054267496 -0.039136786 0.10108032 -0.055945586 0.19419205 -0.028455017 0.21537219 -0.21524137
0.118250966 0.13664098 -0.1292739 0.10978296 0.05346859 0.008571888 0.1722868 0.078154266
-0.21169247 -0.11214511 0.032690022 0.04319063 0.026950052 -0.031040538 -0.11280896 0.08482644
0.1049882 -0.11083506 -0.17154767 0.14377584 -0.08262557 0.17667426 0.0920462 -0.11768444
00000000: 981f c63d 4512 15be ba02 a03c 2e6e 103e
00000010: b0c7 8dbd b79a 80be 8ac7 373e 0159 26be
00000020: 118b b83d 0bb1 2cbe 0c61 873d fb1a 28be
00000030: cc64 81bd fdf9 31be 9c36 c0bd 8f71 20bb
00000040: 066b f9bc 62e0 343e e92e 57be 689b 073e
00000050: 4d70 dcbd 54e9 bcbd 9c90 583c 5e9c 403e
00000060: c7e3 30be de84 113e 1a80 75bd cbca 41bd
00000070: 0b5b eb3d 0d94 fb3d 13a5 75be 1acb 3fbe
00000080: 9847 5e3d e54d 20bd 3303 cf3d 3327 65bd
00000090: 48da 463e 7f1a e9bc 878a 5c3e 3c68 5cbe
000000a0: 902d f23d 9deb 0b3e 6160 04be e3d5 e03d
000000b0: e101 5b3d 1b71 0c3c f36b 303e 580f a03d
000000c0: e9c5 58be 56ac e5bd f9e5 053d a8e8 303d
000000d0: 5bc6 dc3c ba48 febc 6208 e7bd 7cb9 ad3d
000000e0: 0e04 d73d 7efd e2bd 31aa 2fbe f939 133e
000000f0: 9837 a9bd 19ea 343e b882 bc3d 8a04 f1bd
