ml/models/TP53_8_8 Model_3.pt (torch, 291919 bytes, 7 tensors)

conv.weight f4 [64, 1, 8]
0	0xbeafe3a9	-0.34353378
1	0x3e7b55ca	0.24544445
2	0x3e95fdf0	0.292953
3	0xbe915960	-0.283885
4	0xbc996fbf	-0.018730043
5	0xbe333e16	-0.17504153
6	0x3e9f58d1	0.3112245
7	0x3d82e77f	0.063918106
8	0x3e23dd73	0.16002445
9	0xbe85b530	-0.26114798
10	0xbe382b42	-0.17985252
11	0x3e95de17	0.29271004
12	0x3e7dac7f	0.24772833
13	0x3e5adf2b	0.21374194
14	0xbe5c4fcd	-0.21514817
15	0x3e379ca7	0.17930852
16	0xbe140d61	-0.14458229
17	0xbd92eb52	-0.0717379
18	0xbe55451b	-0.20827143
19	0xbe238102	-0.15967181
20	0x3bec196e	0.00720518
21	0x3e2b6a92	0.16739872
22	0xbcaff0ef	-0.02147719
23	0xbea0f5e7	-0.3143761
24	0xbdcbaca9	-0.09945042
25	0x3e830830	0.25592184
26	0xbe969c46	-0.29416102
27	0x3e513023	0.20428519
28	0xbaec2ce0	-0.0018018745
29	0x3e97cd70	0.29648924
30	0x3ea2ed36	0.31821603
31	0x3dc7eea0	0.09762311
32	0x3ea24f4f	0.31701133
33	0xbe93bb26	-0.2885372
34	0x3d86a847	0.06575065
35	0xbdc1085e	-0.09425424
36	0x3e16ad2b	0.14714496
37	0x3e8ebdac	0.27879083
38	0x3e8e414c	0.27784193
39	0x3ead975f	0.3390455
40	0xbe9870f3	-0.29773673
41	0x3ea83697	0.3285415
42	0x3e1f0108	0.15527737
43	0xba568cc4	-0.0008184428
44	0x3df6841b	0.12036916
45	0x3e93e688	0.2888682
46	0x3e7fc2c0	0.24976635
47	0x3c925a2d	0.017865265
48	0x3e4ef071	0.20208909
49	0x3ce30b89	0.027715461
50	0x3eab8781	0.3350182
51	0x3e9226f2	0.28545338
52	0xbe4973eb	-0.19673125
53	0x3e39d94b	0.18149297
54	0xbe9206ff	-0.28520963
55	0x3e316641	0.17324163
56	0x3e97ca20	0.29646397
57	0xbe4e36ca	-0.20138088
58	0x3e0845c0	0.13307858
59	0x3be9e308	0.00713766
60	0xbea0dbb1	-0.3141761
61	0x3de10d68	0.10988885
62	0x3c8ccd98	0.017187878
63	0xbe6b9319	-0.23005332
64	0xbe18d542	-0.14925101
65	0x3db1fbb4	0.08690587
66	0xbe0182a5	-0.12647493
67	0xbe006bc5	-0.12541111
68	0x3eaf716b	0.3426622
69	0xbde78632	-0.113048926
70	0xbeb0c854	-0.34527838
71	0x3d522b81	0.05131102
72	0xbe72f78b	-0.23727243
73	0xbe98dc25	-0.29855457
74	0xbd1f6c15	-0.038921434
75	0xbe95dc66	-0.29269713
76	0x3d50104b	0.05079679
77	0x3bdbce37	0.0067079323
78	0x3e90b460	0.28262615
79	0x3e523cd6	0.2053102
80	0x3da1dc53	0.07903352
81	0x3e876bb8	0.2644937
82	0x3d020ecf	0.031752404
83	0xbea9f34d	-0.33193436
84	0xbdfe5fcf	-0.12420618
85	0xbe84fd8f	-0.259747
86	0xbdd6a598	-0.10480803
87	0x3e46ad18	0.19401968
88	0xbe70a1fa	-0.23499289
89	0xbce7c9f0	-0.028294533
90	0x3e86a5c5	0.26298347
91	0x3e4cea08	0.20011151
92	0x3de81316	0.11331765
93	0xbe976a43	-0.2957326
94	0xbd916071	-0.07098473
95	0x3dc45715	0.09586922
96	0xbdce52a5	-0.10074357
97	0xbe8dc59b	-0.27689824
98	0x3e717f5f	0.23583744
99	0xbd4f73f6	-0.0506477
100	0x3d9ef1a7	0.07760935
101	0x3ddb254d	0.10700474
102	0xbea8bcd6	-0.3295657
103	0x3ea560af	0.32300326
104	0x3dbb6dac	0.091517776
105	0xbda0add7	-0.07845657
106	0x3d8b294b	0.067949854
107	0xbeb13884	-0.3461343
108	0x3d9aa0fc	0.075502366
109	0xbcab88ee	-0.020939317
110	0x3eb16ca2	0.34653193
111	0xbe93e72e	-0.28887314
112	0xbeae7238	-0.34071517
113	0x3d76f960	0.060296416
114	0x3e323c67	0.17405854
115	0xbe31acc4	-0.17351061
116	0x3d14e811	0.03635413
117	0xbd90fa6c	-0.07079014
118	0xbb65713d	-0.0035010122
119	0xbe9fd9ee	-0.31220955
120	0x3e8ce8ce	0.27521366
121	0x3e3060e3	0.1722446
122	0xbe896c06	-0.26840228
123	0x3e1ee1de	0.15515849
124	0x3ea3ac0c	0.319672
125	0xbe7c6dfe	-0.24651334
126	0x3e23e536	0.16005406
127	0xbe5b8184	-0.21436125
128	0xbd15eda2	-0.036603577
129	0x3bf748d6	0.0075465245
130	0x3e6022ea	0.21888319
131	0x3e738e05	0.23784645
132	0x3e4dde96	0.20104441
133	0x3e6d3602	0.23165134
134	0xbeb31ea8	-0.34984326
135	0x3e306542	0.17226127
136	0xbe9c5704	-0.30535138
137	0xbc658a3e	-0.01401001
138	0x3d1e2e58	0.038618416
139	0xbe75b087	-0.23993121
140	0xbe6b8cec	-0.23002976
141	0x3e2407cf	0.16018604
142	0x3eaf34b8	0.3421991
143	0x3dbdabd3	0.092612885
144	0x3e157b2e	0.1459777
145	0x3e8e4dd1	0.27793744
146	0xbd4f8187	-0.050660636
147	0xbe28aaa5	-0.16471346
148	0x3e8912a5	0.26772037
149	0x3e0772e8	0.13227427
150	0xbe93ff31	-0.28905633
151	0xbd91e71c	-0.07124159
152	0x3e4c8dd1	0.19975974
153	0xbe523ef1	-0.20531823
154	0xbcf9313d	-0.030418986
155	0xbe321547	-0.17390929
156	0xbe70d0a6	-0.23517093
157	0x3d88fa4d	0.06688366
158	0x3e653a91	0.22385623
159	0xbe444076	-0.19165215
160	0x3eaeb5b4	0.34123003
161	0xbea9605b	-0.33081326
162	0x3ea94ba2	0.33065516
163	0x3e2b8838	0.16751182
164	0xbe5984ad	-0.21242018
165	0xbd6e00b7	-0.05810615
166	0x3e8bf3a3	0.27334318
167	0xbe9641fe	-0.29347223
168	0xbe1cf132	-0.15326384
169	0x3e6e7e56	0.23290381
170	0x3e9ce630	0.3064437
171	0xbe427ae0	-0.18992186
172	0xbe64f7e9	-0.22360195
173	0xba253f9e	-0.000630373
174	0x3eac3d4b	0.33640513
175	0xbe501d73	-0.20323734
176	0xbeb3f7cd	-0.35149994
177	0xbd60b699	-0.05486164
178	0xbe45684f	-0.19278072
179	0x3e732524	0.23744637
180	0x3d8977ec	0.067123264
181	0x3d8a1444	0.067421466
182	0xbe8c936f	-0.27456233
183	0x3de7b2d5	0.113134064
184	0x3e741f45	0.23840053
185	0xbb06391a	-0.0020480813
186	0xbcdc8e0d	-0.026923204
187	0xbda048ef	-0.07826411
188	0x3deb3f11	0.11486638
189	0x3e7ba716	0.24575457
190	0xbe2d38c4	-0.16916186
191	0xbcf6b1b9	-0.030114042
192	0x3e9c2789	0.30498913
193	0xbe2ef226	-0.1708456
194	0x3e7da303	0.24769215
195	0x3e8e2ccc	0.27768552
196	0xbe9ad0c8	-0.30237412
197	0xbe48afb5	-0.19598277
198	0x3e9428d8	0.2893741
199	0xbea9d1b4	-0.33167803
200	0x3e5ad3ac	0.21369809
201	0xbc37b0f8	-0.011211626
202	0xbe91d5f1	-0.28483537
203	0xbd234f28	-0.03987041
204	0xbe282909	-0.16421904
205	0x3dec8d91	0.11550439
206	0x3c9808a1	0.018558802
207	0xbddadd4f	-0.106867425
208	0xbdb963ae	-0.090522155
209	0x3e783243	0.24237923
210	0xbe8250ae	-0.2545218
211	0xbc865058	-0.016395733
212	0x3e874486	0.26419467
213	0x3d4e167b	0.050314408
214	0x3d54cb1c	0.051951513
215	0x3db12353	0.08649316
216	0xbe97f677	-0.29680225
217	0x3d44aa21	0.04801381
218	0x3e9d85c9	0.30766132
219	0x3dc464e4	0.09589556
220	0xbe663ba9	-0.22483696
221	0xbea32835	-0.31866613
222	0xbe9bdc44	-0.30441487
223	0xbdd8872f	-0.10572659
224	0x3e8c85fe	0.27445978
225	0xbc9674b9	-0.018366205
226	0xbe96d8e3	-0.29462346
227	0xbd48f139	-0.049058173
228	0xbe9d9ebd	-0.3078517
229	0xbdcc2cef	-0.09969508
230	0xbde36d3a	-0.11104818
231	0xbe4f7f0e	-0.20263311
232	0x3ea7a1d1	0.32740644
233	0xbe04ab1a	-0.12955895
234	0x3e9d1636	0.30681008
235	0x3ea60f94	0.3243376
236	0x3cea987f	0.028637169
237	0xbdf843b5	-0.12122289
238	0x3e6f38a8	0.23361456
239	0x3cae3c22	0.021268908
240	0x3ccdc8e5	0.025120208
241	0xbde7873d	-0.113050915
242	0x3e8dad57	0.2767131
243	0x3d1ff14f	0.03904849
244	0xbe09ad01	-0.13444902
245	0xbda57715	-0.08079354
246	0x3e94193f	0.2892551
247	0xbdcc1edd	-0.09966824
248	0x3eaa2bd9	0.33236578
249	0x3e841efe	0.25804895
250	0x3e99f688	0.300709
251	0x3d80c48a	0.06287487
252	0xbe3b2928	-0.18277419
253	0xbe3ee1ac	-0.18640774
254	0xbe0babf7	-0.13639818
255	0x3e685013	0.22686796

conv.bias f4 [64]
0	0x3e7c8820	0.24661303
1	0xbd833c92	-0.06408037
2	0xbe85595e	-0.26044744
3	0xbc1ce7da	-0.009576762
4	0x3e2f7248	0.17133439
5	0xbdb95540	-0.09049463
6	0xbdaf3096	-0.08554189
7	0xbe3188c4	-0.17337328
8	0xbcd39e47	-0.025832308
9	0xbe933b37	-0.28756115
10	0xbead94c0	-0.3390255
11	0x3e7b32e9	0.2453114
12	0x3e9df16b	0.3084825
13	0xbdd12959	-0.102129646
14	0xbe187a47	-0.14890395
15	0xbe9c80ed	-0.30567113
16	0x3e026d85	0.12737091
17	0x3e00c917	0.1257671
18	0x3cabe7fc	0.020984642
19	0xbe5488fb	-0.20755379
20	0x3e90bdb3	0.2826973
21	0x3e0a6767	0.13516007
22	0x3e66c403	0.2253571
23	0x3e81d613	0.25358638
24	0x3e38c877	0.18045221
25	0xbe75936d	-0.2398202
26	0xbda3f4f7	-0.08005708
27	0xbddb7741	-0.10716105
28	0xbd2d215c	-0.042268142
29	0xbea7b38c	-0.3275417
30	0xbea8fdac	-0.33006036
31	0x3bdea378	0.0067943893
32	0xbd85f498	-0.06540793
33	0x3eaeed44	0.34165394
34	0x3e0e7f52	0.13915756
35	0x3e821ffb	0.25415024
36	0x3e02ad94	0.12761527
37	0xbc140ca5	-0.009036218
38	0xbe88668f	-0.26640746
39	0xbd82c41c	-0.06385061
40	0xbd326851	-0.043556515
41	0x3e2ee823	0.1708074
42	0xbe048449	-0.12941088
43	0x3c5c0b0a	0.013430366
44	0x3e0e0c24	0.13871819
45	0xbe385eb9	-0.18004884
46	0xbeb31b87	-0.3498194
47	0xbe88b34c	-0.26699293
48	0x3e1368b6	0.14395413
49	0xbe34a977	-0.1764277
50	0x3e01c170	0.12671447
51	0xbea2ec4e	-0.3182091
52	0x3cc42d53	0.023947394
53	0xbe9d65e3	-0.30741796
54	0xbea5bbb2	-0.32369763
55	0x3b758be5	0.0037467417
56	0x3e7ad889	0.24496664
57	0xbe92c15f	-0.28663155
58	0xbde462c2	-0.11151649
59	0x3e90cb61	0.28280166
60	0x3da23fde	0.07922338
61	0x3dbe31b5	0.092868246
62	0xbeaf7aa1	-0.34273246
63	0xbde8f48d	-0.11374769

model.0.weight f4 [256, 64]
0	0xbd986212	-0.074405804
1	0x3d9b3bb7	0.07579749
2	0xbc9fcbb8	-0.01950632
3	0x3d9324da	0.07184763
4	0x3de543b4	0.11194554
5	0x3d4edcba	0.05050347
6	0xbd785cbb	-0.06063531
7	0xbde12595	-0.10993496
8	0x3d12b7d5	0.035819847
9	0xbb71969d	-0.0036863454
10	0xbdcbe256	-0.099552795
11	0xbc917a3f	-0.017758487
12	0xbd9b55be	-0.075847134
13	0xbc93d474	-0.018045641
14	0xbc0e16b1	-0.008672402
15	0xbdf5e795	-0.120070614
16	0x3d29cf04	0.04145719
17	0x3b850a06	0.004060033
18	0x3dd6f9f7	0.10496896
19	0xbdf1b7f3	-0.11802664
20	0x3dba526f	0.09097754
21	0x3c721a0c	0.014776718
22	0x3d1c8f25	0.03822245
23	0xbd60dd02	-0.05489827
24	0xbc3f9b4a	-0.011694739
25	0x3d9fef93	0.07809367
26	0xbd9f14b9	-0.077676244
27	0xbdd3fd77	-0.10351079
28	0xbbe36432	-0.0069394344
29	0x3d75acfd	0.059979428
30	0xbdbb8af8	-0.091573656
31	0x3ce19c46	0.027540337
32	0x3cb30b31	0.021855922
33	0xbdb6a3ff	-0.089179985
34	0x3dba35c9	0.0909229
35	0x3d11e38b	0.035617393
36	0x3dc4f640	0.09617281
37	0xbde3152e	-0.11088024
38	0x3d660e44	0.05616595
39	0x3903d794	0.00012573443
40	0xbdb2a679	-0.087231584
41	0x3d08e696	0.03342303
42	0xbdab8e14	-0.083767086
43	0x3de5cd3f	0.11220788
44	0x3dddc82e	0.10829197
45	0x3de0f4ac	0.109841675
46	0xbd796aad	-0.06089275
47	0xbc3965ba	-0.011315757
48	0xbdbf8c1c	-0.093528956
49	0x3db93fcc	0.090453714
50	0x3d79f263	0.061022174
51	0x3c539ec7	0.012916273
52	0x3c553ea2	0.013015421
53	0xbad04bb7	-0.0015891705
54	0xbd841db9	-0.06450982
55	0x3dcb7b3d	0.09935615
56	0x3d7753cb	0.060382646
57	0xbd4501df	-0.048097488
58	0x3bbce538	0.0057646297
59	0xbce02e5c	-0.027365856
60	0xbdc8898c	-0.0979186
61	0x3d97dd21	0.07415224
62	0xbddff93f	-0.10936212
63	0xbcd4f98f	-0.025997905
64	0x3d4086f9	0.04700372
65	0xbbaf82db	-0.0053561754
66	0xbcfb685e	-0.030689415
67	0x3d9162ef	0.07098948
68	0xbd1809ed	-0.03711884
69	0x3d3ebd2b	0.046567123
70	0xbd9deace	-0.07710801
71	0xbc5ef543	-0.01360828
72	0x3c5f90f4	0.013645399
73	0xbc6a196c	-0.014288288
74	0xbd891403	-0.0669327
75	0xbd65ed08	-0.056134254
76	0x3dd6df34	0.10491791
77	0xbd97a770	-0.07404983
78	0xbd6e4acc	-0.0581768
79	0x3d127808	0.035759002
80	0xbde87027	-0.11349516
81	0xbd8cc5ae	-0.06873642
82	0x3c7277ae	0.014799042
83	0xbd6e46ff	-0.058173176
84	0xbccd6c95	-0.02507619
85	0xbdaa6a9a	-0.08321114
86	0xbd818cac	-0.06325659
87	0x3d68f4d4	0.05687411
88	0x3ccc9235	0.02497206
89	0x3df2b931	0.11851729
90	0x3db7ada7	0.089686684
91	0x3dacfc5e	0.08446573
92	0x3ddc0eab	0.10744985
93	0x3d1b49b5	0.03791209
94	0x3de063e1	0.109565504
95	0x3d4083c4	0.04700066
96	0x3dbdcca9	0.092675515
97	0x3ca8f116	0.020622771
98	0x3b8d3cc2	0.0043102214
99	0x3da5fb82	0.08104612
100	0x3d682e9b	0.05668507
101	0xbd329940	-0.04360318
102	0xbde3c3b5	-0.111213125
103	0x3d37d739	0.044882987
104	0xbd95d378	-0.07315725
105	0x3dcd6a0f	0.10029995
106	0xbd944415	-0.07239548
107	0x3d38352c	0.044972584
108	0xbd421532	-0.047383495
109	0xbd7561a1	-0.05990756
110	0xbd647e67	-0.05578461
111	0x3d3bc593	0.04584272
112	0x3d9f49ed	0.07777772
113	0xbdc246de	-0.09486173
114	0x3d12bbba	0.03582356
115	0xbd8e349a	-0.06943627
116	0x3dedbad3	0.116078995
117	0x3d56d28b	0.052446883
118	0x3dfe334e	0.12412129
119	0x3ddae9ce	0.10689126
120	0xbd546a1b	-0.051859003
121	0xbc6aa61f	-0.014321833
122	0xbd89432e	-0.06702267
123	0xbd9aa24c	-0.07550487
124	0xbc9eafa8	-0.019370869
125	0x3d536383	0.051608574
126	0xbd92df50	-0.071715
127	0xbdf862dc	-0.12128231
128	0xbcb1f7d5	-0.02172462
129	0xbd8b9f96	-0.06817548
130	0x3d9f467d	0.077771164
131	0xbdd3a802	-0.10334779
132	0xbd3d9a3d	-0.04628967
133	0x3b1fe81a	0.0024399818
134	0xbd662024	-0.056182995
135	0x3dfb677e	0.12275599
136	0x3d410dc7	0.04713228
137	0xbdfa5a51	-0.12224258
138	0x3ba42954	0.0050098095
139	0x3d2f1c72	0.042751737
140	0x3dc8a8f1	0.09797848
141	0xbdbf4279	-0.093388505
142	0x3de11462	0.10990216
143	0xbd7bac83	-0.061443817
144	0x3d27d831	0.04097766
145	0xbdd56f21	-0.10421587
146	0x3d78ed38	0.060773104
147	0x3d88cc26	0.06679563
148	0x3d68f5d6	0.056875072
149	0x3c10c407	0.008835799
150	0xbdeecf30	-0.11660612
151	0x3d8620fa	0.065492585
152	0xbc29eced	-0.010371429
153	0x3d91483c	0.07093856
154	0x3df57ff6	0.11987297
155	0x3ded62a4	0.1159108
156	0x3c8e1e02	0.017348293
157	0xbdd3a71c	-0.10334608
158	0xbdd1b31c	-0.102392405
159	0x3d70b788	0.05876878
160	0xbbbd58dd	-0.0057784156
161	0xbdae9af6	-0.0852565
162	0xbda9dac2	-0.08293678
163	0x3cf8d533	0.030375099
164	0xbca086ae	-0.01959547
165	0xbd007c00	-0.031368256
166	0x3debc0ea	0.11511405
167	0xbd21e8c1	-0.039528612
168	0xbdae0935	-0.0849785
169	0x3ba1555e	0.0049235066
170	0xbcb9130a	-0.022592086
171	0xbc9dae6f	-0.019248215
172	0x3db89453	0.090126656
173	0xbdfa2d46	-0.122156665
174	0x3d899020	0.06716943
175	0x3d8e43a1	0.06946493
176	0x3cf85171	0.030312272
177	0xbdf9cccf	-0.12197267
178	0x3dba24a1	0.09089018
179	0x3dcdde55	0.10052172
180	0xbc65a5b1	-0.014016555
181	0x3c4c306b	0.012462716
182	0x3da0350f	0.0782262
183	0xbb95855f	-0.004563018
184	0x3dc69173	0.09695711
185	0x3daf8c14	0.0857164
186	0x3de0784f	0.10960447
187	0x3dcfe764	0.10151556
188	0x3c79ce15	0.015246888
189	0x3ba81b21	0.005130187
190	0xbd0f6f37	-0.035018172
191	0x3dd68470	0.10474479
192	0xbde30cac	-0.11086401
193	0xbd3822dd	-0.044955123
194	0xbd4e7f66	-0.050414465
195	0x3dd008f5	0.101579584
196	0xbdf0e316	-0.11762063
197	0x3db07eb7	0.08617919
198	0xbd42e734	-0.047583774
199	0xbd9ecb70	-0.077536464
200	0xbbfd7893	-0.007735321
201	0x3d7d82fc	0.061892495
202	0xbd0a7331	-0.03380126
203	0x3d86c487	0.06580453
204	0x3dfd8ab1	0.12379969
205	0xbd602ee6	-0.054732226
206	0x3d392ba4	0.045207635
207	0x3c287d3c	0.010283764
208	0xbdb14f70	-0.086577296
209	0x3d892153	0.06695809
210	0xbd9d36b4	-0.076764494
211	0x3d0d5e56	0.034513794
212	0x3da7752d	0.081766464
213	0xbdc82dfa	-0.09774394
214	0x39ab585e	0.000326815
215	0xbdc43754	-0.095808655
216	0xbd5cd141	-0.053910498
217	0xbb0d3592	-0.0021546823
218	0xbd94afb7	-0.072600774
219	0x3dd903b5	0.1059641
220	0x3d63d1ac	0.05561988
221	0xbcad805c	-0.02117937
222	0x3de18b38	0.11012882
223	0x3d5db2f7	0.054125752
224	0xbddedca4	-0.108819276
225	0xbcbe3566	-0.023218822
226	0xbd74ff91	-0.05981404
227	0x3d921091	0.07132066
228	0xbcbb4a45	-0.022862563
229	0xbd6f45be	-0.05841612
230	0x3da1b577	0.0789594
231	0xbd37e0c6	-0.044892095
232	0xbc0b1c98	-0.008490704
233	0x3bb6ccbf	0.005578607
234	0xbd0dcdc6	-0.03462007
235	0x3dcb0db0	0.0991472
236	0x3d14d536	0.036336146
237	0xbd699ff7	-0.05703732
238	0xbd05ed1e	-0.032696836
239	0xbcca02e1	-0.024659576
240	0x3da9ba7a	0.08287521
241	0xbd92bee5	-0.071653165
242	0xbbea315e	-0.0071469983
243	0x39363b5a	0.00017378983
244	0x3d132f6e	0.035933904
245	0xbda40627	-0.08008986
246	0x3d52b082	0.051437862
247	0xbdc0f5fd	-0.094219185
248	0x3d6705ad	0.056401897
249	0xbc10e627	-0.008843935
250	0x3dce54fa	0.10074802
251	0x3d209321	0.039202813
252	0xbd918189	-0.07104785
253	0x3d08daf0	0.03341192
254	0xbd2051ca	-0.0391405
255	0x3d75836c	0.059939787

model.0.bias f4 [256]
0	0x3d950d8d	0.07277975
1	0xbde34472	-0.11097039
2	0x3da37375	0.07981006
3	0xbc77f971	-0.015135155
4	0x3c31a56a	0.01084266
5	0xbc1bc4b7	-0.00950735
6	0x3c57a6e8	0.013162352
7	0x3daed88d	0.085373975
8	0xbab1cddc	-0.0013565379
9	0x3d96bbef	0.07360064
10	0x3dac093a	0.08400197
11	0x3dddd179	0.10830969
12	0xbda5cbf1	-0.08095539
13	0xbd9d8d62	-0.07692982
14	0xbda66923	-0.08125522
15	0xbdcced49	-0.10006196
16	0xbde6722f	-0.112522475
17	0x3dc66652	0.09687485
18	0xbd7c6a13	-0.061624598
19	0xbdd3db5c	-0.10344574
20	0xbdf05e9e	-0.11736797
21	0x3df2a56b	0.11847957
22	0xbd980180	-0.07422161
23	0xbda8dc7e	-0.082451805
24	0xbdac65a3	-0.08417823
25	0x3de95269	0.113926716
26	0x3bf100dc	0.007354839
27	0xbd580ad3	-0.052744698
28	0xbd9518c2	-0.07280113
29	0x3db65218	0.08902377
30	0xbde35049	-0.110992976
31	0x3d749885	0.059715766
32	0x3d9d7155	0.07687632
33	0x3c6a786a	0.0143109355
34	0x3b5d965f	0.0033811552
35	0x3c9173f2	0.017755482
36	0x3de2a750	0.110670686
37	0x3d2bf143	0.041978132
38	0x3dd245b8	0.10267204
39	0x3a62a0a0	0.0008645151
40	0xbddda7d7	-0.108230285
41	0xbc218c64	-0.009860132
42	0xbd90a283	-0.07062247
43	0xbcc3f625	-0.023921082
44	0xbdbce285	-0.09222893
45	0xbdb9338c	-0.09043035
46	0xbd2f438e	-0.042789035
47	0xbd1771ed	-0.036973882
48	0x3d539655	0.05165704
49	0x3da3a160	0.07989764
50	0x3d0429c0	0.03226638
51	0xbd1e6a40	-0.038675547
52	0x3cd55a64	0.026044078
53	0xbd3ac7b8	-0.045600623
54	0x3da57c43	0.08080342
55	0x3b4e5eee	0.0031489688
56	0x3ddddb6b	0.10832866
57	0xbc025a71	-0.007956133
58	0x3de7e871	0.113236316
59	0xbdef7464	-0.116921216
60	0xbd0b3e45	-0.03399493
61	0x3da29b05	0.07939724
62	0x3de8bd5f	0.11364245
63	0x3dce262c	0.100658745
64	0x3da40e7e	0.08010577
65	0xbd130381	-0.035892013
66	0xbd803009	-0.06259162
67	0x3d146d5f	0.036237117
68	0x3dac0762	0.08399846
69	0x3b7ac5d0	0.0038264878
70	0xbce48a5c	-0.027898006
71	0x3cd4e2e0	0.025987089
72	0x3d6abce8	0.05730906
73	0x3d4a24c0	0.049351454
74	0x3d915924	0.0709708
75	0xbd806352	-0.06268944
76	0x3a261bc2	0.00063365337
77	0x3dc8cb6a	0.09804423
78	0x3d9c5dcc	0.07635078
79	0xbda19c2e	-0.07891117
80	0xbd3052fc	-0.04304789
81	0xbdb3d2a0	-0.08780408
82	0x3db28126	0.08716039
83	0xbde5c060	-0.11218333
84	0x3db91c79	0.09038634
85	0xbda4f58e	-0.08054648
86	0x3d8f92f0	0.07010448
87	0xbda495e4	-0.08036402
88	0xbd8c0de3	-0.06838586
89	0x3d4eb785	0.050467987
90	0xbdb0194e	-0.085985765
91	0x3c83d859	0.016094374
92	0x3de4225b	0.11139365
93	0xbd2ca9c7	-0.0421541
94	0x3d53157b	0.051534157
95	0xbd8a5369	-0.067541905
96	0xbdb20635	-0.0869259
97	0x3d029737	0.03188249
98	0xbdd5cc7b	-0.10439392
99	0xbc4c69b1	-0.012476371
100	0x3d8d7b48	0.0690828
101	0xbd8b6982	-0.068072334
102	0xbcbb31e0	-0.02285093
103	0xbcc447b4	-0.023959972
104	0xbd88484b	-0.06654414
105	0xbd81c873	-0.06337061
106	0xbdbf7154	-0.093477875
107	0xbd8f0ee6	-0.069852635
108	0xbdc259d4	-0.094897896
109	0x3c4b770d	0.012418521
110	0xbbb04edb	-0.005380494
111	0x3dd50824	0.10401943
112	0xbd9acc67	-0.07558518
113	0xbda4e892	-0.08052172
114	0xbdac0105	-0.08398632
115	0xbc912b45	-0.017720828
116	0xbcd18031	-0.025573822
117	0xbc852542	-0.016253117
118	0xbdd198c1	-0.102342136
119	0xbdfbe5d4	-0.122996956
120	0x3cd20c20	0.025640547
121	0x3dd37a5b	0.10326072
122	0xbd395b8d	-0.045253325
123	0xbd579743	-0.05263449
124	0xbcaaea0f	-0.020863561
125	0x3d57bc00	0.052669525
126	0xbcd5609d	-0.026047045
127	0xbdf09277	-0.11746686
128	0xbc97d2a7	-0.018533064
129	0x3d958e6b	0.07302555
130	0xbccbd3c4	-0.024881251
131	0x3d8fa7c3	0.0701442
132	0x3de6f396	0.11276929
133	0xbd79dd8c	-0.0610023
134	0xbd5fedf6	-0.054670297
135	0xbd19ef30	-0.037581623
136	0x3d9efea0	0.077634096
137	0x3d9d99f2	0.07695378
138	0xbd80f627	-0.0629695
139	0x3dee43ab	0.116340004
140	0x3d061b56	0.032740913
141	0x3db5977e	0.088667855
142	0xbdbbd6be	-0.09171818
143	0xbbc2e06e	-0.0059471643
144	0xbc203ef4	-0.009780634
145	0x3daed188	0.08536059
146	0xbb73a19a	-0.003717518
147	0xbc74ce11	-0.014941708
148	0x3da16566	0.07880668
149	0xbb901f73	-0.0043982803
150	0x3bff37e5	0.0077886456
151	0x3d85f068	0.065399945
152	0xbdf73999	-0.12071533
153	0xbdc6d9e5	-0.09709529
154	0xbd400229	-0.04687706
155	0x3c8815f9	0.01661204
156	0x3d811d2d	0.06304393
157	0xbd7b31fb	-0.061326962
158	0x3c39e550	0.011346176
159	0xbd4a3bc3	-0.0493734
160	0xbcd5eaab	-0.026112875
161	0xbd703a25	-0.0586492
162	0x3dcc0e47	0.09963661
163	0xbd89c2c8	-0.06726605
164	0x3d67a49a	0.05655346
165	0xbd01054a	-0.031499185
166	0x3d921804	0.07133487
167	0xbcb543db	-0.022127083
168	0x3dd9f328	0.106420815
169	0x3df6874a	0.12037523
170	0x3ddf85ba	0.10914178
171	0xbdd52a70	-0.10408485
172	0xbdfd9c32	-0.123833075
173	0xbd89ad98	-0.067225635
174	0x3d0e36fb	0.034720402
175	0xbdc1efa5	-0.09469537
176	0x3c04e173	0.008110392
177	0x3c53bef3	0.012923944
178	0xbd8d9c09	-0.06914527
179	0xbdb65e67	-0.089047246
180	0xbc37578d	-0.011190307
181	0xbcf5d50b	-0.030008813
182	0xbd93ea15	-0.07222382
183	0xbc8be32e	-0.017076101
184	0xbdd5f871	-0.10447777
185	0x3dfde66a	0.123974636
186	0xbde75716	-0.11295907
187	0xbdf3a282	-0.1189623
188	0xbd8b99ee	-0.06816469
189	0x3cb90997	0.02258758
190	0xbcc9a8fa	-0.024616707
191	0x3df4a6d4	0.119458824
192	0x3cdd3689	0.027003543
193	0xbcf0ae95	-0.029380122
194	0xbdffd498	-0.12491721
195	0xbce2347e	-0.02761292
196	0xbde901b8	-0.11377281
197	0x3dc60971	0.096697696
198	0xbba4e3a8	-0.0050320216
199	0x3d84b6c7	0.064801745
200	0x3c5086eb	0.012727479
201	0xbdf6053b	-0.120127164
202	0xbcf8a7e5	-0.030353496
203	0x3d985c80	0.07439518
204	0x3d93e668	0.07221681
205	0x3d08cd1d	0.033398736
206	0x3dd60953	0.10450997
207	0x3d0094d7	0.031391945
208	0xbded8169	-0.11596949
209	0xbdda6695	-0.10664097
210	0x3de51e60	0.11187434
211	0xbdd18bc4	-0.10231736
212	0x3df7282f	0.12068211
213	0x3de9b111	0.11410726
214	0x3d3f2948	0.04667023
215	0x3dd716fa	0.10502429
216	0x3d824c01	0.06362153
217	0xbde12c64	-0.10994795
218	0x3d7400c3	0.05957104
219	0x3d7b2eee	0.061324053
220	0xbab8857d	-0.0014077869
221	0x3d83ebc1	0.06441451
222	0xbc4c8455	-0.012482722
223	0x3d968f02	0.07351495
224	0x3d79e593	0.061009955
225	0x3d40c30e	0.04706102
226	0xbd4f084b	-0.05054502
227	0x3cfb3657	0.03066556
228	0xbd9bc7c6	-0.07606463
229	0x3db62e35	0.08895532
230	0x3c98e20b	0.018662473
231	0x3dcda605	0.10041431
232	0xbd884f20	-0.06655717
233	0xbdd01c96	-0.10161702
234	0xbd5517ac	-0.05202453
235	0x3db46f42	0.08810283
236	0xbde1fbf5	-0.11034385
237	0x3b54a4e7	0.0032446922
238	0x3dfd661a	0.1237299
239	0x3d99887a	0.07496734
240	0xbcc6e82a	-0.024280626
241	0xbd18a765	-0.037269015
242	0xbc6b7fa1	-0.014373691
243	0xbdad806e	-0.08471762
244	0x3dd74edd	0.10513089
245	0x3cbabb8c	0.022794507
246	0xbd10c594	-0.035344675
247	0xbd2887c3	-0.041145097
248	0xbcd84d2f	-0.026403992
249	0xbdc2f7de	-0.09519933
250	0xbdcb6bf8	-0.09932703
251	0x3d8c6149	0.06854493
252	0x3c5b1de3	0.013373825
253	0xbd51baf5	-0.051203687
254	0x3c731f51	0.014839009
255	0xbdd402c7	-0.10352092

model.1.weight f4 [64, 256]
0	0xbceb7863	-0.028743928
1	0xbd677b77	-0.05651423
2	0x3d5921ad	0.05301063
3	0xbd5afc5c	-0.053463325
4	0x3d19a19b	0.037507635
5	0xbd62a191	-0.055329863
6	0xbc97a94d	-0.018513346
7	0xbb598668	-0.0033191685
8	0xbd3a603c	-0.045501933
9	0xbc603687	-0.013684875
10	0x3d44166d	0.04787295
11	0x3ca85294	0.020547189
12	0xbd08c4e6	-0.033390902
13	0xbd8125b2	-0.06306018
14	0x3cc527e2	0.02406687
15	0x3c47a9d3	0.012186485
16	0xbd3720bd	-0.044708956
17	0x3d51ba20	0.051202893
18	0x3bb66bce	0.0055670505
19	0x3d1a5fae	0.037688904
20	0x3c1201cb	0.00891156
21	0xbc850734	-0.016238786
22	0xbd09da1a	-0.033655263
23	0x3ce1b4a7	0.027551962
24	0x3d7316e3	0.059348
25	0xbbab58ec	-0.005229106
26	0xbd6e469a	-0.0581728
27	0xbcc88bbb	-0.024480691
28	0xbd4e708e	-0.05040031
29	0x3cda708d	0.026664997
30	0x3cb8e63e	0.022570726
31	0xbbe24531	-0.006905221
32	0xbcbe9299	-0.023263263
33	0x3b766c79	0.0037601276
34	0xbcf1c4c5	-0.029512772
35	0xbd3bec46	-0.045879625
36	0x3c773fcd	0.015090895
37	0xbbd13506	-0.0063844947
38	0x3ced76bc	0.028987281
39	0xbc6bc2e0	-0.014389724
40	0x3bc95f52	0.0061453963
41	0x3cab9482	0.020944837
42	0x3d73b714	0.05950077
43	0x3cdb4ec1	0.026770951
44	0x3cfbcfd3	0.030738747
45	0x3cc7d2f7	0.024392588
46	0x3d1868c9	0.037209306
47	0x3d4d79ee	0.05016511
48	0xbc803395	-0.015649596
49	0x3cb9cb8d	0.022680068
50	0xbd7d218e	-0.06179958
51	0xbd5e9316	-0.05433949
52	0xbd7e9b17	-0.062159624
53	0x3d66bbb9	0.05633137
54	0x3cc0e6b1	0.023547502
55	0x3d3d7102	0.04625035
56	0xbd63c300	-0.05560589
57	0x3cb15a8f	0.021649627
58	0x3d67add0	0.056562245
59	0xbd0be93c	-0.034157977
60	0xbd3582a7	-0.044314053
61	0x3d3333ff	0.04375076
62	0x3c026753	0.007959205
63	0xbc63a047	-0.013893194
64	0x3c427b02	0.011870148
65	0x3d7b9941	0.06142545
66	0xbd12a7ac	-0.035804436
67	0xbce4963b	-0.027903667
68	0xbbea3d7c	-0.007148443
69	0x3d865c81	0.065606125
70	0xbc906bdc	-0.017629556
71	0xbd620701	-0.05518246
72	0x3cfdcb17	0.03098063
73	0xbceac8ba	-0.028660167
74	0x3d159bfd	0.036525715
75	0xbcac4999	-0.021031188
76	0x3c7fa4ef	0.015603288
77	0x3d113fbd	0.035461176
78	0xbbd80836	-0.0065927757
79	0x3d370b8f	0.044688758
80	0xbd262022	-0.040557988
81	0xbd40f28c	-0.04710631
82	0xbc831f23	-0.016006058
83	0x3bd482c1	0.0064853136
84	0x3c9a5eca	0.018844027
85	0x3ab2e2ff	0.0013647972
86	0x3d072dd9	0.033002708
87	0x3d534efc	0.051588997
88	0x3d57a4a4	0.052647248
89	0x3b871c0a	0.0041232156
90	0x3ccc7be0	0.024961412
91	0xbcf6482d	-0.030063713
92	0xbd3d9359	-0.0462831
93	0x3d0e9692	0.034811564
94	0x3d00a18b	0.03140406
95	0xbd36af75	-0.044600923
96	0xbbb1a0b9	-0.005420771
97	0xbcd6cbb1	-0.026220175
98	0x3d2d59c2	0.042321928
99	0x3d425a81	0.047449593
100	0xbc395584	-0.011311892
101	0x3cea8d82	0.02863193
102	0x3d3d2c31	0.046184722
103	0x3d073837	0.033012595
104	0x3d34a635	0.04410382
105	0xbcbf656d	-0.023363793
106	0xbcf07c1b	-0.029356053
107	0xbd55cc40	-0.05219674
108	0xbc87ec79	-0.016592251
109	0x3d328ff0	0.0435943
110	0x3d846170	0.06463897
111	0xbd27e3d2	-0.04098875
112	0xbb1be53b	-0.0023787755
113	0x3d59f7ca	0.053214826
114	0xbd1f5b1b	-0.038905244
115	0x3d2240e1	0.039612655
116	0xbd034b67	-0.03205433
117	0xbd1934e2	-0.03740395
118	0x3d685fc5	0.056731958
119	0x3d062012	0.03274543
120	0xbd15d1ee	-0.036577158
121	0x3d14a6fa	0.036292054
122	0x3ced8656	0.02899472
123	0xbc5639b1	-0.013075278
124	0xbd5ee20c	-0.054414794
125	0x3d1a09f7	0.03760716
126	0xbce470cf	-0.027885823
127	0xbd238eef	-0.039931234
128	0x3ca76bf7	0.020437224
129	0x3c5df2a6	0.013546621
130	0x3d08d47e	0.033405773
131	0x3d3110f0	0.043229043
132	0xbbb88fca	-0.0056323754
133	0x3d0611b3	0.032731723
134	0x3c29114e	0.010319067
135	0x3c1fae95	0.009746213
136	0x3ce26a48	0.02763857
137	0x3c9c8f79	0.019111382
138	0x3d5c013d	0.05371212
139	0xbd006607	-0.0313473
140	0xbca50cc0	-0.020147681
141	0x3ace78b7	0.0015752529
142	0x3cbe6fff	0.023246763
143	0x3cb03617	0.021510167
144	0x3cbe26e9	0.023211913
145	0x3d3fbf89	0.04681352
146	0xbd4c6bd8	-0.049907535
147	0x3c5b002e	0.013366742
148	0xbd0da474	-0.034580663
149	0xbd320c61	-0.043468837
150	0x3d79af95	0.060958464
151	0xbd4ddf14	-0.050261572
152	0x3d3aa463	0.045566928
153	0x3c8e032e	0.0173355
154	0xbcdb5a63	-0.026776498
155	0x3ce3b950	0.027798325
156	0xbd20107a	-0.039078213
157	0x3d5b275b	0.05350433
158	0xbd68906f	-0.056778368
159	0x3d3a57b3	0.045493793
160	0xbd443fd6	-0.04791244
161	0xbcd1fcec	-0.025633298
162	0xbd122d31	-0.03568763
163	0xbb16656d	-0.0022948638
164	0x3c3d2cb9	0.011546307
165	0xbc96da4f	-0.018414645
166	0x3c4f8148	0.0126651
167	0xbd307f94	-0.043090418
168	0x3d33a62b	0.043859642
169	0xbd223dbc	-0.039609656
170	0x3cb3c1c4	0.02194298
171	0xbd56f9ed	-0.05248444
172	0xbce2122e	-0.02759656
173	0xbb09e1a6	-0.0021039038
174	0x3c5bd1a9	0.013416686
175	0xbc8f288a	-0.017475385
176	0x3d4733c9	0.04863337
177	0x3ce1764f	0.027522234
178	0xbc3ad645	-0.011403625
179	0xbcfbe841	-0.030750396
180	0x3d31fe46	0.043455385
181	0x3d54329a	0.05180607
182	0xb99d7d7d	-0.0003003887
183	0xbd346256	-0.044039093
184	0x3d50ef0c	0.051009223
185	0x3ce21af9	0.027600752
186	0xbcaa0f02	-0.02075911
187	0xbd3a60d8	-0.045502514
188	0xbd1523d1	-0.03641111
189	0xbd3edca5	-0.04659714
190	0xbd70b12e	-0.05876272
191	0x3d4711e4	0.048601046
192	0xbd6bf55f	-0.05760705
193	0x3d56c35a	0.052432396
194	0xbca7adef	-0.02046868
195	0xbceaf87b	-0.028682938
196	0xbd0574c0	-0.032582045
197	0x3cd04ac9	0.025426285
198	0xbc748bf3	-0.014925945
199	0x3d4f7f1f	0.05065834
200	0x3ca31319	0.019906567
201	0xbd41e14f	-0.04733401
202	0xbd3ab55c	-0.045583114
203	0xbd50dd7d	-0.050992478
204	0xbca9fd70	-0.020750731
205	0xbc0ebc85	-0.008711939
206	0xbd16b235	-0.036791045
207	0xbcc30fb8	-0.023811206
208	0x3ce83ca0	0.02834922
209	0x3d228357	0.039676037
210	0x3d5a08e9	0.053231154
211	0xbd75acca	-0.059979238
212	0x3d457da3	0.04821552
213	0xbcc1ef4a	-0.023673672
214	0x3b92e64b	0.0044830195
215	0xbc24d1ac	-0.010059755
216	0xbd0269df	-0.031839248
217	0x3ca78162	0.020447437
218	0xbd72947b	-0.059223633
219	0xbd56f455	-0.052479107
220	0xbd3ad916	-0.045617186
221	0x3d17a733	0.037024688
222	0xbd29ce74	-0.041456655
223	0x3d2ee6bf	0.042700525
224	0xbd507649	-0.050894056
225	0xbd013f6a	-0.031554617
226	0xbc4ef4f5	-0.0126316445
227	0x3d339c0e	0.043849997
228	0x3d418f5c	0.04725586
229	0x3d5dd4b8	0.054157943
230	0xbd3c7d36	-0.046017848
231	0x3d075372	0.033038564
232	0xbc9461b8	-0.018113002
233	0xbc742dc2	-0.014903488
234	0xbcdc4144	-0.02688659
235	0x3d040877	0.032234635
236	0xbd72d53b	-0.059285384
237	0xbc49762d	-0.012296242
238	0xbd5f21e5	-0.054475684
239	0xbd0a18ba	-0.033714987
240	0x3cf909d1	0.030400189
241	0xbd02ec7d	-0.031963814
242	0x3c9f595a	0.019451786
243	0xbd62a536	-0.05533334
244	0x3d221cf4	0.039578393
245	0xbb383aaf	-0.002811115
246	0xbca0205d	-0.019546682
247	0x3b6f14e6	0.0036480962
248	0xbb87e6bd	-0.004147379
249	0xbcb74584	-0.022372015
250	0x3c6dee22	0.014522107
251	0xbb8a077a	-0.004212317
252	0xbd555b8d	-0.052089263
253	0x3c15ca11	0.009142415
254	0xbd2c225a	-0.042024948
255	0xbc01b703	-0.007917169

model.1.bias f4 [64]
0	0x3cb1ba14	0.021695174
1	0xbcbd5247	-0.023110522
2	0x3ce3c941	0.027805926
3	0xbd4e4f77	-0.050368752
4	0x3d3add32	0.045621105
5	0x3cb21496	0.021738332
6	0xbd1a15b1	-0.037618343
7	0x3d533104	0.051560417
8	0xbc935e6b	-0.017989358
9	0x3d5e2e43	0.054243337
10	0xbd618d4e	-0.0550664
11	0x3d2377b9	0.0399091
12	0x3c8d1a60	0.01722449
13	0x3d739974	0.059472516
14	0x3b381164	0.0028086537
15	0xbd0f56ec	-0.034995005
16	0xbd5c3777	-0.053763833
17	0xbd5a1169	-0.05323926
18	0xbd104139	-0.03521845
19	0xbcd77352	-0.026300106
20	0x3d504062	0.05084265
21	0xbbcb0b36	-0.006196405
22	0xbd6b9edd	-0.05752455
23	0xbd648eac	-0.055800125
24	0x3d0efff8	0.03491208
25	0xbd69c5ab	-0.057073276
26	0x3d04d6d0	0.032431424
27	0xbc8cb797	-0.017177386
28	0x3c54e5f3	0.012994277
29	0x3d4993b6	0.049213134
30	0x3d5449c4	0.05182816
31	0xbd2a1866	-0.041527174
32	0xbcfdd2d7	-0.030984325
33	0x3d3e93d9	0.046527717
34	0xbcaf656c	-0.021410666
35	0xbcb15f3f	-0.021651862
36	0x3c572e52	0.013133602
37	0xbbe83ef0	-0.007087581
38	0x3d1b436a	0.037906088
39	0xbd0fda34	-0.035120204
40	0x3bbdf055	0.005796472
41	0x3d305dc9	0.04305819
42	0x3d051085	0.032486457
43	0xbcb47af4	-0.022031285
44	0xbbd1d5ac	-0.0064036455
45	0x3d42566b	0.047445696
46	0x3d809c42	0.06279804
47	0xba2e3741	-0.0006645807
48	0xbd5fc582	-0.054631718
49	0xbc041130	-0.008060738
50	0xbd0653ae	-0.032794647
51	0x3c322851	0.01087387
52	0x3c89d0c1	0.016823174
53	0xbd3ec299	-0.0465723
54	0x3c407b7d	0.011748192
55	0xbbf18d7d	-0.007371603
56	0x3bdc8a52	0.0067303563
57	0x3b5c4b16	0.003361409
58	0xbd40ad3a	-0.0470402
59	0x3ccc1ed9	0.024917053
60	0xbd131ab3	-0.035914134
61	0x3cb2c6b7	0.02182327
62	0xbb54f22f	-0.0032492985
63	0xbd5d8019	-0.05407724

model.2.weight f4 [1, 64]
0	0x3e01801d	0.12646528
1	0xbdfc2bb3	-0.123130225
2	0xbd56e703	-0.052466404
3	0x3df35645	0.11881689
4	0xbbae556f	-0.005320243
5	0x3c26a3cd	0.010170889
6	0x3dbfe976	0.09370701
7	0xbde60e96	-0.11233251
8	0x3bad3aac	0.0052865352
9	0xbd4e2124	-0.050324574
10	0xbda5a355	-0.08087794
11	0xbd43c9d6	-0.047799908
12	0xbbb45536	-0.005503322
13	0xbd438b18	-0.047740072
14	0xbd32a598	-0.043614954
15	0xbde316f5	-0.11088363
16	0x3d7b65d1	0.061376397
17	0xbdc10369	-0.094244786
18	0xbe044688	-0.1291753
19	0x3e025693	0.12728338
20	0x3d996167	0.07489281
21	0x3dddeb14	0.10835853
22	0x3e1ce95d	0.15323396
23	0xbdbdcd79	-0.092677064
24	0xbb802ebd	-0.0039118216
25	0x3d0ce195	0.03439482
26	0x3d3b815d	0.045777667
27	0xbdc4b8ae	-0.09605537
28	0x3d9f9b31	0.07793272
29	0xbd3964c0	-0.0452621
30	0xbdeb6974	-0.11494723
31	0xbdfb7e12	-0.122799054
32	0x3d38d0f5	0.045121152
33	0xbd7ace1b	-0.061231714
34	0x3bd3ad9d	0.0064599053
35	0x3e02c729	0.12771286
36	0x3b9bba7d	0.0047524557
37	0xbc055245	-0.00813729
38	0xbdc31bf6	-0.095268175
39	0x3df2e1bf	0.11859464
40	0xbc569c59	-0.0130988
41	0xbd261d15	-0.04055508
42	0xbd7329cb	-0.05936603
43	0xbdaf0824	-0.085464746
44	0x3e05803c	0.13037199
45	0x3dcea85b	0.10090705
46	0xbd72269e	-0.05911886
47	0xbcac91ae	-0.02106556
48	0x3dea1ad9	0.11430902
49	0xbb369986	-0.0027862503
50	0xbda3cd08	-0.07998091
51	0x3dd898ba	0.10576005
52	0x3d8ca825	0.068680085
53	0x3c13b57f	0.00901544
54	0x3cdbc094	0.026825227
55	0x3dd5cc7d	0.10439394
56	0x3d5261a7	0.05136266
57	0xbdd75841	-0.1051488
58	0x3dfb9a8e	0.12285338
59	0x3dac39cf	0.084094636
60	0x3d972d35	0.073816694
61	0x3dbe15b1	0.09281481
62	0xbb953f8a	-0.0045546936
63	0xbbb21c6e	-0.005435518
