ml/models/TP53_8_8 Model_3.pt (torch, 137231 bytes, 7 tensors)

conv.weight f4 [64, 1, 8]
0.045276377 0.115190715 0.16668968 0.21975614 -0.30833575 -0.18663083 -0.25844756 -0.02636565
-0.3301811 -0.32023117 0.007173326 0.16849785 0.08977907 -0.105462775 -0.12367201 0.09358359
-0.052264057 -0.093333356 0.14527544 0.043744523 -0.3249963 0.115928575 -0.07391663 -0.16759504
0.02432017 -0.3253053 -0.059508752 -0.08696432 -0.049648684 0.055520065 -0.30394414 -0.002358795
-0.10367275 0.29524535 0.1720995 0.27497935 0.26261735 0.29951665 0.115837716 -0.33273497
0.2676774 -0.10002967 0.124487475 -0.03328947 -0.21439146 -0.03200678 -0.04664754 0.20694247
-0.08188131 -0.24764732 0.34044227 -0.30309975 0.19936997 0.28595984 -0.32452965 -0.24810724
0.25541326 0.13205846 -0.23866364 -0.0022103002 -0.16244364 0.34711045 -0.21275647 0.13166922
0.081677765 -0.35348767 -0.29920158 -0.06567853 -0.24354497 0.34329516 0.31964314 0.29349315
-0.022018895 0.099101104 0.26140594 0.10179307 -0.097190335 0.23786975 -0.14521714 0.2577142
0.041511573 -0.3347947 -0.21969369 0.23257253 -0.25769064 0.089835204 -0.34522364 -0.20279735
0.31961456 0.34414837 0.2689488 0.0006892605 -0.19346045 0.22922385 -0.13608645 0.2711052
0.17484242 -0.054009944 0.23703095 0.1307325 0.1017439 0.14167768 0.1643315 0.037116732
0.16613741 -0.3012274 0.29736143 0.2540017 0.31173727 -0.27707002 -0.15461612 0.23089547
-0.26945043 -0.34883547 -0.28764057 0.028376125 0.33153504 -0.0015869598 0.15892276 -0.2186503
0.21404907 0.28985548 0.006230244 -0.13035084 -0.06374522 0.031543646 -0.044054516 0.1589568
-0.01563375 0.23613718 -0.31537357 -0.21615717 0.21218349 -0.22899492 -0.3407205 -0.16003701
-0.04855547 -0.0701204 -0.15734822 0.041535083 -0.2040134 -0.3113994 0.24060796 -0.0017364852
-0.33062625 0.21003449 0.0036032975 0.12786955 -0.17003125 -0.16307108 0.25446048 0.20479095
0.049184833 -0.023466032 -0.081285976 0.018927889 0.25019035 0.1382433 0.13865088 0.2402765
-0.23084147 -0.2382022 0.23843917 0.31623557 -0.27219012 -0.31997582 -0.25879663 0.3197242
-0.15696216 0.053381015 -0.23316273 0.1908851 0.07537023 -0.33002946 0.2894187 -0.06490633
0.2550952 -0.19073835 0.09465281 -0.07381396 -0.34544548 0.27315184 -0.3443984 -0.26640123
-0.20614937 0.35642785 -0.27143157 -0.3394469 -0.3579473 -0.34045476 0.35057318 -0.1643984
0.3014068 0.091748 0.22561999 0.23827487 -0.19040854 -0.26768893 -0.3015071 -0.019233381
0.13860905 0.20356143 -0.27781174 0.093805894 0.1926118 -0.102731764 0.1784619 -0.31414685
-0.25626165 0.13248801 -0.15444925 0.15343022 -0.08798367 -0.11632327 0.3380368 -0.13381968
-0.047728274 -0.3479966 0.31051826 0.228681 0.1939388 -0.3322329 -0.27749443 0.026879815
-0.07753636 0.21088621 0.17384873 -0.2645778 0.32869047 -0.32147214 -0.09757782 0.0369272
-0.304996 -0.011248829 0.2531086 -0.0626787 -0.08504139 0.0092524495 0.10399393 0.06979931
-0.20316446 0.30833822 -0.21970883 0.20666718 -0.010393008 0.23261961 0.08350738 -0.2057038
0.041057345 0.34255445 0.35097918 0.3263926 0.22523062 0.26043448 -0.07974558 -0.096715584
00000000: b973 393d 1ce9 eb3d b3b0 2a3e c107 613e
00000010: 2fde 9dbe 271c 3fbe 3d53 84be c7fc d7bc
00000020: 7f0d a9be 57f5 a3be 380e eb3b b38a 2c3e
00000030: 17de b73d defc d7bd c047 fdbd c1a8 bf3d
00000040: d612 56bd 8f25 bfbd 16c3 143e 752d 333d
00000050: ea65 a6be f66b ed3d 9a61 97bd 099e 2bbe
00000060: 183b c73c 6b8e a6be 73bf 73bd 591a b2bd
00000070: 6b5c 4bbd 0269 633d 919e 9bbe 0396 1abb
00000080: 6152 d4bd 662a 973e da3a 303e 18ca 8c3e
00000090: c875 863e 3f5a 993e 533c ed3d 3d5c aabe
000000a0: 030d 893e 5bdc ccbd 4af3 fe3d 8a5a 08bd
000000b0: 6f89 5bbe 8b19 03bd 7e11 3fbd bae8 533e
000000c0: 63b1 a7bd 4297 7dbe 734e ae3e e42f 9bbe
000000d0: a427 4c3e 5469 923e c028 a6be d30f 7ebe
000000e0: 87c5 823e 553a 073e 3e64 74be afda 10bb
000000f0: a057 26be 76b8 b13e d5dc 59be 4cd4 063e
00000100: ac46 a73d 56fc b4be f330 99be 7782 86bd
00000110: da63 79be 62c4 af3e 44a8 a33e bc44 963e
00000120: f860 b4bc 85f5 ca3d 00d7 853e e378 d03d
00000130: ba0b c7bd 2194 733e cdb3 14be 1ef3 833e
00000140: 0a08 2a3d 366a abbe 62f7 60be 7e27 6e3e
00000150: 07f0 83be 85fb b73d 27c1 b0be 1caa 4fbe
00000160: 85a4 a33e 3734 b03e a8b3 893e 7daf 343a
00000170: 7f1a 46be a8b9 6a3e 3f5a 0bbe 4dce 8a3e
00000180: e409 333e 8839 5dbd 3eb8 723e bede 053e
00000190: 1b5f d03d f413 113e 8446 283e b707 183d
000001a0: ed1f 2a3e 7a3a 9abe c23f 983e 830c 823e
000001b0: 079c 9f3e 1fdc 8dbe b053 1ebe dd6f 6c3e
000001c0: 68f5 89be 909a b2be a045 93be 0c75 e83c
000001d0: f6be a93e 8901 d0ba a6bc 223e dde5 5fbe
000001e0: ae2f 5b3e f067 943e 1327 cc3b b17a 05be
000001f0: db8c 82bd e933 013d 8272 34bd 92c5 223e
00000200: 5a12 80bc f2cd 713e a578 a1be 4e58 5dbe
00000210: a146 593e a57d 6abe eb72 aebe bee0 23be
00000220: 1ae2 46bd 499b 8fbd e41f 21be b120 2a3d
00000230: e4e8 50be be6f 9fbe ef61 763e c69a e3ba
00000240: d847 a9be 4813 573e 4d25 6c3b 3cf0 023e
00000250: ac1c 2ebe 1bfc 26be a548 823e b8b4 513e
00000260: 0976 493d d63b c0bc 4379 a6bd a90e 9b3c
00000270: f318 803e a78f 0d3e 7ffa 0d3e 0b0b 763e
00000280: b561 6cbe 47eb 73be 6629 743e a1e9 a13e
00000290: 815c 8bbe dfd3 a3be fe80 84be e4b2 a33e
000002a0: b0ba 20be 0da6 5a3d 36c2 6ebe 6277 433e
000002b0: b55b 9a3d 9ff9 a8be b02e 943e 9ced 84bd
000002c0: d79b 823e ea50 43be 55d9 c13d c62b 97bd
000002d0: 3bde b0be 8fda 8b3e fd54 b0be be65 88be
000002e0: d218 53be b67d b63e 14f9 8abe fccb adbe
000002f0: de44 b7be 1650 aebe 547e b33e 0e58 28be
00000300: fe51 9a3e 60e6 bb3d ed08 673e 54fe 733e
00000310: 75fa 42be 860e 89be 235f 9abe 538f 9dbc
00000320: 88ef 0d3e 6872 503e 573d 8ebe 4e1d c03d
00000330: 073c 453e 0865 d2bd b7be 363e dbd7 a0be
00000340: ba34 83be f0aa 073e f227 1ebe d01c 1d3e
00000350: c830 b4bd e53a eebd 2913 ad3e 0708 09be
00000360: b97e 43bd 9c2c b2be 40fc 9e3e 5a2b 6a3e
00000370: e597 463e 6e1a aabe c013 8ebe 0f33 dc3c
00000380: 62cb 9ebd 8ef2 573e 6705 323e be76 87be
00000390: 1e4a a83e ff97 a4be e1d6 c7bd fa40 173d
000003a0: 7028 9cbe 024d 38bc 7397 813e b15d 80bd
000003b0: 2e2a aebd 9697 173c c5fa d43d f1f2 8e3d
000003c0: 580a 50be 82de 9d3e 5afb 60be 90a0 533e
000003d0: 6f47 2abc d633 6e3e eb05 ab3d 04a4 52be
000003e0: bf2b 283d 4c63 af3e 8bb3 b33e ee1c a73e
000003f0: dba2 663e ab57 853e a751 a3bd d212 c6bd

conv.bias f4 [64]
-0.34600684 0.33611712 0.26388362 -0.21917357 0.26022336 -0.05273035 -0.28816903 -0.13185814
-0.2698595 0.075660214 -0.30462053 0.117141955 0.046417736 0.098095 0.19469444 0.07018139
0.1512408 -0.15954442 -0.15319471 0.07341236 -0.123690344 -0.07943176 0.013211365 0.27658656
-0.28550407 -0.021215392 0.14219752 -0.31812924 -0.25595686 -0.23009785 0.19594863 -0.091988504
-0.14508209 0.18777215 0.34412456 -0.16765384 0.24303514 -0.24445179 -0.11704042 -0.20672758
0.31991646 0.19894844 0.11400787 -0.15350854 -0.17965156 0.25979766 -0.005319051 -0.19868952
-0.33992776 0.15273185 -0.27183312 -0.35316333 -0.0047188923 0.26901728 -0.1523623 0.09048625
-0.10475935 -0.17994717 -0.10558345 0.3448952 0.042837895 0.045258936 0.27853006 -0.14471006
00000000: cf27 b1be 8b17 ac3e c11b 873e 096f 60be
00000010: ff3b 853e c8fb 57bd e48a 93be d205 07be
00000020: 062b 8abe bef3 9a3d 39f7 9bbe 1fe8 ef3d
00000030: 8620 3e3d 08e6 c83d fb5d 473e 43bb 8f3d
00000040: dede 1a3e 9d5f 23be 13df 1cbe 3859 963d
00000050: 5d51 fdbd 1ead a2bd 7b74 583c c19c 8d3e
00000060: 972d 92be e7cb adbc 3a9c 113e d6e1 a2be
00000070: c70c 83be c59e 6bbe c2a6 483e 7864 bcbd
00000080: 6690 14be 5847 403e 1831 b03e 73ad 2bbe
00000090: 34de 783e 9251 7abe e3b2 efbd 65b0 53be
000000a0: 17cc a33e 24b9 4b3e f57c e93d 5831 1dbe
000000b0: 94f6 37be 3304 853e 6f4b aebb 4475 4bbe
000000c0: 030b aebe bd65 1c3e b62d 8bbe d3d1 b4be
000000d0: f0a0 9abb a2bc 893e dd04 1cbe db50 b93d
000000e0: 128c d6bd 1244 38be 233c d8bd 1b96 b03e
000000f0: ca76 2f3d 6f61 393d 7e9b 8e3e e02e 14be

model.0.weight f4 [256, 64]
-0.08476374 0.051648244 0.068118885 -0.06767087 -0.003528193 0.08058067 -0.015197242 -0.11545748
-0.08406498 0.040001735 -0.054762416 0.07173351 -0.05753247 -0.06183663 0.011629953 -0.0738299
-0.005855534 0.09548334 0.08352349 0.045438357 -0.020305026 -0.09881937 0.02153176 -0.09346238
-0.06680796 0.078374445 0.11472773 0.017467143 -0.11266398 0.100996405 -0.10233279 -0.11614473
0.0014301426 -0.09483913 -0.121978074 -0.0021380521 -0.02770281 0.09010544 -0.049536377 0.019570673
-0.042325363 0.089480065 -0.1132365 -0.029079229 0.0036427944 -0.07908651 -0.018425483 -0.010018758
0.06587696 0.05675269 -0.07142045 0.04133652 0.010409769 -0.023182098 -0.08374766 -0.0928652
-0.06189973 -0.11611681 -0.057735693 -0.05022114 0.021803359 -0.086661704 -0.020987391 -0.112380885
0.074123144 -0.12193187 0.077297054 -0.012109101 0.09966741 0.1000112 0.09209811 0.08059028
0.007863878 -0.10480326 -0.057123423 -0.057757515 -0.08504656 -0.0198768 -0.010639655 -0.11091784
0.0361472 0.09796288 0.06355631 0.105727725 -0.12471273 0.03203422 0.044869527 -0.092714794
0.05836414 -0.068330415 -0.025426038 0.0077271992 -0.122391365 -0.062183283 0.11313275 0.020776184
-0.09746514 -0.09903502 -0.054768525 -0.041224197 0.047936026 0.07765724 0.021733439 0.068971545
-0.012243295 0.044015262 0.023119548 0.035784274 -0.10597234 0.11318713 -0.0704727 0.008086783
-0.091470174 -0.06533304 -0.07439481 -0.09692899 0.12433015 0.0044171796 0.011026283 -0.09594134
0.025080284 -0.0016075508 0.021313928 0.101806045 -0.11837324 -0.03209338 0.10264847 0.04018059
0.1151571 -0.08666167 0.10175158 -0.07279798 0.056088775 -0.008842199 -0.06341963 -0.032947473
-0.020857848 0.013928609 -0.08054976 -0.10795842 -0.12063135 0.046293117 0.0072932933 -0.07491334
-0.045563497 -0.03086881 -0.1108934 -0.12550794 -0.08264292 -0.051215477 0.024511266 -0.06146849
-0.0077570057 -0.05025308 0.08600943 0.022641478 0.033707686 -0.039004717 -0.1061351 -0.009488881
-0.081712045 -0.005082722 -0.1250917 0.097294085 0.033498097 0.11649514 0.1230726 -0.061813585
-0.062239252 0.06874605 0.031135082 0.045137305 -0.0029013644 -0.04162329 0.0017690981 -0.00050856406
-0.035071447 -0.046507467 0.06483986 -0.047416087 0.017526377 0.092968024 0.0032603792 0.10893891
-0.1176244 -0.030336713 -0.00055412843 0.035733093 0.05692528 0.016450655 -0.064563766 -0.004551249
0.035418488 -0.003992467 -0.07219343 0.08671065 -0.07748675 0.074161954 0.11752785 -0.105485
-0.062180795 0.055524487 -0.04018242 -0.018263422 -0.1114822 -0.11174356 -0.021879017 0.015717532
-0.03167287 0.10454785 0.049054693 -0.00607765 0.014667115 0.005298864 -0.056923535 0.06883428
-0.12389632 0.095058374 0.0005970501 -0.00798235 -0.034882866 -0.017900176 0.03694053 0.056917787
-0.07454201 0.031256817 0.054610137 -0.078224346 0.027627671 -0.018898543 0.033042327 0.037570927
0.08058847 0.022240289 -0.06448467 -0.009710791 0.10240121 0.013621478 -0.03444543 -0.05603781
0.046998534 0.12029198 -0.008975488 0.068315625 0.014019425 0.1062188 0.014207909 0.051068086
0.11589981 -0.019395517 0.0732328 0.09497489 0.04970915 -0.0065492825 -0.08651169 -0.0039448407
00000000: 9d98 adbd 1c8d 533d ea81 8b3d 0697 8abd
00000010: 4239 67bb 7a07 a53d dafd 78bc f974 ecbd
00000020: 432a acbd dcd8 233d 8e4e 60bd 05e9 923d
00000030: 2ba7 6bbd 6848 7dbd 8f8b 3e3c 2134 97bd
00000040: c8df bfbb c58c c33d 5d0e ab3d 921d 3a3d
00000050: ba56 a6bc cf61 cabd 6063 b03c 3469 bfbd
00000060: 9dd2 88bd c882 a03d 5ff6 ea3d 4117 8f3c
00000070: 5fbc e6bd 34d7 ce3d db93 d1bd 4add edbd
00000080: 9f73 bb3a 053b c2bd a4cf f9bd 901e 0cbb
00000090: 01f1 e2bc 3389 b83d a8e6 4abd ad52 a03c
000000a0: 5c5d 2dbd 5341 b73d 8ae8 e7bd 9037 eebc
000000b0: f3bb 6e3b 1cf8 a1bd 0af1 96bc b725 24bc
000000c0: 80ea 863d 8275 683d e344 92bd 7c50 293d
000000d0: bc8d 2a3c 62e8 bdbc e583 abbd 1c30 bebd
000000e0: 928a 7dbd a6ce edbd 437c 6cbd afb4 4dbd
000000f0: f59c b23c b17b b1bd c0ed abbc f327 e6bd
00000100: e0cd 973d 6bb7 f9bd eb4d 9e3d 4065 46bc
00000110: 6d1e cc3d acd2 cc3d ef9d bc3d 840c a53d
00000120: 7fd7 003c 17a3 d6bd 40fa 69bd 2593 6cbd
00000130: e42c aebd acd4 a2bc f351 2ebc e428 e3bd
00000140: 160f 143d c3a0 c83d d029 823d c787 d83d
00000150: 6369 ffbd 5036 033d 1cc9 373d 41e1 bdbd
00000160: 3d0f 6f3d d1f0 8bbd 444a d0bc 7234 fd3b
00000170: 53a8 fabd e6b3 7ebd 25b2 e73d d132 aa3c
00000180: ce9b c7bd dfd2 cabd f654 60bd b4da 28bd
00000190: 9158 443d c20a 9f3d 530a b23c f440 8d3d
000001a0: 1a98 48bc 5949 343d 3565 bd3c 8892 123d
000001b0: 0708 d9bd a7ce e73d fe53 90bd 6d7e 043c
000001c0: b754 bbbd 54cd 85bd 4e5c 98bd b582 c6bd
000001d0: cea0 fe3d fdbd 903b 95a7 343c e57c c4bd
000001e0: 2b75 cd3c 74b4 d2ba 8c9a ae3c b07f d03d
000001f0: ab6d f2bd 5974 03bd 5c39 d23d 6794 243d
00000200: 7cd7 eb3d ac7b b1bd 2263 d03d 1b17 95bd
00000210: 58bd 653d dfde 10bc 27e2 81bd eef3 06bd
00000220: 14de aabc d234 643c 46f7 a4bd 4e19 ddbd
00000230: 920d f7bd da9d 3d3d 94fc ee3b 2a6c 99bd
00000240: caa0 3abd 96e0 fcbc 141c e3bd 2785 00be
00000250: b140 a9bd 52c7 51bd dacb c83c 62c6 7bbd
00000260: 7b2e febb 2cd6 4dbd b625 b03d 9f7a b93c
00000270: 1211 0a3d 69c3 1fbd 5c5d d9bd 4077 1bbc
00000280: a558 a7bd f68c a6bb 0a18 00be 1f42 c73d
00000290: 4d35 093d 0195 ee3d 7d0d fc3d 3e30 7dbd
000002a0: 96ee 7ebd bbca 8c3d 000f ff3c e5e1 383d
000002b0: d124 3ebb 2f7d 2abd 15e1 e73a 2851 05ba
000002c0: 14a7 0fbd 9d7e 3ebd c3ca 843d 5f37 42bd
000002d0: 7a93 8f3c 0566 be3d 16ac 553b 5d1b df3d
000002e0: 10e5 f0bd b384 f8bc ee42 11ba dd5c 123d
000002f0: 7b2a 693d 86c3 863c 023a 84bd a522 95bb
00000300: fa12 113d 3ed3 82bb 26da 93bd 5a95 b13d
00000310: 60b1 9ebd 39e2 973d 71b2 f03d 8508 d8bd
00000320: 4ab1 7ebd a56d 633d 5296 24bd 2c9d 95bc
00000330: c850 e4bd cfd9 e4bd a03b b3bc 0ec2 803c
00000340: 69bb 01bd 2f1d d63d 93ed 483d 0627 c7bb
00000350: 574e 703c 18a2 ad3b a728 69bd fdf8 8c3d
00000360: 5bbd fdbd f7ad c23d 5b83 1c3a 67c8 02bc
00000370: 56e1 0ebd 64a3 92bc f44e 173d a022 693d
00000380: 7ba9 98bd 2607 003d e1ae 5f3d 1634 a0bd
00000390: 6d53 e23c 1ed1 9abc 6457 073d f9e3 193d
000003a0: 910b a53d 4431 b63c 8a10 84bd 021a 1fbc
000003b0: bab7 d13d 9f2c 5f3c a716 0dbd e787 65bd
000003c0: 8981 403d a45b f63d ed0d 13bc 10e9 8b3d
000003d0: bbb1 653c 3e89 d93d 4ac8 683c c52c 513d
000003e0: e15c ed3d 59e3 9ebc 14fb 953d 3282 c23d
000003f0: d29b 4b3d 5d9b d6bb 0a2d b1bd b943 81bb

model.0.bias f4 [256]
0.047071595 0.0888712 -0.12419638 -0.07937529 -0.09614721 -0.06350936 0.030950157 -0.05139253
0.06603473 -0.014892432 -0.00062094204 0.06049032 -0.020053092 0.0073115374 0.07481406 -0.0010032944
-0.09194965 0.014055572 -0.011117888 0.028793776 -0.09047714 0.0065216846 0.08415493 -0.051084567
-0.047441978 0.07245126 0.07505495 0.041448914 -0.0557169 0.058067407 -0.114813186 0.0468072
0.10639744 -0.028837608 0.0816008 0.11393192 -0.05857966 -0.037322998 -0.11896422 0.02795664
-0.023194391 -0.107497945 0.056251593 -0.09274184 0.0946966 0.080260776 -0.084072016 -0.056384604
-0.053593118 0.036299188 0.009352677 0.074247755 -0.104381606 -0.122963674 -0.10781702 -0.073868595
-0.06307141 0.08690373 -0.09530898 0.008382632 0.06837868 0.10001558 -0.0029084894 -0.034248184
0.0028849791 0.05565992 0.029364824 -0.06171464 -0.094303854 0.03584537 -0.10444086 0.08102193
-0.044203732 -0.09798733 0.07116292 -0.042480487 -0.107136786 0.122151285 0.0918469 0.03617731
-0.052587647 -0.028904647 -0.051455576 0.08904517 0.07328143 0.01561366 -0.04217245 -0.11998593
-0.06125353 0.11670106 -0.10760402 -0.046055205 0.0942956 0.12146624 0.03490543 0.03587557
0.10131979 -0.023579955 -0.058723353 0.011459509 0.12271669 0.04102006 -0.021691062 0.04173008
-0.07097509 -0.06902142 0.10881594 0.0800617 0.106912255 -0.12475513 -0.0650641 -0.099925764
-0.08668117 -0.07254652 -0.10139871 0.058910962 0.05181505 -0.054698672 -0.024865678 0.108261436
-0.095683396 -0.06904888 0.051236898 0.074944355 -0.11613954 0.060306937 -0.033769015 -0.057319522
-0.095210254 0.08051176 0.046464052 -0.042402346 0.11620304 0.09646793 -0.049734287 -0.08009667
-0.10471952 -0.112983406 -0.117130734 -0.12200521 -0.1023354 -0.036776178 -0.037613954 -0.113467574
-0.12458874 0.080567144 0.010516468 0.026142642 0.122014396 0.069095396 0.112821385 0.06599379
0.085881785 -0.102190234 -0.034692734 -0.024969317 0.019627247 -0.075642206 -0.06577688 -0.1004623
-0.014435147 -0.06407645 0.09410671 0.061624847 -0.012005698 0.12051325 -0.014814763 -0.122650765
-0.044870302 -0.011803842 0.02855215 0.062131833 -0.10609202 -0.09013141 -0.11604691 -0.06501396
-0.1172039 -0.11452593 -0.09115433 0.079452075 0.076282166 -0.115935415 -0.009871466 0.007763005
0.0054441425 0.04782404 0.100501865 -0.054447506 -0.03418572 0.012532689 0.08355662 -0.113483496
-0.117326126 -0.05985752 -0.12075971 0.06906649 -0.109341376 0.035035595 0.031284187 -0.117865905
-0.04492129 -0.014155899 0.05799527 -0.059155904 -0.07062268 0.10406193 -0.03838731 -0.02733616
-0.11891025 -0.030813668 0.09092345 0.031160278 -0.055394128 0.050934546 0.06997083 -0.0008300723
0.006263568 -0.100391515 0.018044192 -0.11108235 -0.027837727 -0.061386574 0.029290887 -0.101435676
0.10361447 -0.006836883 -0.048531 -0.04443188 0.026525777 0.091527015 0.10916525 -0.010290632
0.0058491956 -0.053436417 0.027601335 0.0099480115 -0.09777376 0.079161 -0.027408328 0.09173908
0.114007756 -0.123219386 0.032267988 0.10128529 0.075413406 -0.10383256 -0.027723154 -0.07824686
-0.106977746 0.016121387 -0.03528135 0.072458856 0.004385155 0.09164708 0.04996361 -0.065107085
00000000: 25ce 403d 1b02 b63d ac5a febd 838f a2bd
00000010: d4e8 c4bd 3211 82bd 2f8b fd3c f980 52bd
00000020: 373d 873d 63ff 73bc b7c6 22ba b3c4 773d
00000030: 6246 a4bc 9f95 ef3b 1d38 993d f980 83ba
00000040: 1950 bcbd 5849 663c cd27 36bc ede0 eb3c
00000050: 144c b9bd dbb3 d53b 6c59 ac3d 0d3e 51bd
00000060: 8552 42bd 5461 943d 69b6 993d 56c6 293d
00000070: 6737 64bd 17d8 6d3d 2d23 ebbd e8b8 3f3d
00000080: e7e6 d93d d93c ecbc 521e a73d 2355 e93d
00000090: 3af1 6fbd 00e0 18bd 83a3 f3bd 5305 e53c
000000a0: 2a02 bebc e227 dcbd 1268 663d 6fef bdbd
000000b0: 4bf0 c13d c35f a43d f32d acbd 8bf3 66bd
000000c0: 7584 5bbd 75ae 143d f83b 193c 350f 983d
000000d0: 06c6 d5bd 61d4 fbbd 2bcf dcbd 6b48 97bd
000000e0: 952b 81bd 95fa b13d 5b31 c3bd 4f57 093c
000000f0: 1f0a 8c3d f8d4 cc3d 5b9c 3ebb d347 0cbd
00000100: eb11 3d3b a8fb 633d 808e f03c 7ec8 7cbd
00000110: 6122 c1bd 98d2 123d 17e5 d5bd d3ee a53d
00000120: f90e 35bd 95ad c8bd ddbd 913d 0500 2ebd
00000130: 886a dbbd 742a fa3d 3a1a bc3d a92e 143d
00000140: 2566 57bd 70c9 ecbc 15c3 52bd 505d b63d
00000150: 9314 963d 70d0 7f3c 05bd 2cbd 2fbb f5bd
00000160: fbe4 7abd f700 ef3d 7f5f dcbd 62a4 3cbd
00000170: 0d1e c13d 4bc3 f83d fff8 0e3d 43f2 123d
00000180: c080 cf3d c02a c1bc e687 70bd aac0 3b3c
00000190: e352 fb3d a704 283d 74b1 b1bc 29ed 2a3d
000001a0: 635b 91bd 1a5b 8dbd e4da de3d 63f7 a33d
000001b0: d0f4 da3d 9e7f ffbd 5440 85bd e1a5 ccbd
000001c0: e685 b1bd 4593 94bd 20aa cfbd 9f4c 713d
000001d0: 053c 543d b70b 60bd 1bb3 cbbc 2cb8 dd3d
000001e0: a8f5 c3bd 8069 8dbd c8dd 513d 6d7c 993d
000001f0: 91da edbd 6804 773d 6151 0abd e0c7 6abd
00000200: 98fd c2bd 5ae3 a43d 1751 3e3d 15ae 2dbd
00000210: dcfb ed3d fa90 c53d 2eb6 4bbd b909 a4bd
00000220: 3077 d6bd d863 e7bd 3de2 efbd dedd f9bd
00000230: 3995 d1bd 9ea2 16bd 1711 1abd b061 e8bd
00000240: 6228 ffbd 6300 a53d 444d 2c3c 1829 d63c
00000250: afe2 f93d e381 8d3d e60e e73d c127 873d
00000260: cae2 af3d 1d49 d1bd f819 0ebd 748c ccbc
00000270: 52c9 a03c 4dea 9abd 07b6 86bd 2ebf cdbd
00000280: 6581 6cbc 843a 83bd 05bb c03d 566a 7c3d
00000290: 8cb3 44bc a7cf f63d 9fb9 72bc 5330 fbbd
000002a0: ecc9 37bd e764 41bc 33e6 e93c f37d 7e3d
000002b0: c646 d9bd d196 b8bd 01aa edbd 0a26 85bd
000002c0: 9908 f0bd 928c eabd 1faf babd c5b7 a23d
000002d0: d339 9c3d 8c6f edbd eebb 21bc ce60 fe3b
000002e0: c764 b23b 24e3 433d ecd3 cd3d 5904 5fbd
000002f0: 5306 0cbd e855 4d3c bc1f ab3d 096a e8bd
00000300: ae48 f0bd 292d 75bd de50 f7bd bb72 8d3d
00000310: 5fee dfbd 7c81 0f3d d923 003d ae63 f1bd
00000320: 63ff 37bd 25ee 67bc 738c 6d3d 764d 72bd
00000330: a0a2 90bd 6c1e d53d 033c 1dbd 15f0 dfbc
00000340: 3887 f3bd f26c fcbc 1336 ba3d d743 ff3c
00000350: f4e4 62bd bea0 503d de4c 8f3d 3699 59ba
00000360: 9e3e cd3b 119a cdbd 6ad1 933c 257f e3bd
00000370: f20b e4bc 7d70 7bbd 71f3 ef3c 82bd cfbd
00000380: d333 d43d ee07 e0bb 71c8 46bd 34fe 35bd
00000390: 964c d93c 8472 bb3d 0892 df3d 0a9a 28bc
000003a0: 9caa bf3b 25e0 5abd 321c e23c fcfc 223c
000003b0: 9c3d c8bd 2a1f a23d 6e87 e0bc b3e1 bb3d
000003c0: e67c e93d 725a fcbd 702b 043d aa6e cf3d
000003d0: 5872 9a3d 2aa6 d4bd ab1b e3bc e43f a0bd
000003e0: 2617 dbbd 0011 843c 2d83 10bd 4f65 943d
000003f0: 59b1 8f3b 77b1 bb3d a4a6 4c3d dd56 85bd

model.1.weight f4 [64, 256]
0.05727805 -0.05174124 0.031823594 -0.04227295 0.04174279 -0.030810807 0.040813174 0.0008269805
-0.03312818 0.014351198 0.04587856 -0.015103389 0.031055586 0.051498957 -0.037367962 0.01631969
0.028074024 0.0002998505 -0.012536309 -0.04584532 -0.028430013 -0.0072834617 -0.0069431327 0.04682299
0.058540862 0.05957644 0.013381757 6.019608e-05 0.017942794 -0.027709309 -0.05827456 0.016451923
-0.0056588403 -0.008740378 0.005917162 -0.026571386 0.055806644 0.010322614 0.043934144 0.036103375
0.0020124232 -0.05640752 -0.012651219 -0.007765213 -0.053496033 -0.0537857 0.04109513 -0.013822481
-0.035748266 0.052602094 -0.034011163 0.051445283 0.012163756 -0.043166183 0.04915723 -0.008113602
-0.029013218 0.025103085 -0.029418943 0.048018746 -0.0655733 0.020507367 0.052592743 0.01236835
-0.008514637 0.03766598 0.018773934 0.02722478 0.010082665 0.050887473 -0.049725316 0.051186282
-0.050458327 0.036836244 0.046805907 -0.049469016 -0.060465302 -0.05338105 -0.011998508 0.013374857
0.05019901 0.018059658 0.03477234 0.0018180028 -0.044149667 -0.044805393 0.060478278 0.019537719
-0.05931938 0.016117655 -0.029385531 -0.021404767 -0.03272637 -0.0023730462 -0.003959451 -0.039795257
0.015642423 0.024546359 -0.010766347 0.013911304 -0.011553793 -0.02413641 -0.01521369 -0.03199274
0.024699263 0.002409317 0.030276217 0.045937084 0.029340003 0.05732053 0.016872425 -0.029790249
0.0050193644 0.009893697 0.005623494 -0.042528287 0.03183662 -0.0395014 0.044142507 -0.032674186
0.028718334 0.0072689564 -0.0039020625 -0.008007448 0.029690487 0.038440373 0.013846091 0.0114557035
-0.049887672 0.046669107 0.034675777 -0.01816728 0.03704581 -0.032353062 -0.059474956 -0.03421781
-0.053343963 0.042545058 -0.032337565 0.058167893 0.040257063 0.01255848 0.018162489 0.037461724
-0.016443465 0.053763013 -0.018771905 0.010476757 0.017991086 -0.048843045 0.011192376 -0.03923629
-0.029274825 0.056205247 0.027598374 -0.0036154203 0.030710196 0.0028430778 0.048755817 -0.057764895
-0.002744028 0.033412553 -0.012553087 0.059712533 -0.032298747 -0.050284896 -0.04100712 -0.051596418
-0.020707926 -0.06465004 0.014144045 -0.0012329398 -0.048780665 0.00021883559 -0.036571886 0.01012179
-0.0013012338 -0.030174388 0.03978796 0.003068005 0.035304084 0.00028229482 0.059707694 0.024571305
0.046793103 -0.021069286 0.0045113163 0.05243499 -0.034078345 0.043998044 0.04296767 -0.024070146
-0.0015766069 -0.029454026 0.06368944 -0.0071758847 -0.051918175 -0.064096645 0.034385726 -0.009897408
-0.042316485 0.048018143 -0.036358833 0.0035148244 -0.023820946 0.0042210063 0.051093813 -0.052094284
0.001168645 -0.0058090566 -0.018580163 -0.059714578 -0.011675186 -0.05398069 -0.034211643 -0.059917517
0.014421848 0.0054216716 0.04028406 -0.03427435 0.05127656 0.049717583 -0.00814943 0.044757944
-0.042216584 0.025254073 -0.014761608 0.05486906 -0.040182926 0.0014907857 0.0059831752 -0.013018076
-0.008284119 -0.061394487 0.0368935 0.005747674 0.0011363464 -0.008331812 0.055704813 -0.031816848
-0.012875906 -0.03705529 0.025357896 0.02175317 0.035027 -0.057083055 -0.0062614814 -0.036621574
-0.043668248 -0.05346097 0.027024671 0.028292963 -0.026385905 -0.017365055 -0.025098322 0.047320392
00000000: 639c 6a3d 9fee 53bd 7559 023d 6726 2dbd
00000010: 7dfa 2a3d f266 fcbc b72b 273d b9c9 583a
00000020: 6ab1 07bd 4a21 6b3c 28eb 3b3d 3474 77bc
00000030: 4968 fe3c 92f0 523d 260f 19bd dfb0 853c
00000040: 7ffb e53c 4135 9d39 1765 4dbc 4dc8 3bbd
00000050: 0fe6 e8bc 1baa eebb 3883 e3bb 77c9 3f3d
00000060: 8bc8 6f3d 6d06 743d 283f 5b3c 0c7b 7c38
00000070: c4fc 923c a2fe e2bc 4eb1 6ebd 2fc6 863c
00000080: cb6d b9bb cd33 0fbc c1e4 c13b 3cac d9bc
00000090: 8295 643d 2e20 293c 4af4 333d 22e1 133d
000000a0: dce2 033b 920b 67bd 0f47 4fbc 5473 febb
000000b0: a81e 5bbd 654e 5cbd 5e53 283d b077 62bc
000000c0: c66c 12bd 4b75 573d 4a4f 0bbd 4ab8 523d
000000d0: 7e4a 473c 06cf 30bd 1759 493d eaee 04bc
000000e0: 21ad edbc fca4 cd3c ffff f0bc 4eaf 443d
000000f0: 4b4b 86bd 11ff a73c 7d6b 573d 9fa4 4a3c
00000100: fa80 0bbc a547 1a3d cbcb 993c 8006 df3c
00000110: c331 253c 626f 503d c6ac 4bbd b5a8 513d
00000120: 64ad 4ebd 9ae1 163d 8db7 3f3d 06a0 4abd
00000130: 77aa 77bd 16a6 5abd 6495 44bc 3722 5b3c
00000140: 7a9d 4d3d d9f1 933c 716d 0e3d 0d4a ee3a
00000150: 48d6 34bd dc85 37bd 12b8 773d 910d a03c
00000160: e1f8 72bd 2c09 843c edb9 f0bc 0d59 afbc
00000170: 160c 06bd 1c85 1bbb 48be 81bb 5a00 23bd
00000180: 8a24 803c 7215 c93c 5565 30bc 3dec 633c
00000190: 1f4c 3dbc b8b9 c5bc d742 79bc d20a 03bd
000001a0: 1c56 ca3c a2e5 1d3b d405 f83c 8628 3c3d
000001b0: 725a f03c efc8 6a3d 0a38 8a3c ae0a f4bc
000001c0: 7b79 a43b 2c19 223c 4945 b83b 2432 2ebd
000001d0: 1e67 023d 38cc 21bd c6ce 343d 5ed5 05bd
000001e0: b642 eb3c 6d30 ee3b bfb9 7fbb ac31 03bc
000001f0: 7739 f33c a773 1d3d b7da 623c b4b0 3b3c
00000200: 0457 4cbd 1b28 3f3d 3008 0e3d 8cd3 94bc
00000210: 59bd 173d a584 04bd 039c 73bd f927 0cbd
00000220: 337f 5abd ba43 2e3d 6574 04bd 7541 6e3d
00000230: 97e4 243d 15c2 4d3c 80c9 943c 7771 193d
00000240: 72b4 86bc 9b36 5c3d 8ac7 99bc b4a6 2b3c
00000250: 0b62 933c a50f 48bd 3a60 373c 3bb6 20bd
00000260: c2d1 efbc 7937 663d fc15 e23c b0f0 6cbb
00000270: f393 fb3c ee52 3a3b 2eb4 473d e29a 6cbd
00000280: 27d5 33bb 9adb 083d 77ab 4dbc 2195 743d
00000290: b14b 04bd 89f7 4dbd 15f7 27bd c456 53bd
000002a0: aba3 a9bc 3d67 84bd 6dbc 673c 989a a1ba
000002b0: 3cce 47bd 3b77 6539 67cc 15bd ddd5 253c
000002c0: 298e aaba 4730 f7bc b3f8 223d 9510 493b
000002d0: 049b 103d f800 9439 0e90 743d c349 c93c
000002e0: 20aa 3f3d 7f99 acbc aad3 933b 12c6 563d
000002f0: bc95 0bbd 4b37 343d defe 2f3d c12e c5bc
00000300: 26a6 ceba 9249 f1bc 9c6f 823d af23 ebbb
00000310: 27a8 54bd 1a45 83bd 0cd8 0c3d bd28 22bc
00000320: 0d54 2dbd acae 443d 00ed 14bd f858 663b
00000330: 2524 c3bc 5e50 8a3b bf47 513d d160 55bd
00000340: 382d 993a e659 bebb 6d35 98bc 4697 74bd
00000350: 4849 3fbc db1a 5dbd 8221 0cbd 126c 75bd
00000360: 9d49 6c3c 47a8 b13b e600 253d 4363 0cbd
00000370: 5f07 523d aaa4 4b3d 3085 05bc 1b54 373d
00000380: 4ceb 2cbd a1e1 ce3c acda 71bc 61be 603d
00000390: da96 24bd 7866 c33a 830e c43b c549 55bc
000003a0: 1dba 07bc c978 7bbd a31d 173d fc56 bc3b
000003b0: 75f1 943a 2782 08bc bb2a 643d 6252 02bd
000003c0: 77f5 52bc 4ac7 17bd 5dbb cf3c b433 b23c
000003d0: 7978 0f3d eccf 69bd 1d2d cdbb 8100 16bd
000003e0: 7add 32bd e4f9 5abd d862 dd3c a5c6 e73c
000003f0: 4127 d8bc 2941 8ebc ff9a cdbc 07d3 413d

model.1.bias f4 [64]
0.013868569 -0.04056982 0.057997238 0.058545373 -0.011844935 -0.018128205 0.0027862706 -0.02615146
0.03215449 0.05040156 0.020365344 0.011856636 -0.042241856 -0.0056654923 -0.0033233932 0.058019854
0.043993704 0.041865416 0.03181678 0.0132553 -0.019600341 -0.039482754 -0.026335271 0.02219816
0.009051438 0.03754075 0.015419161 -0.05712787 -0.00808237 -0.0025792164 5.3153384e-05 0.022952553
0.003499392 0.00823916 -0.03881948 0.002981088 -0.038033843 0.001103804 0.06234667 -0.010391184
0.046174385 -0.05139832 0.03670889 -0.05591194 -0.006382311 -0.017415583 0.024889579 -0.014568599
-0.04390624 0.05613274 0.04080989 -0.04323435 0.042538717 -0.016525935 -0.03966406 -0.017553724
-0.03113579 -0.03092458 -0.04077572 0.041038115 0.014679358 0.05392051 -0.054644793 -0.004483401
00000000: ff38 633c 8a2c 26bd 838e 6d3d 46cd 6f3d
00000010: 4211 42bc 9a81 94bc dd99 363b 963b d6bc
00000020: 6db4 033d de71 4e3d 39d5 a63c 5642 423c
00000030: cc05 2dbd 98a5 b9bb 49cd 59bb 3aa6 6d3d
00000040: be32 343d 127b 2b3d 5052 023d c22c 593c
00000050: e590 a0bc abb8 21bd 11bd d7bc ead8 b53c
00000060: 7c4c 143c 54c4 193d a6a0 7c3c eafe 69bd
00000070: eb6b 04bc 1208 29bb 03f1 5e38 fe06 bc3c
00000080: 0e56 653b 8bfd 063c 2d01 1fbd 5b5e 433b
00000090: 60c9 1bbd 84ad 903a 395f 7f3d c93f 2abc
000000a0: 5a21 3d3d 0b87 52bd 105c 163d eb03 65bd
000000b0: b522 d1bb 20ab 8ebc 3be5 cb3c 22b1 6ebc
000000c0: 08d7 33bd 72eb 653d 4528 273d 8016 31bd
000000d0: 143d 2e3d 6661 87bc c876 22bd d4cc 8fbc
000000e0: 7c10 ffbc 8b55 fdbc 7104 27bd 9517 283d
000000f0: b181 703c c1db 5c3d 38d3 5fbd 7ee9 92bb

model.2.weight f4 [1, 64]
-0.0792639 -0.0024118042 -0.0959739 0.051495876 0.13699315 -0.10119808 -0.057860322 -0.024392912
-0.111630775 0.08219585 -0.012402727 -0.06428361 -0.12325638 -0.13060796 0.012635915 -0.009142055
0.13944323 -0.06992168 0.06559749 -0.011856355 -0.11523394 -0.03006693 -0.101572864 -0.04900209
0.088644095 -0.025678908 -0.013856627 0.0643183 0.084306665 -0.08796398 0.11276113 -0.08812383
-0.08601375 0.16553135 -0.01755057 -0.09790377 0.10283591 0.007886933 -0.071497455 0.075419
-0.10686833 0.035429683 0.00072254584 -0.13077521 0.07868796 0.057095654 -0.079893485 -0.06849831
0.0638966 -0.06596874 0.006760903 0.094978675 -0.096479096 -0.1330997 0.05761591 -0.037124224
0.045655575 -0.10885823 -0.04385239 -0.024467012 -0.09928805 0.061231967 -0.123182654 -0.048174623
00000000: 1d55 a2bd 5c0f 1ebb f78d c4bd 57ed 523d
00000010: ef47 0c3e f040 cfbd f2fe 6cbd a5d3 c7bc
00000020: ad9e e4bd 4c56 a83d cf34 4bbc 20a7 83bd
00000030: d76d fcbd 18be 05be de06 4f3c 8fc8 15bc
00000040: 35ca 0e3e 1933 8fbd fa57 863d 2841 42bc
00000050: c6ff ebbd ec4e f6bc 6f05 d0bd 6ab6 48bd
00000060: 098b b53d 935c d2bc e806 63bc 50b9 833d
00000070: f9a8 ac3d 7626 b4bd 4fef e63d 447a b4bd
00000080: fa27 b0bd 0d81 293e 37c6 8fbc c681 c8bd
00000090: a29b d23d 3238 013c 426d 92bd 4775 9a3d
000000a0: c8dd dabd b71e 113d 3b69 3d3a f0e9 05be
000000b0: 2727 a13d 22dd 693d 329f a3bd d848 8cbd
000000c0: 38dc 823d 9e1a 87bd 918a dd3b 2e84 c23d
000000d0: d596 c5bd 4a4b 08be a9fe 6b3d 920f 18bd
000000e0: 5701 3b3d 10f1 debd 909e 33bd 0b6f c8bc
000000f0: 8857 cbbd 5fce 7a3d 3047 fcbd c152 45bd
