ml/models/TP53_8_8 Model_3.pt (torch, 137231 bytes, 7 tensors)

conv.weight f4 [64, 1, 8]
00000000: e7df 81be 8041 683e 37ca 55be 5eed ff3d
00000010: 8a4f 0abe be10 ac3e 0eef 963e b25f 56be
00000020: d554 b4be 01e9 823e e287 a1be 77b3 8e3e
00000030: 4350 08bd 2937 553d adca 35be c349 37be
00000040: dc23 e0bd f469 a03e 6611 16be 8d30 23be
00000050: 18c3 ebbd 0826 2abd 69df 9d3e 7d63 adbe
00000060: 6746 8bbe df37 e4bc 8af4 e5bd 6b9b e6bd
00000070: 6185 843e b21a 993e 31d6 a2be cee7 f7bd
00000080: 9c3c f9bc 0838 a73e 32d3 a3be 67b2 f0bc
00000090: b5d2 5abe 84c8 893d ea9c b33e 87c2 b23e
000000a0: bc99 86be 3c33 f33d eda3 fdbd 1d3b f83d
000000b0: 7c24 b33e 3a4d 40bd 027a 70be e4e1 aa3d
000000c0: 35be a63d 07a0 793e 736d 24bd 322f 953e
000000d0: c8c5 aabe cb2a a23d ea81 f43d 26b6 87be
000000e0: 7cdb 9abe b4ac 313e 7a3f 96be 8be5 be3c
000000f0: 3d3e 033e 84a0 1dbe 9029 dbbd 77a9 803e
00000100: 7762 86be 9048 3ebe 34ed 54be cc81 a0bd
00000110: 67e8 0d3e 308e 613e 0e3f 3fbd 6397 853e
00000120: c0d5 6bbe 1661 b83d 0870 913e 6065 59bd
00000130: 6b12 dd3d bfa5 ffbd 1054 563d e13f 51be
00000140: 43ba 8abe bdaf 46be 3ce8 903d 68d0 9dbe
00000150: cfb1 5cbe 1dec 36be 6a7f 863e f365 12bd
00000160: f5f1 10bc fcd8 a7be 637b 9cbe 6f01 e4bd
00000170: 4f35 b43c f153 a5be 5a57 703c a559 55be
00000180: a9f2 68bc a82a 9e3e 269a 5cbe b475 03bc
00000190: a548 423e 8a1c d23d 4fde a33e 5bdd aebe
000001a0: 8d05 c63d 9096 ab3c b7af a93d 390c 0cbe
000001b0: 303f 6d3d f82c fa3d 005e 24be b02f 8b3d
000001c0: 3e92 603e b0f3 5d3e ebf4 083e b316 0c3e
000001d0: 63cd 32be 199b 273c bdf1 a73e 6a41 663e
000001e0: bcb2 513e 28bb 113e 2110 a53e 040e 843e
000001f0: fd14 2ebe 8e17 033e 65be b33d c468 2cbe
00000200: 029d 78bd 4fe6 a83e 5407 d1bc 1878 a93e
00000210: b2da 5b3e 915e 2ebd 0733 29be 5f21 0b3e
00000220: ba42 5bbd 05af 043e f196 04be 9041 9e3e
00000230: 97e5 adbd 0330 763e 4a13 13be ad12 89be
00000240: 3d49 01bd d4aa adbd e294 6b3d fa85 41be
00000250: 9a0c 8e3d 762c 393e 8c1a b73d 015a ccbd
00000260: 8bcc 50bd c234 a3be fdea a9be b0af 8b3e
00000270: a997 783e 9f04 953e efb3 9ebe aab0 6abe
00000280: 4fda 4fbe 098f 8a3e 169b ac3e eba7 183e
00000290: b02b a4be a1a5 373d f7e4 7f3e 7c52 533e
000002a0: 3d16 01bd 4f07 953e ccfd 913e 119c f8bd
000002b0: ab9a 0a3e 233b 8fbe d9a7 87bd 4745 ac3d
000002c0: 8429 a5be 2df9 a2bd 50f1 a4be 0461 0dbe
000002d0: 6895 253e 78ae 0d3e a1c9 10be 2ae1 ff3d
000002e0: 4fde 183e 65e5 193e 421f a1be ba70 2f3e
000002f0: 8aed 763e f64f 803c 1c93 90be f61c 473e
00000300: 6439 51bb d133 7dbe c4c1 adbe 3e6a 953e
00000310: 9e0d 613e 8724 0a3d 4fbb 883e 6b1f 2e3e
00000320: 660c afbe 2b3e 93be 712f a0bd 59c0 69be
00000330: 9ae9 f63d 0d4b 9a3d 1d8f 24be f9cc 803e
00000340: b83f cebd 49aa af3e d823 053d 0c91 85be
00000350: dfd7 b03e f3d7 a3bd 06b8 153e 2c19 6b3e
00000360: e39f 6e3e 7e15 32be ea6d b0be 64e6 933b
00000370: 33b7 08be 4438 f0bd 959e a4be 3d18 213e
00000380: c168 4ebe d532 b1bd f7b5 0bbe ee33 93be
00000390: 046e c7bd 4bc7 f53d 9046 6b3e b589 05be
000003a0: 1cff 9dbe fc96 58be 8e7f 9c3e f8bd 083e
000003b0: 7caf 673e fda5 513e 679b c9bc b513 73be
000003c0: b1fc ec3d 60d5 13be 666f cdbd 9998 213e
000003d0: e725 89be de9b a13e 7260 52be 570f 883e
000003e0: 9b31 9dbe 2cf5 bb3d 8bcc 00be 8615 843d
000003f0: f420 14be fd5d 5fbe c816 e83c 8803 a5be
-0.25366136 0.22681236 -0.2087792 0.12496446 -0.13506904 0.33606523 0.2947926 -0.20934942
-0.35220972 0.25568393 -0.31548983 0.27871296 -0.03327967 0.052054558 -0.17753096 -0.17899232
-0.1094434 0.31330836 -0.14655074 -0.1593649 -0.115118206 -0.041540176 0.3083451 -0.33864966
-0.2720215 -0.027858673 -0.11228283 -0.112601124 0.2588301 0.2990318 -0.3180404 -0.1210476
-0.030424409 0.32659936 -0.31997067 -0.029381944 -0.21369441 0.067276984 0.35080653 0.34914038
-0.26289165 0.118750066 -0.12384782 0.1212065 0.34988773 -0.04694865 -0.23484042 0.083438665
0.08141748 0.24377452 -0.04014344 0.2913757 -0.3335402 0.07918318 0.11938842 -0.26506156
-0.30245578 0.17351037 -0.29345304 0.023302814 0.12816711 -0.15393263 -0.10701287 0.2512929
-0.26246998 -0.18582368 -0.20793611 -0.07837257 0.13858186 0.22026896 -0.046690993 0.2609206
-0.23030758 0.09002893 0.28405786 -0.053075194 0.107945286 -0.124827854 0.052326262 -0.20434524
-0.2709523 -0.19402976 0.07075545 -0.30823064 -0.21552204 -0.17863508 0.26269084 -0.035741758
-0.00884675 -0.32782733 -0.30562887 -0.11133086 0.021998076 -0.32290605 0.014669264 -0.20834978
-0.014218011 0.3089192 -0.21543178 -0.008023668 0.18973024 0.1025935 0.32005545 -0.34153256
0.096690275 0.020945817 0.08285468 -0.13676538 0.05792159 0.12215608 -0.16051483 0.06796205
0.21930787 0.2167499 0.13374679 0.13680534 -0.17461161 0.010229849 0.3280162 0.22485891
0.20478338 0.1423155 0.32238868 0.25791943 -0.17000194 0.12801954 0.08776549 -0.1683684
-0.06069661 0.32988212 -0.02551619 0.33099437 0.21470144 -0.042570654 -0.16523372 0.13586949
-0.053530432 0.1295739 -0.12948205 0.30909395 -0.084910564 0.24041753 -0.14362827 -0.2677206
-0.031563986 -0.084798485 0.057515033 -0.18898764 0.06935997 0.18083367 0.0894061 -0.099781044
-0.050976317 -0.3187619 -0.33187094 0.27282476 0.24276604 0.29105088 -0.30996653 -0.22918954
-0.20298122 0.27062252 0.3371207 0.14907806 -0.3206458 0.04483569 0.24989687 0.20636934
-0.03151535 0.2910714 0.28513944 -0.12139142 0.13535564 -0.27974805 -0.06623811 0.08411651
-0.32258236 -0.07957683 -0.32215357 -0.1380654 0.16170275 0.13836086 -0.14139415 0.124941185
0.14928554 0.15028913 -0.3146916 0.17132846 0.24114051 0.015663128 -0.28237236 0.19444641
-0.0031925077 -0.24726798 -0.33936894 0.2918262 0.21977851 0.03372624 0.26705405 0.17004173
-0.34189147 -0.28758368 -0.07821549 -0.22827281 0.12056275 0.07533846 -0.16070218 0.25156382
-0.10070747 0.34309605 0.032504886 -0.26087224 0.34539697 -0.080001734 0.1462098 0.22958821
0.2330318 -0.17391011 -0.34458858 0.0045135487 -0.13351135 -0.11729482 -0.32152238 0.15731902
-0.20157148 -0.086522736 -0.13643633 -0.28750557 -0.09737781 0.12000903 0.22976136 -0.13040812
-0.30858696 -0.21151346 0.30566067 0.13353717 0.22625536 0.20473476 -0.024610234 -0.23737986
0.115716346 -0.14436865 -0.10031013 0.15780868 -0.2678673 0.3156423 -0.20544603 0.26574203
-0.30701908 0.09177622 -0.12578027 0.06449418 -0.14465696 -0.21813197 0.028331175 -0.32229257

conv.bias f4 [64]
00000000: 7553 aabe d194 9bbe 3aa8 f6bd 15bb 5c3e
00000010: 4f21 a13e d4ef a03e 496c 22be a9af 173c
00000020: 37bf 5e3e 060c 8bbe ab8c 1bbe 3490 453d
00000030: 1150 78be 7db6 a8be b87a d03c 9275 83be
00000040: fd05 3ebd cedd 90be 6cdb 8dbe 1143 a33e
00000050: 1657 abbe eba5 b3be a72b 883e 7627 593e
00000060: 676f 9b3e e87d bdbd 3d4a a1be 37cb 90be
00000070: 0d23 4fbe 0caa 193e 7810 bbbc 4e4b 00be
00000080: 3e66 b83d ae6e 7ebe 4a0d bdbd d89d 8d3e
00000090: 4243 85be 259c ecbd db82 52bc 9d3f ae3e
000000a0: 1578 223e da09 5ebe d60a 6bbe 8139 b1be
000000b0: 6cd6 6d3d b4d1 5abe fc35 18bd 43de b5bd
000000c0: cd3f 943d e649 9e3e ba80 26be d7b1 b1be
000000d0: ff20 cc3d fe34 573e fc8e 98be 835e 9b3e
000000e0: 34e5 b5be 9677 d63d 8dde 33be 2e2d 6ebd
000000f0: 9167 a4be 2332 91be 4307 483e a152 523c
-0.33266798 -0.30386975 -0.120438054 0.21555741 0.31470725 0.31432974 -0.1586162 0.009258189
0.2175263 -0.2715761 -0.1519038 0.048233226 -0.24249293 -0.32951728 0.025449142 -0.25675637
-0.04639243 -0.28294224 -0.27706468 0.31887105 -0.3346488 -0.35087523 0.26595804 0.2120646
0.3035843 -0.0925253 -0.31501952 -0.2828004 -0.20228215 0.15006274 -0.022835001 -0.12528726
0.09003876 -0.24846908 -0.0923105 0.27659488 -0.26027876 -0.1155322 -0.012848581 0.34032908
0.1586612 -0.21683446 -0.22953352 -0.34614184 0.058065817 -0.21369058 -0.03716086 -0.08880284
0.072387315 0.30915755 -0.16260043 -0.34705994 0.09967231 0.21016309 -0.29796588 0.30345544
-0.3552643 0.10472028 -0.17565365 -0.058148555 -0.32110265 -0.28358564 0.1953402 0.012837083

model.0.weight f4 [256, 64]
00000000: c557 adbd 416f e03c 6ca7 71bb 8d21 6a3d
00000010: 4531 b4bd 1d07 903d 1c3f e83d 84ad 1ebd
00000020: 4091 6d3d f38e e2bd 05c1 b3bd 00e8 0e3d
00000030: 6814 693d 297e d33c a234 ed3d 2958 abbd
00000040: 50fc c3bc e565 f3bd ab93 333d 37db adbd
00000050: c85a 993d a841 2e3d c70f af3d 2f55 e53d
00000060: 9d24 513d 4251 6fbc bfc3 a5bd fbea 9dbd
00000070: c351 463d 890c b83d 4913 e9bd 4e6f 8bbd
00000080: 23c3 4cbd 2e7d fcbd 0536 5cbd 448f a03c
00000090: a7d7 fa3d cce2 893d 927e a1bd 9ca5 513d
000000a0: 2db4 e63d c7e7 bc3d a760 95bc ea8a 833d
000000b0: 3574 eb3d 521a 85bd 12a2 5b3b d996 213d
000000c0: 1e34 8a3d 5f9b 26bd 19a7 0ebd 5fea 69bd
000000d0: e694 793d 3bd0 9dbc 480d 963c 6517 e2bc
000000e0: 5b2a b73d 1fd0 f23d e83a 573c a1d9 063c
000000f0: 290b b33d 9c43 36bd 179b 943d 3fe4 66bc
00000100: 05b9 9bbd 00b1 d5bd 2471 d2bd 7c32 a4bc
00000110: f1d9 febd 70ed 823d fea1 a1bd 2f7b 10bd
00000120: d7af b33d 0f44 fabd 52f4 8a3a 59d8 54bc
00000130: 6df8 49bd 6fee bebd f2af 61bd 07d0 cebc
00000140: c83c fbbd 91d3 003c fbf0 f33d e35d f63d
00000150: e096 14bd 8f72 a4bc 9f10 a5bc 978b a8bd
00000160: 2cf5 1e3d 7cdc 85bd fac4 a83d 869b 02bd
00000170: 4cac 23bd fd42 cfbd 4ed7 d2bd a5ed f4bd
00000180: 2a44 2f3d 45be b53d 8182 c1bc 0f3b 473d
00000190: 9056 bebd d16a 4b3d 6802 ef3d cace 193d
000001a0: 2eba 97bb 880d e33d 7d44 f3bd 3d7b 383c
000001b0: fd77 1c3d 4648 f7bd cce0 9a3d 6f0c 393d
000001c0: 598b e4bd f680 43bb 8a61 96bc 55bd bc3d
000001d0: bc8f 48bd b7e9 12bd 53d7 efbd 74bc e5b9
000001e0: 9beb abbd b3e9 93bd adbd ce3d 31c7 bd3d
000001f0: 6e42 dcbb d83f b23d f498 e23d fd9e 9dbd
00000200: 74ac fbbc facb 633d 53dd fc3d 2dc6 c2bd
00000210: f950 9b3d d2e3 973d 19d9 243d d032 bebd
00000220: d964 ef3b f816 c7bd 09ca 733d 8b00 a73d
00000230: 040e a13c 1c24 dfbd 4836 c0bd 5bdd d6bc
00000240: 44c2 cb3d 09bd 9ebd 9ae4 cfbd f2d0 b53d
00000250: 3b46 d13d d3c5 e5bd fd75 9b3d 1e2d 7c3c
00000260: d500 6d3d d747 143d 21f4 fe3d d908 43ba
00000270: c9c5 b5bd ab9a e3bd aa99 743d fd4f d33d
00000280: ef4b ba3d 5037 32bd badb f63d b1e6 dabd
00000290: 30b9 cdbd 036f b5bd f3ae 1dbd 0901 0c3d
000002a0: f9a1 99bc c5e1 58bc cff5 66bd 1213 cd3d
000002b0: 3698 9bbb 7895 bebd b8ca c4bd f054 4b3b
000002c0: 4a61 f2bc 1ae3 f5bd 4c99 183c 74cc ff3d
000002d0: 19ee b63d 0838 1e3d 72e3 6b3b 481b 32bd
000002e0: 44f3 9f3d 33d1 f83d f9cd 88bc 2442 2bbd
000002f0: 0fa6 cbbd 1f9f f13d 2718 c13d 30bc 41bd
00000300: ed45 a03d 40c2 11bd 9ee9 6c3d 9ae8 ef3d
00000310: d7ca dd3d 9103 d6bd dcfb 35bd e014 403d
00000320: 4fbe cd3d 6881 333d 107f 32bd f2ef 16bb
00000330: 9b80 e6bd 0daa f7bd ea3a 02be c8a7 90bd
00000340: 0b4a 9b3b 311f 8539 b165 b63d 3f6f 023d
00000350: 8883 bbbd faf9 fabd faa2 7c3c df95 f03c
00000360: 7443 77ba 76eb 90bd 9022 9dbd 2ac2 bc3d
00000370: aae6 d7bd dd84 723d 6f1b 65bd ebb5 fe3d
00000380: d66c 143d d218 76bd 730f 513d 50da c13d
00000390: 724d 84bd e2cf 51bd fd0b 9ebd 7b72 363b
000003a0: c6bf c9bd 44f1 a2bd a431 8ebd 1f93 b43d
000003b0: e506 e63d 02fa 963b 467d ecbd 9e7b 7cbd
000003c0: ae2d acbd 944e d4bd a91b 6a3d a96d f0bd
000003d0: 7581 6dbd 251c a3bd 30bc fa3d 51f2 03bd
000003e0: cfc7 5bbd e3b2 453d 2230 3ebd 0629 f23d
000003f0: a143 7cbd 62e7 d63c cca7 433d a9ee 8cbd
-0.08464006 0.0273968 -0.0036873473 0.057160903 -0.0879846 0.07032607 0.11340162 -0.038739696
0.05799985 -0.11062422 -0.0877705 0.03488922 0.056904227 0.025816994 0.115823045 -0.083664246
-0.023924023 -0.11884669 0.043842 -0.084890775 0.07488018 0.042543083 0.08547931 0.11197888
0.051060308 -0.014606776 -0.08093976 -0.077108346 0.048417818 0.08986766 -0.113806315 -0.06808339
-0.049990784 -0.12328564 -0.053762455 0.019599564 0.12248164 0.06732711 -0.078854695 0.051183328
0.112648346 0.092238955 -0.018234564 0.0642298 0.11496774 -0.06499161 0.003351335 0.0394505
0.06748222 -0.040675517 -0.034827325 -0.05710828 0.060933016 -0.019264331 0.01831688 -0.027599046
0.089436255 0.11856102 0.013136603 0.008230598 0.08742363 -0.04449807 0.072561435 -0.014092504
-0.07603649 -0.10434151 -0.10275486 -0.020043604 -0.12443913 0.06392944 -0.07892226 -0.035273727
0.08773773 -0.122200124 0.0010601378 -0.012991034 -0.049309183 -0.09322821 -0.055099435 -0.02524568
-0.122674525 0.007862941 0.11911198 0.12029626 -0.036276698 -0.020074157 -0.020149527 -0.0822975
0.038808033 -0.06536195 0.08240695 -0.0318866 -0.039959237 -0.10120199 -0.10294972 -0.119593896
0.042789616 0.08874182 -0.0236218 0.048640307 -0.09293854 0.049662415 0.11670381 0.037550725
-0.0046303486 0.11086565 -0.118782975 0.011259851 0.038200367 -0.12074332 0.07562408 0.045177873
-0.11159391 -0.0029831505 -0.018357057 0.092158 -0.0489652 -0.03586742 -0.11710992 -0.00043818692
-0.083945476 -0.07222309 0.100947715 0.09266508 -0.006721786 0.087035835 0.1106433 -0.0769634
-0.03072188 0.05561445 0.12346902 -0.09510455 0.07583804 0.074165 0.040246103 -0.092870355
0.007305723 -0.09721178 0.059518848 0.081544004 0.019660003 -0.10895559 -0.09385353 -0.026228597
0.099491626 -0.07750899 -0.10151024 0.08877744 0.102184735 -0.112193726 0.07590864 0.015391616
0.05786212 0.036201324 0.12448908 -0.0007439978 -0.08875615 -0.11113485 0.059716858 0.10317991
0.090965144 -0.04350978 0.12053628 -0.10688532 -0.10045087 -0.088590644 -0.038496923 0.034180675
-0.018753992 -0.013237421 -0.056386765 0.10013403 -0.0047483696 -0.09305853 -0.09608978 0.0031025968
-0.029587407 -0.12006207 0.009313893 0.12490168 0.08932132 0.038627654 0.0035993722 -0.04348305
0.07810071 0.121492766 -0.016699778 -0.041811123 -0.099437825 0.11797928 0.09428435 -0.04729861
0.07825837 -0.03558564 0.057839982 0.11714287 0.10829704 -0.10449899 -0.044429645 0.046894908
0.10046064 0.043824583 -0.043578207 -0.0023031202 -0.11254998 -0.120929815 -0.12717786 -0.07063252
0.004739051 0.00025390976 0.08906115 0.031844374 -0.09155947 -0.122547105 0.015419716 0.02936834
-0.00094323535 -0.070761606 -0.07672608 0.09216721 -0.105420426 0.05920874 -0.055934366 0.12437042
0.036236607 -0.060082264 0.051040124 0.09465468 -0.06460084 -0.051223643 -0.0771713 0.0027839232
-0.09851031 -0.07956174 -0.06943062 0.088171236 0.11231784 0.00460744 -0.115473315 -0.061641328
-0.0840715 -0.1036655 0.057155285 -0.11739666 -0.057984788 -0.079643525 0.12242925 -0.032213513
-0.05365735 0.048266303 -0.04643262 0.11824231 -0.061587933 0.026233379 0.047767445 -0.06881458

model.0.bias f4 [256]
00000000: 80e9 733d c764 f43d 5ccf f43c 75cb 90bd
00000010: 3874 b4bd ea5c c4bd 05ad e6bd 6229 883b
00000020: 9b0f a63d 50de dfbd 7572 853b e9b6 f13d
00000030: f462 3dbc dcab 87bd 0148 07bd 6f26 44bd
00000040: db3d a7bd e98e 4e3d 4c21 a03d 92e5 e53d
00000050: 7ee8 1bbd 81ac 8ebd c7ef 8d3d 8e91 27bd
00000060: 4907 323c 50a6 08bd fd14 9bbd cb62 2b3d
00000070: ec3c f93d 36f0 d23d 424e 98bd be93 e13c
00000080: aa95 b1bc 63b5 9abc 9647 8f3d ee49 54bd
00000090: 57be 6d3d b8e7 fc3d 1009 9c3c 3840 b63d
000000a0: 548a 463c d3e7 acbd 753e 88bd 8f9d 16bd
000000b0: 82fd cd3d 7523 47bd e5ed 5bbb 134d 1dbd
000000c0: f847 f73d 2b98 8b3d 3969 2bbd 6935 63bd
000000d0: 9152 10bd 09d9 fdbd 9d97 6b3d eb97 a03d
000000e0: e9b2 5e3d 01fd 623d 88f1 56bc fec3 f23d
000000f0: da16 a3bd bb99 f73b 1924 a5bd 39bb 97bd
00000100: 9d23 99bd 96d4 d0bd 03a9 aebc b2f9 6e3d
00000110: be45 963d 60a4 25bc 2b4c a13d 9a1d b6bd
00000120: a3b7 c6bd c1ee a2bd a6dd dc3d 34c2 cbbd
00000130: 5e65 0cbc b559 483d 52a2 d4bc f2ea ce3c
00000140: b8b3 843d a1d5 04bd 742d d5bd e37e dabb
00000150: 5654 bc3d c194 3dbd 1183 ef3c 8836 fdbd
00000160: 7dfa 033d 51b8 453d 7258 e9bb 359d 5c3d
00000170: e992 e4bd 6335 a23d edd1 c63c 8f8a 5abc
00000180: cd90 e13d fac2 e63d ed69 fa3d ee12 6a3d
00000190: 471f ae3d 29b8 d93d 06dc 283b 9a9f 3abd
000001a0: a1de 203c 063b 373d 986e 78bd 7691 97bd
000001b0: a1df e5bd ac07 973d 0c40 ee3a 88b7 543d
000001c0: ed5b 75bd 7875 41bd 7087 90bd 3491 98bb
000001d0: 23fc f8bd a80c adbd 146a 703d c326 de3d
000001e0: 12c7 42bd 9f95 12bc 1ff6 703d 430a ed3c
000001f0: c146 27bd 77f3 d2bd b3fa 7ebd ae04 a4bd
00000200: c8fc a3bd 6e0e cfbc 22ef 88ba ed69 1cbd
00000210: 7af8 b8bc f384 48bd 990a f7bc 8942 c23d
00000220: fe70 703d b434 8cbd ea50 a93d b36f 53bc
00000230: a92f d2bd ccec 743c e989 ca3d c8db cfbd
00000240: 9675 273d 9f00 ba3d f295 babd 25e0 d2bc
00000250: fecb fb3d 4351 e0bd 3758 b33d 2b30 a4bd
00000260: 5a72 3c3d f18d ddbd 9041 133d 7aa9 0c3c
00000270: 137a dabd fa18 a9bd b458 f1bd 1511 3abd
00000280: dfd7 adbd 4b01 e93c 579e cb3d 9549 b33c
00000290: 60c8 4bbd ef4e f73d adb9 ccbd 7427 c1bc
000002a0: 5be7 ba3d c6d7 72bd 914d 23bd e91d b0bd
000002b0: 0632 73bc 3177 d93d dee2 f0bc d9f6 c9bd
000002c0: cab7 983d 14a1 953d 2ac7 ff3c 500d a7bd
000002d0: 8d0b 03bc ab7f 93bd e6e7 8bbd e821 29bd
000002e0: 2f8b 34bd 3c2c cbbd 6460 f03d 9d8b 1e3c
000002f0: dd39 b83d 3245 72bd 107d a0bc 8afa e9bc
00000300: 17af f63d 58c2 2bbd be8f 7dbd 744a e3bd
00000310: c62f d53d 3ce7 ecbc 7b8c ae3d ff1e a33d
00000320: 58e9 b4bd b08c e8bc aca1 bbbd 0f14 8a3b
00000330: 1d15 923d e793 53bd ee42 52bd 4a16 113d
00000340: 4438 233d 4065 d4bd b5d7 a53b 2daf eb3c
00000350: 8ea8 d5bd 2703 b5bd ee15 f53c 87df cfbd
00000360: f292 cd3d 30f2 88bd a23c e9bc 3d43 ddbd
00000370: b926 06bd d578 73bd 91c1 6a3d be78 fe3d
00000380: b968 ccbc 96fb efbc 5cd3 dbbd 74e2 acbd
00000390: 7a4e c8bd d02f 793d 5acd 413b 23e5 1abd
000003a0: 48a1 e0bd d60c be3d cad8 ab3d 93f6 8abd
000003b0: b9e5 92bc 89d7 803d fc76 933d 75d9 abbd
000003c0: 36db 813c fb6f 24bd 612e 33bd b20d e4b8
000003d0: c8b7 ed3b 71b0 d23d fb56 e6bd dae8 b93d
000003e0: 1d0e a93d 8669 a0bd 81a8 e73d e961 41bd
000003f0: d33c 39bd 7122 673c affb d2bd 32f4 8dbd
0.059548855 0.11933284 0.029884033 -0.07070056 -0.088112295 -0.095880345 -0.112634696 0.004155324
0.08108445 -0.109310746 0.004072482 0.118024655 -0.011559237 -0.066245764 -0.033027653 -0.047888216
-0.08166095 0.05042926 0.07818851 0.11225428 -0.03806352 -0.06966496 0.069304995 -0.040910296
0.010865995 -0.033361733 -0.075723626 0.041842263 0.12169823 0.10299723 -0.074368015 0.02753627
-0.02167781 -0.01888532 0.06996076 -0.051828317 0.05804285 0.12348884 0.01904729 0.088989675
0.012117941 -0.084426545 -0.06652538 -0.036771353 0.100581184 -0.0486178 -0.0033558544 -0.03840358
0.12074274 0.06816133 -0.041848395 -0.055470858 -0.03523499 -0.12394912 0.057517637 0.07841476
0.05436984 0.055417065 -0.013119109 0.11853789 -0.07963343 0.007556168 -0.08063526 -0.07408757
-0.07477496 -0.101967975 -0.021320825 0.058343597 0.07337521 -0.010109991 0.07875856 -0.08892365
-0.09702995 -0.07955695 0.107844636 -0.09949151 -0.00856909 0.048913676 -0.025956307 0.025258515
0.06479591 -0.032430295 -0.1040906 -0.006667958 0.09195773 -0.04628444 0.029237302 -0.12363917
0.032221306 0.04827148 -0.007121139 0.05386086 -0.111608334 0.07920339 0.024270022 -0.013338699
0.11013947 0.112676576 0.12227235 0.05714696 0.085020594 0.10630829 0.002576591 -0.045562364
0.009818704 0.044734024 -0.060652345 -0.07400791 -0.112242945 0.0737451 0.0018177046 0.05193284
-0.05990212 -0.047231168 -0.07057083 -0.0046559814 -0.12157466 -0.084496796 0.058694914 0.10847237
-0.04755313 -0.008946805 0.05882847 0.028935557 -0.04083896 -0.103003435 -0.062250804 -0.08008705
-0.080071986 -0.025275435 -0.0010447244 -0.038186956 -0.02257942 -0.048954915 -0.03015642 0.09485347
0.058701508 -0.0684599 0.08267386 -0.012905049 -0.10262997 0.014949035 0.098895855 -0.10149342
0.040883623 0.0908215 -0.09110631 -0.025741646 0.12294768 -0.109529994 0.0875706 -0.08017
0.04600749 -0.10818089 0.035951197 0.008585328 -0.10667815 -0.08256717 -0.11784497 -0.045426447
-0.0848844 0.028443 0.0994231 0.021885673 -0.04975164 0.12075602 -0.09996352 -0.023578383
0.09126159 -0.05928781 -0.039868895 -0.08599455 -0.0148434695 0.10618437 -0.029405054 -0.098615356
0.0745693 0.07306114 0.031222899 -0.08156836 -0.007998359 -0.07202085 -0.068313405 -0.0412921
-0.04407805 -0.099205464 0.11737135 0.009676841 0.089954115 -0.05914802 -0.019590884 -0.02856185
0.120451145 -0.041933388 -0.06190466 -0.11098185 0.10409503 -0.028918855 0.08522888 0.079648964
-0.08833569 -0.028387398 -0.09161696 0.004213817 0.07132933 -0.051654723 -0.05133336 0.035421647
0.03984858 -0.103708744 0.0050611147 0.028770054 -0.1043254 -0.08838492 0.029917683 -0.10150056
0.10037793 -0.066868186 -0.028471295 -0.1080384 -0.032751773 -0.059441406 0.057313506 0.124253735
-0.02495228 -0.02929477 -0.10733673 -0.0844163 -0.09780593 0.060836613 0.0029571862 -0.037816178
-0.10968262 0.09279792 0.083909586 -0.067853115 -0.017931806 0.0629111 0.07200429 -0.08391086
0.015851598 -0.040145855 -0.043745402 -0.00010874438 0.0072545744 0.1028756 -0.11247059 0.09077616
0.08254645 -0.07832627 0.113114364 -0.047212515 -0.045224022 0.014107333 -0.10301911 -0.06931342

model.1.weight f4 [64, 256]
00000000: b27e b63b 9ced d33c 55f6 8a3c afe9 04bc
00000010: 18a0 d23c 9107 4bbd 3219 253d e6ac d33b
00000020: 42de 323d edc6 2d3b 6541 e3bc 4947 aebc
00000030: c5a2 62bc df75 b53c 2876 fa3c 4929 dbbc
00000040: 3288 d9bc c50d fbbc c27f 393d d8b5 0b3d
00000050: ecd6 80bb cda1 4fbd 750b 0bbc fd5a 13bd
00000060: 5c54 00bd 9c90 abbc e7b5 783d 5727 12bd
00000070: 25d6 38bc c0d6 bb3c 7e53 bfbc 5411 d73c
00000080: 20b3 a23a 2fcd dbbc 9e71 f63b 3a45 673d
00000090: 262e 0a3d 1c62 d93c 785b 7abd de8d 8b3c
000000a0: 4c6a f13c 627f a1bc 4040 1cbd b644 093c
000000b0: 952d ebba b794 183d 9d7d cb3c b344 6cbb
000000c0: eb1e 553d 0c5c 873d 9b8f 7bbc e18a 22bb
000000d0: 609a 93bc 86c8 e73c d760 5ebd 6eb4 6cbc
000000e0: 432a 6d3d 2498 76bc c9bc e33c 9524 c8bb
000000f0: 2fed 6d3d 588b 34bd fad8 36bc 4620 713d
00000100: a7a3 7f3d 36ac b8bb 3ba8 193d 95df 5abd
00000110: 709f 3d3c cd94 2a3d 85ef 68bd fa3c 9bbc
00000120: b419 e9bc e01d 6d3d ce9e 46bd 23d6 cdbc
00000130: c5dc dfbc 2818 7bbd 1b20 193d 3efe 273c
00000140: d2e8 86bc 964f 2b3c 628e 4f3c b37d 013d
00000150: 227b 0fbd e562 4f3d 1fd4 cc3b a1cd 77bc
00000160: 3926 6bbd 33b6 6fbd fcb6 da3c fb89 6bbd
00000170: db9e e0bc 356f ac3c aa66 90bc 58a9 513d
00000180: 3262 363d 5062 0e3c 0146 16bd fb60 b4bc
00000190: baef 183d e089 1bbd d1d9 33bd 83ed 733d
000001a0: d853 c9bc bcbb 38bc 0f0b 85bb f0e6 5cbd
000001b0: 3f9b 0e3d b920 843c 77ed b43c 1f98 b53c
000001c0: e02a 663d a46a 2a3d 9880 e43c a2a1 fdbc
000001d0: 2b33 6fbd 6636 35bd e1de c23c 0b7a fe3b
000001e0: f443 6c3d 2967 25bc 46df 6cbd 45c1 08bc
000001f0: 0430 7abd 4d25 ca3c 3922 de3c a117 a93c
00000200: 788f 0dbc 4818 56bd 85ee 5fbd 8128 d3bb
00000210: dcc4 2dbd c28b 44bd 5b6e 2cbd 8840 e63c
00000220: 8dd3 6abd f178 083d d169 a0bc 369f 8839
00000230: d736 74bb 026b 83bd 9b97 32bd 7b2a 18bd
00000240: 691d 463d 3e25 983c 058b 033d 32f3 443d
00000250: 25a2 313d ec5c ee3c c0a6 533d 9d15 003d
00000260: 0e4f 21bd 26db 4fb8 32f0 693d dd09 f9bb
00000270: a697 57bd d3e3 09bc 621e 293d 8ce9 0a3d
00000280: 2cd1 763d 0e09 eb3c 4a9f b83c 3c1d 58bd
00000290: 1d76 2fbd 5828 84bd ed4c 3dbd 206f e4bc
000002a0: 8dcd 103c f103 30bd daf5 8a3c 04a9 33bd
000002b0: baf3 e0bc 890f f4bc 18f8 853d aa8d 73bc
000002c0: 0483 b2bb f4f6 4e3c 4905 60bd 08d3 0a3d
000002d0: 7c05 f43c 91f3 d8bb f9f6 2c3d 4cb2 cd3c
000002e0: 7cdb 123b 7ffa bd3b 5d0f 2fbd a0c2 0abd
000002f0: 433d d53b fb0c 3a3d 46c7 c5bc 5d1f c23a
00000300: 7838 823c 7fe1 153d 82b9 2dbd d1a7 80bd
00000310: 780a 53bd 2fd2 52bc c539 eabc a99d e03c
00000320: 9c18 b3bc e209 3d3c 9b83 e7bc 6fee d7bc
00000330: 9942 07bd e0f9 e93c 35b2 0abd 47f7 fa3c
00000340: 0525 09bd f012 0abd 5684 fe3b 30e0 1dbd
00000350: 12c6 d63c 058e 723d 7f60 953c 1984 413d
00000360: b60f 723d 0116 edbc d963 28bd 5fde 133d
00000370: b931 63bd 1c13 a0bb 9cf9 b43a 8e48 0b3d
00000380: e098 0abd 48e3 62bd 6b80 50bb 5931 8cbc
00000390: 908c 63bd 974b 5bbc 6478 77bd ec64 1e3d
000003a0: 0f17 933c a6d6 53bd 6c49 e83c d704 373d
000003b0: a974 d03c 0c7d 07bc 52c5 50bd 2377 1a3a
000003c0: cb08 173d 675e 37bd 77ee 3cbd 607d 163c
000003d0: 304c 2b3d 4e55 ddbb 77c1 c03c 4ea9 5bbd
000003e0: a4ca 81bd 2d33 543d 1100 abbb 88b8 3dbd
000003f0: d594 66bd d890 35bd 0977 02bd 1800 57bd
0.0055693025 0.025870137 0.016963163 -0.008112355 0.025711104 -0.049567763 0.04030723 0.00645982
0.043668993 0.0026516274 -0.027741143 -0.021274226 -0.013832753 0.022150932 0.03057392 -0.026753085
-0.0265542 -0.030646214 0.045287855 0.034108967 -0.0039318707 -0.050691415 -0.008486618 -0.035975445
-0.03133045 -0.020942979 0.06072035 -0.03568205 -0.011281525 0.02292955 -0.023355242 0.02625338
0.0012413003 -0.026831238 0.0075208684 0.056462504 0.033735417 0.02653604 -0.061122388 0.017035421
0.029469632 -0.019714061 -0.03814721 0.008378198 -0.0017942662 0.0372512 0.02484017 -0.003605169
0.05203144 0.066093534 -0.015354062 -0.0024802017 -0.018017948 0.02829386 -0.054291572 -0.014447315
0.057901632 -0.015050922 0.02779998 -0.0061078765 0.058087524 -0.0440782 -0.01116013 0.05886867
0.06241193 -0.0056357635 0.037513953 -0.05343588 0.011573657 0.041645814 -0.05686905 -0.018949974
-0.028454639 0.05788982 -0.04849129 -0.025126522 -0.02732695 -0.061302334 0.037384134 0.010253487
-0.01646844 0.0104559865 0.012668224 0.031614017 -0.035029538 0.050631423 0.0062508727 -0.015124709
-0.0574095 -0.058523368 0.026698582 -0.057504635 -0.027419498 0.021049121 -0.017627079 0.05118689
0.04452724 0.008690432 -0.036687855 -0.0220189 0.037337996 -0.037973285 -0.043908898 0.05955268
-0.024576113 -0.011275228 -0.004060156 -0.053931177 0.034816023 0.016128885 0.022085888 0.022167264
0.056193233 0.041605607 0.02789335 -0.030960862 -0.058398407 -0.04424133 0.023787918 0.0077660135
0.057681993 -0.010095396 -0.057830118 -0.00834686 -0.061080948 0.02467599 0.027115928 0.02064115
-0.008640163 -0.05226925 -0.05467083 -0.0064440374 -0.042424068 -0.047984846 -0.04209743 0.028106943
-0.057330657 0.033318464 -0.019581707 0.00026058563 -0.0037264132 -0.064168945 -0.043601613 -0.037149888
0.04836789 0.018572446 0.032115 0.04808349 0.043367524 0.029097043 0.051672697 0.031270612
-0.039382033 -4.9556744e-05 0.057113834 -0.0076000527 -0.052634858 -0.008416134 0.04128874 0.033914134
0.060258076 0.028690841 0.022536892 -0.052762255 -0.04283725 -0.064530075 -0.04621594 -0.02788502
0.00883807 -0.04297251 0.016962934 -0.043862358 -0.027459968 -0.029792564 0.06541461 -0.014865318
-0.005447747 0.01263212 -0.05469254 0.03389266 0.029787771 -0.0066208323 0.04222772 0.025109433
0.0022408655 0.0057976837 -0.04273926 -0.033877015 0.006507547 0.045422535 -0.024142873 0.0014810372
0.015896067 0.036592003 -0.042413242 -0.062820084 -0.051523656 -0.0128674945 -0.028592 0.027418928
-0.02186232 0.011538001 -0.028260997 -0.026358811 -0.033022497 0.028561532 -0.033861358 0.03063549
-0.03348257 -0.033709466 0.0077672405 -0.03854388 0.026217494 0.05921747 0.01823449 0.04724512
0.059097014 -0.028941156 -0.041110847 0.03610074 -0.05546734 -0.0048850905 0.00138073 0.03400474
-0.0338372 -0.055392534 -0.0031814824 -0.017113375 -0.055553973 -0.013384721 -0.060417548 0.038670465
0.017955331 -0.051718377 0.028355323 0.04468235 0.025446253 -0.00826956 -0.05096943 0.00058923865
0.03687362 -0.044767763 -0.046125855 0.009185165 0.041820705 -0.006754554 0.023529751 -0.05362826
-0.06337479 0.051806618 -0.005218514 -0.04631856 -0.05629428 -0.044327587 -0.031851802 -0.052490324

model.1.bias f4 [64]
00000000: 8961 f93c 4094 bdb9 319a 4e3d 2c60 29bd
00000010: fb39 5ebd f25a 3e3d 716f 103d bef0 703c
00000020: 9786 59bd f6e5 45bd 53f7 47bd 3064 3cbd
00000030: f53a 6bbd 4117 803d 79ea 1c3c 6cf7 833d
00000040: 27cf 133d 88f7 783d bd4d 83bd 30ad 26bc
00000050: 0a3f 14bd 5a73 04bd b1de 16bd 028d 2dbd
00000060: da57 1a3d 632d 503d b751 a53c 67bc f83c
00000070: 6781 2ebd 889f 67bd 97d8 5fbd a09d d93c
00000080: 3318 6e3d 8181 80bd 6683 1d3c 4520 e13c
00000090: b7c8 1a3d b856 113d c3ce 22bd 6920 bf3c
000000a0: 0b8f 6a3d 05af 973c f965 7e3c 469f 51bd
000000b0: 9420 3bbd 3448 eebc c612 3b3c d83b a5bc
000000c0: 357d f83b 0352 1e3d a61b eebb b2c7 d7bb
000000d0: 27ea 18bc 91fe 7e3d 029a 703d 6dee 04bd
000000e0: 2326 4fbd 0211 f83c b4c9 443d 7749 fabc
000000f0: c68e 8ebb dc85 af3c f2a4 833c 334f 3b3d
0.030442016 -0.00036159344 0.050440017 -0.041351482 -0.054254513 0.04647345 0.03526253 0.014705835
-0.05310687 -0.04831501 -0.04881985 -0.045993984 -0.057429273 0.06254435 0.009577387 0.06443676
0.036086228 0.06078294 -0.06411312 -0.010173127 -0.03619293 -0.03233657 -0.03683347 -0.042370804
0.037681438 0.050824534 0.020180566 0.030363275 -0.042603876 -0.056548625 -0.054649916 0.02656442
0.058128547 -0.06274701 0.009613847 0.027481208 0.037789073 0.035483092 -0.039747965 0.023330884
0.057265323 0.018516073 0.015527242 -0.051177286 -0.045685366 -0.029087164 0.01141805 -0.020170137
0.007583285 0.03865243 -0.0072664795 -0.006585085 -0.00933317 0.062254492 0.058740623 -0.032453943
-0.05057348 0.030281547 0.04804392 -0.030552609 -0.004350516 0.021426134 0.016069863 0.045729827

model.2.weight f4 [1, 64]
00000000: b1a5 213e 5855 df3b 3aea ebbd b43d 0cbc
00000010: 712e 183e 33d7 51bc 96eb 4c3d b843 debd
00000020: 7841 173e 8fdc 16be 1d53 a53c 6351 fd3d
00000030: 493e acbd 7b1c e3bd 81e2 983d adf0 a9bd
00000040: d15b afbc 6c47 c5bd 6744 b93d 9ee4 e93d
00000050: f001 aa3d dc89 86bd 000e 93bd eea0 a0bd
00000060: e7a4 41bd 8676 00be 33a9 03be 35b7 ae3d
00000070: 5958 0a3c 079a a6bd 174c f23d eea3 f83d
00000080: 1b15 d3bd 3855 9f3d 568a 0ebc fe16 d93d
00000090: c55a 263e 4c4c 14bc a868 143b 4f02 bebd
000000a0: a613 cd3a c858 973d 0dc0 f8bd 7c5b 6abd
000000b0: 9129 663d 985f 4e3c dd6d b0bd 500a 7d3d
000000c0: 4eba 1a3e 9ca8 f33d 28ba d2bd bc70 d63d
000000d0: a833 f13c f628 1cbe c13b 46bd dc0c 84bc
000000e0: 8a8e 3dbd 87a8 123e e512 06be 661b 953d
000000f0: 73ac d1bd 7764 16bd 008f 1cbe eef2 633c
0.15785863 0.0068155937 -0.115192845 -0.008559633 0.14861466 -0.012807655 0.05002936 -0.1085276
0.14771068 -0.14732574 0.020181233 0.12369039 -0.084103175 -0.110894166 0.07465077 -0.082978584
-0.021406086 -0.09632763 0.0904625 0.114205584 0.08301151 -0.06569263 -0.07180405 -0.07843195
-0.047276404 -0.12545213 -0.12857513 0.08531038 0.008443915 -0.08134847 0.11830919 0.12140642
-0.1030676 0.07779926 -0.008699974 0.106000885 0.16245563 -0.009051394 0.0022645388 -0.09277784
0.0015646114 0.073899806 -0.12146006 -0.057216153 0.056191985 0.0125960335 -0.08614705 0.061777413
0.15110132 0.11897394 -0.10289413 0.10470721 0.029443577 -0.1525 -0.04839683 -0.016119413
-0.046278514 0.143221 -0.13093145 0.072806165 -0.1023797 -0.036716904 -0.15288925 0.013912899
