ml/models/TP53_8_4 Model_3.pt (torch, 137231 bytes, 7 tensors)

conv.weight f4 [64, 1, 8]
-0.324537 -0.28899682 -0.01754554 -0.33758754 -0.15825821 0.14705619 0.0046961256 0.1494004
-0.28709555 -0.18315448 0.22999756 -0.059937354 0.016078666 -0.062475253 -0.21957768 0.16155481
0.25390103 -0.32159057 0.08033829 -0.12297312 0.08669416 -0.008729056 -0.31646815 -0.13357538
0.28651235 0.20679915 -0.28827888 0.15073262 0.12149785 0.23335584 0.2980078 -0.29010534
0.15812285 -0.16848417 -0.34339094 0.18285704 0.26630688 -0.08109733 0.059599612 -0.19086389
-0.21924521 -0.31544662 -0.12587893 0.2395106 0.21904822 -0.33720088 0.31712514 0.11038477
0.06669166 -0.12316223 -0.08456432 0.08404761 0.21365179 -0.20552328 0.20465085 0.066432744
-0.06904058 -0.23665126 -0.30107242 -0.052789055 0.19116925 0.16546844 -0.04593134 -0.18741465
0.16500653 -0.016240673 -0.2852992 -0.262731 -0.21173091 0.31702057 0.13373363 0.13211036
-0.14363705 -0.29932666 -0.031858593 -0.038326405 -0.23232889 -0.029719302 0.10860008 0.2845007
0.20715849 0.31594542 -0.015976114 -0.054058846 0.107184574 0.34829587 -0.3218317 0.22890557
-0.13979238 0.18755522 0.34436542 -0.25695786 0.008949565 0.047434077 0.19760813 0.060609072
-0.34089315 0.045322977 0.30215824 0.19649805 -0.10863481 0.22325332 -0.22090647 0.02781129
0.10890695 0.13782932 -0.026138764 -0.2954639 0.23280054 0.31660998 -0.099687636 -0.18542422
-0.03380179 -0.12750612 0.17991939 -0.16456346 -0.3294623 0.017005684 -0.28676096 0.12765276
0.22246885 0.29344842 -0.029968634 0.3494898 -0.22091016 0.21177316 -0.12958251 -0.053570222
-0.24195805 -0.28645808 0.17731151 0.3153758 -0.20884989 -0.028394205 -0.14959835 -0.0043494706
-0.14540742 -0.22229293 -0.08185645 -0.06837983 0.23195584 -0.33997288 0.11361319 0.23428968
0.29138738 -0.24215408 -0.34069586 -0.08989758 -0.28809562 -0.13077602 0.08485458 0.032298695
0.192397 0.13034023 -0.061155032 0.10440979 0.20517145 -0.24208121 -0.14688826 -0.18669839
-0.13929158 -0.09588728 -0.30035445 -0.067036755 -0.29690972 -0.15238266 0.18743798 -0.20979631
-0.29194888 0.17457435 0.3055616 -0.2839133 0.16783701 -0.033367444 -0.07239093 0.09021579
0.0018963756 -0.2568153 0.06987312 0.2390516 0.15322426 0.14367533 0.23984599 0.06858368
0.2438027 0.06767019 -0.025881203 -0.32553357 0.09321179 -0.34431157 0.33692297 0.02770822
0.0075123375 -0.17925231 0.058875088 0.13019915 -0.1424029 -0.35211912 -0.04321669 0.19035041
0.023055825 -0.020234322 -0.2908605 -0.16981816 -0.060387034 -0.2360645 -0.22954156 -0.26152363
-0.21308516 -0.17840818 -0.13248388 -0.26985472 -0.16615567 0.18285187 -0.24720298 0.28265485
0.3465236 -0.043057475 -0.24810442 0.22190031 -0.35144842 0.011333814 0.08146973 -0.06272248
0.07325647 0.0886881 0.30550015 0.20730776 -0.18560512 -0.17824107 0.16243207 -0.2976708
-0.35268658 0.30360508 0.15099567 -0.17895871 0.23190482 -0.09740432 0.15636198 0.21440828
-0.00017560998 -0.2609886 -0.18343952 -0.06283079 -0.23979504 0.005971324 -0.21331275 0.26404962
-0.1291089 -0.13335018 -0.031713016 -0.33129603 0.15506366 -0.16567834 -0.08105677 0.01440516
00000000: b729 a6be 64f7 93be aabb 8fbc 46d8 acbe
00000010: 710e 22be e695 163e f5e1 993b 6bfc 183e
00000020: 30fe 92be d98c 3bbe 7b84 6b3e df80 75bd
00000030: 68b7 833c 0de6 7fbd f9d8 60be a06e 253e
00000040: 51ff 813e 85a7 a4be 6788 a43d 55d9 fbbd
00000050: b58c b13d 5104 0fbc 1d08 a2be fcc7 08be
00000060: bfb1 923e 28c3 533e 4a99 93be a759 1a3e
00000070: ddd3 f83d d5f4 6e3e 7a94 983e b088 94be
00000080: f5ea 213e 1d87 2cbe f0d0 afbe e03e 3b3e
00000090: 6059 883e 5b16 a6bd b91e 743d d371 43be
000000a0: d181 60be 3882 a1be 68e6 00be 4442 753e
000000b0: 2d4e 603e 98a5 acbe 3a5e a23e 6911 e23d
000000c0: a395 883d 7b3c fcbd 0f30 adbd 2721 ac3d
000000d0: 89c7 5a3e b274 52be fe8f 513e e40d 883d
000000e0: 2665 8dbd b554 72be 2a26 9abe 5639 58bd
000000f0: dfc1 433e 8f70 293e 8022 3cbd a0e9 3fbe
00000100: 79f7 283e 290b 85bc bd12 92be ad84 86be
00000110: fdcf 58be 8550 a23e 78f1 083e f047 073e
00000120: 9715 13be 5841 99be 287e 02bd 26fc 1cbd
00000130: a0e7 6dbe e575 f3bc b869 de3d 13aa 913e
00000140: 5b21 543e 99c3 a13e 57e0 82bc cf6c 5dbd
00000150: 9683 db3d d653 b23e 20c7 a4be 3966 6a3e
00000160: bc25 0fbe 7a0e 403e aa50 b03e fb8f 83be
00000170: 32a1 123c 3c4a 423d c959 4a3e 3841 783d
00000180: 8c89 aebe 96a4 393d 7cb4 9a3e c936 493e
00000190: ed7b debd 859c 643e 4e35 62be 81d4 e33c
000001a0: 9b0a df3d 2123 0d3e f620 d6bc 0b47 97be
000001b0: 4463 6e3e b41a a23e 0829 ccbd d9df 3dbe
000001c0: bf73 0abd f790 02be ca3c 383e 5383 28be
000001d0: 48af a8be 814f 8b3c 55d2 92be 68b7 023e
000001e0: e0ce 633e df3e 963e c880 f5bc 54f0 b23e
000001f0: 4636 62be 10db 583e 47b1 04be 736c 5bbd
00000200: dac3 77be a2aa 92be 2691 353e f078 a13e
00000210: bfdc 55be f79a e8bc 4f30 19be 0186 8ebb
00000220: afe5 14be c2a0 63be 5ba4 a7bd b90a 8cbd
00000230: d585 6d3e ed10 aebe 08ae e83d a2e9 6f3e
00000240: ba30 953e 3df7 77be b06f aebe 391c b8bd
00000250: 4581 93be 26ea 05be 3dc8 ad3d a34b 043d
00000260: b803 453e e977 053e b37d 7abd cdd4 d53d
00000270: 7718 523e 23e4 77be e069 16be dd2d 3fbe
00000280: 74a2 0ebe 8d60 c4bd 0fc8 99be 914a 89bd
00000290: 8d04 98be 330a 1cbe beef 3f3e d8d4 56be
000002a0: 537a 95be 9ec3 323e 9272 9c3e 165d 91be
000002b0: 77dd 2b3e 4dac 08bd b241 94bd 0ec3 b83d
000002c0: ce8f f83a 4c7d 83be a319 8f3d f1c9 743e
000002d0: d2e6 1c3e a01f 133e 309a 753e 9a75 8c3d
000002e0: 6aa7 793e ab96 8a3d d104 d4bc 56ac a6be
000002f0: d3e5 be3d 9b49 b0be 2b81 ac3e 59fc e23c
00000300: 0e2a f63b eb8d 37be 0127 713d ed52 053e
00000310: 11d2 11be f548 b4be fc03 31bd 38eb 423e
00000320: 92df bc3c 73c2 a5bc abeb 94be d0e4 2dbe
00000330: 6558 77bd e4ba 71be f10c 6bbe 6de6 85be
00000340: ff32 5abe a2b0 36be dba9 07be 662a 8abe
00000350: b624 2abe 853d 3b3e c722 7dbe 23b8 903e
00000360: 8b6b b13e 095d 30bd 160f 7ebe d639 633e
00000370: 0cf1 b3be 76b1 393c 9ad9 a63d a574 80bd
00000380: 7d07 963d 1ba2 b53d 846a 9c3e 7c48 543e
00000390: 450f 3ebe d484 36be 9854 263e 4f68 98be
000003a0: 5693 b4be 2072 9b3e 9c9e 1a3e f440 37be
000003b0: 7578 6d3e eb7b c7bd 5b1d 203e d88d 5b3e
000003c0: f223 38b9 4ca0 85be 92d7 3bbe 6ead 80bd
000003d0: d58c 75be 19ab c33b a86e 5abe 8331 873e
000003e0: 2035 04be f38c 08be 82e5 01bd a29f a9be
000003f0: 02c9 1e3e 95a7 29be 1801 a6bd 9f03 6c3c

conv.bias f4 [64]
-0.019433076 0.27962667 0.1059493 -0.062037975 -0.1296278 -0.019432528 0.17331989 -0.10963226
0.31580132 -0.13605721 -0.1857759 0.19838347 0.16234809 0.2457857 0.07156304 -0.021170372
-0.28837433 -0.05453698 0.2026977 0.07862768 -0.008292253 -0.27931827 0.06648054 0.19237077
0.31557313 -0.10653583 -0.12895314 0.2862091 0.24003695 0.23605429 0.21155766 -0.22174905
0.005454137 -0.13486342 0.1752566 0.023901382 0.08696411 0.24123819 -0.22373897 0.11058654
-0.15520243 -0.08868935 0.1992274 0.15604058 -0.3521861 -0.32793733 0.21373782 -0.20707108
-0.11678277 -0.10585131 0.1628289 -0.2388667 0.032744832 -0.07896761 0.31412122 -0.05668688
-0.15166548 0.21061388 0.21534315 0.09397214 -0.035341837 -0.2360448 -0.21284443 0.2378794
00000000: 1d32 9fbc 3a2b 8f3e f2fb d83d 881b 7ebd
00000010: 26bd 04be f730 9fbc c57a 313e e186 e0bd
00000020: b6b0 a13e 9552 0bbe 0a3c 3ebe 0925 4b3e
00000030: 943e 263e 3faf 7b3e a58f 923d 7d6d adbc
00000040: cda5 93be 2b62 5fbd fc8f 4f3e 8d07 a13d
00000050: 3bdc 07bc ce02 8fbe f326 883d d8fc 443e
00000060: cd92 a13e 752f dabd 4b0c 04be 008a 923e
00000070: 3fcc 753e 37b8 713e 92a2 583e 2f12 63be
00000080: 9eb8 b23b a319 0abe 7776 333e d5cc c33c
00000090: 3d1a b23d 2507 773e d41b 65be 327b e23d
000000a0: 63ed 1ebe c3a2 b5bd 4402 4c3e 1ac9 1f3e
000000b0: bd51 b4be 67e7 a7be 16de 5a3e 710a 54be
000000c0: ce2b efbd 92c8 d8bd 9fbc 263e 7999 74be
000000d0: 721f 063d c5b9 a1bd 7fd4 a03e 8030 68bd
000000e0: 324e 1bbe 2aab 573e ea82 5c3e 7774 c03d
000000f0: 9ac2 10bd bab5 71be e4f3 59be a896 733e

model.0.weight f4 [256, 64]
-0.11867662 -0.0062963017 -0.09579988 -0.03747076 -0.10719365 -0.017905384 -0.091247976 0.010396397
-0.076891825 -0.07571753 0.07375064 0.10675654 0.010897634 -0.10889505 0.094760194 0.09853964
-0.005464124 -0.0675562 0.0030339924 0.020927297 0.112387374 -0.01961185 -0.06663741 0.06021332
-0.02181457 -0.075908534 -0.008477881 -0.042244587 -0.050789583 -0.079201795 -0.0822349 0.07382348
-0.049713023 0.013673698 -0.07228458 -0.09003269 0.0320781 -0.088434726 -0.022683937 0.12190981
0.01266289 -0.043232203 0.109954126 -0.1033233 -0.1118454 -0.1255343 0.020079078 -0.06996192
0.02589522 0.048884254 -0.022759102 -0.08139436 -0.050217785 -0.08400377 0.10748368 -0.10537989
-0.021510212 0.079908825 -0.08286646 -0.064189754 0.006979431 0.01169754 0.041780323 0.12463031
-0.03741793 0.10528027 -0.015345394 -0.0639044 0.064572625 -0.08154067 -0.10142209 0.02573264
-0.033455938 0.04930778 -0.053033974 -0.04481081 -0.097803906 -0.048654668 0.11877017 0.05005825
-0.103630215 0.08257397 -0.09743449 0.0070833983 0.059588797 -0.025207212 -0.092321806 0.00732336
-0.018998316 -0.052429244 -0.034254204 0.10703055 -0.027294809 -0.031573992 0.05417259 -0.06350155
-0.09861373 -0.037884362 0.09930007 0.011108124 0.071458586 0.09947252 -0.086550206 -0.1051816
-0.06297509 -0.031458147 -0.023992818 -0.048930693 -0.030215861 -0.08011713 0.081419274 0.05941538
-0.12078 -0.09885175 -0.031879894 -0.09844986 -0.108569056 -0.102143444 0.02713373 0.00942175
0.02682221 -0.11075735 -0.020303424 -0.108342476 0.040527686 -0.0064248126 -0.008969056 -0.062254734
0.124905296 -0.07046317 -0.028623216 0.06474132 -0.009899418 -0.11427998 0.05012313 0.08463382
-0.04035343 -0.037381202 -0.09996834 -0.062246874 -0.08076429 0.073438704 -0.11904002 0.095728144
-0.12294937 0.11350575 -0.11410766 -0.07359353 0.05260339 0.0970241 0.068792544 -0.0118872775
0.12123883 0.08170686 -0.059990216 0.07221722 -0.06392865 -0.04128403 -0.04576853 -0.11377473
0.033484247 -0.03286451 -0.083243504 -0.05986347 -0.09322125 0.0148180425 0.005698208 -0.06327901
0.05270942 0.040555373 -0.101189 -0.0056469985 -0.06853069 -0.061408672 0.10989162 0.05038984
0.022661721 0.08017076 -0.01627142 -0.10366458 0.019079018 -0.07047647 0.028256789 -0.06285034
-0.0048176753 -0.094278984 0.049761157 0.05919445 0.042116918 0.09115773 0.0680012 0.042951785
-0.054699898 -0.0034762102 0.015824227 0.04613404 0.020326791 0.066276014 -0.059671417 -0.038106088
0.0117032435 -0.00016896128 -0.05197439 0.017806705 0.014326129 -0.019549184 -0.054941233 -0.027474055
0.091515265 -0.046241365 -0.09636081 -0.036332507 0.0743746 -0.0065190666 0.076651625 -0.042342678
-0.05634406 -0.11800088 0.020302407 0.037124835 -0.05828954 -0.049863245 0.07873467 0.021696609
-0.07777769 0.040316418 -0.04343006 -0.109546 -0.07895801 0.059275027 0.015001275 0.06286182
0.10503664 0.11054811 0.088340074 -0.03450961 -0.009375667 -0.017995551 -0.06936391 -0.090036064
-0.0878528 -0.11889979 -0.049034927 0.00079297356 -0.020466927 -0.0842673 0.06297353 0.121101305
0.017132955 -0.024578419 0.08294999 0.07990709 -0.026309725 0.1244781 -0.12043369 0.042937633
00000000: ba0c f3bd 3551 cebb ba32 c4bd f17a 19bd
00000010: 5888 dbbd 50ae 92bc 38e0 babd a655 2a3c
00000020: 7679 9dbd cb11 9bbd 930a 973d 2ca3 da3d
00000030: fd8b 323c 5e04 dfbd a211 c23d 27cf c93d
00000040: 650c b3bb e85a 8abd f2d5 463b b96f ab3c
00000050: 5a2b e63d 08a9 a0bc 3279 88bd 3ea2 763d
00000060: 78b4 b2bc ef75 9bbd cfe6 0abc a908 2dbd
00000070: bd08 50bd 8d34 a2bd c56a a8bd c430 973d
00000080: e29f 4bbd a507 603c f009 94bd 0f63 b8bd
00000090: 5364 033d 441d b5bd aad3 b9bc daab f93d
000000a0: 0378 4f3c 4014 31bd a12f e13d 2b9b d3bd
000000b0: 330f e5bd 108c 00be e17c a43c 3248 8fbd
000000c0: 3622 d43c db3a 483d 4c71 babc 16b2 a6bd
000000d0: 2ab1 4dbd 2b0a acbd 6720 dc3d 69d1 d7bd
000000e0: 2f36 b0bc 3da7 a33d e4b5 a9bd eb75 83bd
000000f0: b6b3 e43b 0aa7 3f3c d821 2b3d 2d3e ff3d
00000100: 8b43 19bd 2f9d d73d 3f6b 7bbc 4fe0 82bd
00000110: a73e 843d cbfe a6bd 62b6 cfbd 42cd d23c
00000120: 1809 09bd f4f6 493d 273a 59bd 8a8b 37bd
00000130: 6a4d c8bd 1e4a 47bd c63d f33d e109 4d3d
00000140: 143c d4bd 8b1c a93d bc8b c7bd da1b e83b
00000150: 6213 743d 5b7f cebc 3713 bdbd ccf8 ef3b
00000160: 5ba2 9bbc 0cc0 56bd 234e 0cbd d532 db3d
00000170: 5d99 dfbc bb53 01bd 14e4 5d3d 1a0d 82bd
00000180: fff5 c9bd a22c 1bbd d65d cb3d d9fe 353c
00000190: e158 923d 40b8 cb3d 3c41 b1bd 7369 d7bd
000001a0: 16f9 80bd 42da 00bd 968c c4bc 8d6b 48bd
000001b0: 4187 f7bc 7314 a4bd 26bf a63d 8b5d 733d
000001c0: 815b f7bd c972 cabd 7e94 02bd 15a0 c9bd
000001d0: 7459 debd 9530 d1bd 8e47 de3c af5d 1a3c
000001e0: 40ba db3c c0d4 e2bd 5e53 a6bc a9e2 ddbd
000001f0: 5c00 263d 3c87 d2bb f3f2 12bc d2fe 7ebd
00000200: 59ce ff3d ff4e 90bd 3c7b eabc 1997 843d
00000210: 2b31 22bc 9f0b eabd e94d 4d3d 7f54 ad3d
00000220: a349 25bd 081d 19bd 33bc ccbd 94f6 7ebd
00000230: c067 a5bd 0867 963d 41cb f3bd 1e0d c43d
00000240: e1cc fbbd b475 e83d 47b1 e9bd 34b8 96bd
00000250: a776 573d 92b4 c63d 1be3 8c3d dbc2 42bc
00000260: 104c f83d ed55 a73d 4db8 75bd 9fe6 933d
00000270: 06ed 82bd 7119 29bd c877 3bbd ba02 e9bd
00000280: c726 093d f09c 06bd 927b aabd 6633 75bd
00000290: c8ea bebd 60c7 723c 09b8 ba3b 6d98 81bd
000002a0: d5e5 573d 641d 263d 2e3c cfbd 750a b9bb
000002b0: d259 8cbd a987 7bbd dc0e e13d 9465 4e3d
000002c0: 13a5 b93c 9130 a43d a44b 85bc 184e d4bd
000002d0: 9a4b 9c3c f855 90bd c87a e73c aeb7 80bd
000002e0: 97dd 9dbb 5715 c1bd 5bd2 4b3d e175 723d
000002f0: ca82 2c3d e7b0 ba3d 3744 8b3d 36ee 2f3d
00000300: 000d 60bd 21d1 63bb cfa1 813c 0cf7 3c3d
00000310: 5f84 a63c b8bb 873d 046a 74bd 2115 1cbd
00000320: f6be 3f3c 332b 31b9 19e3 54bd 5edf 913c
00000330: 24b8 6a3c 9c25 a0bc 0f0a 61bd 4511 e1bc
00000340: 5b6c bb3d 9667 3dbd d158 c5bd 65d1 14bd
00000350: b651 983d e59d d5bb 87fb 9c3d 846f 2dbd
00000360: 07c9 66bd 72aa f1bd 3c51 a63c 3610 183d
00000370: 03c1 6ebd 673d 4cbd a53f a13d 16bd b13c
00000380: e949 9fbd d422 253d b8e3 31bd a759 e0bd
00000390: bdb4 a1bd 5fca 723d e8c7 753c b3bd 803d
000003a0: 731d d73d 0c67 e23d a4eb b43d f359 0dbd
000003b0: 669c 19bc 686b 93bc aa0e 8ebd d464 b8bd
000003c0: 2bec b3bd bc81 f3bd d9d8 48bd 8edf 4f3a
000003d0: 42aa a7bc 5694 acbd 44f8 803d f603 f83d
000003e0: 695a 8c3c ae58 c9bc afe1 a93d 54a6 a33d
000003f0: 7e87 d7bc 60ee fe3d f0a5 f6bd 5fdf 2f3d

model.0.bias f4 [256]
0.112011835 -0.011203363 0.038982965 -0.095549025 -0.08672582 -0.061468653 -0.049893033 -0.00033783147
0.085029796 0.095312566 -0.1042785 -0.03197113 0.009658106 -0.019049477 0.033839677 -0.08091487
0.10770804 -0.05465042 0.0020882662 -0.09205325 -0.12244078 -0.11335195 0.086331956 0.09576754
0.028556393 0.10394493 -0.061671298 -0.07899556 0.08086096 -0.033065893 0.05855786 -0.0042002834
-0.021985145 -0.028981796 -0.012111113 -0.12093407 0.12407537 -0.040393375 -0.025205785 -0.023219425
0.11016169 -0.11938507 0.03819553 0.04269146 -0.0065918434 0.06424504 -0.124557786 0.0096787205
-0.09540334 0.06998834 0.06987677 -0.06216803 0.103250906 -0.07250263 0.010778362 -0.08697702
-0.041834824 0.05208899 -0.05525886 0.0055941623 0.09728715 0.12489688 0.10148843 0.09901547
0.04938541 -0.074451454 -0.009037853 -0.114729375 0.11158975 -0.004783656 -0.046122093 -0.095579796
0.059735946 0.062866434 -0.10691934 -0.07337399 0.027054124 -0.06693702 -0.05931295 0.022811703
-0.00416726 -0.052770272 -0.0023571001 -0.09187144 -0.03595961 -0.1186923 0.042227358 -0.12452166
0.1230723 -0.073965065 0.10749379 0.0939367 0.0071596517 0.029078504 0.115521215 -0.07042933
0.04886249 -0.027490353 -0.011273579 0.09781577 0.094592854 0.029507559 -0.044862416 0.08523769
-0.025698682 0.020532386 0.0053807977 -0.05632961 -0.03435373 -0.09175551 -0.04901288 -0.107045196
-0.051548954 0.03822263 -0.0063465857 0.11376216 -0.07376313 0.11265518 -0.023235159 0.037327085
-0.035928916 -0.06745171 -0.019742647 0.103831775 0.012997308 0.12447624 -0.032399286 -0.09900815
0.053164843 -0.10509988 -0.106257655 0.09683895 0.07295213 0.014664233 0.0045102197 0.029497078
-0.02758142 0.010975223 -0.109449595 0.12257451 0.06175379 0.037274662 -0.06977285 -0.006808103
0.10107703 -0.07218052 -0.033774268 -0.013684578 -0.0030524277 0.099536 0.07624248 -0.039924975
-0.04476721 -0.01944738 0.02376697 0.022427613 -0.10105556 0.12207787 -0.015165572 0.016253743
-0.008546247 0.06821356 -0.005884857 0.11421257 -0.051290013 -0.028822182 -0.0147041585 0.008310271
0.092183106 -0.06317358 -0.09986345 0.076488875 -0.05888817 -0.06732145 -0.07439187 0.11788595
-0.03129849 0.016608678 -0.11881117 -0.004026433 -0.063046254 0.043717586 0.11188217 -0.05097814
-0.013212529 -0.0063407677 0.08252082 -0.015754452 0.097294256 0.057649203 -0.10346735 -0.020747406
-0.10043972 0.080354035 0.07937242 0.0848311 0.106748834 0.11009071 0.04599686 0.06595891
0.049435344 -0.035370048 0.062344167 -0.072497964 0.10900059 0.059933797 0.07280768 -0.07803919
-0.041630227 -0.004684403 0.06904176 -0.078698955 -0.016302463 -0.12169021 -0.032493196 0.092487395
0.014728456 -0.030356005 -0.09526519 0.08835756 0.12408846 0.05730622 -0.013712644 -0.02486192
-0.05392727 -0.02874507 0.045172475 -0.044426635 -0.078852184 -0.055340037 0.051626477 -0.07432798
0.045645352 0.07801716 -0.109820485 -0.11843192 0.12168531 -0.053165235 -0.12005221 -0.022755183
0.094382666 0.07671034 -0.015173815 -0.073319174 -0.117137164 -0.059670087 0.0262479 -0.019256221
-0.026929196 0.09292687 -0.10027503 0.08670359 -0.09660703 0.018491995 -0.047607306 0.056478277
00000000: 7666 e53d 4f8e 37bc 9aac 1f3d 35af c3bd
00000010: 4f9d b1bd 8ec6 7bbd a35c 4cbd f91e b1b9
00000020: 1a24 ae3d 3c33 c33d f78f d5bd 29f4 02bd
00000030: 083d 1e3c a60d 9cbc 799b 0a3d b2b6 a5bd
00000040: 0896 dc3d 1ed9 5fbd 4bdb 083b 6a86 bcbd
00000050: 3bc2 fabd 1125 e8bd cfce b03d c621 c43d
00000060: 19ef e93c 14e1 d43d 0b9b 7cbd 6dc8 a1bd
00000070: 6e9a a53d 1a70 07bd 5eda 6f3d 88a2 89bb
00000080: 311a b4bc 3b6b edbc b16d 46bc 48ac f7bd
00000090: 3a1b fe3d 8673 25bd 5d7c cebc aa36 bebc
000000a0: 749c e13d 2980 f4bd eb72 1c3d 3edd 2e3d
000000b0: 6400 d8bb e792 833d 2718 ffbd 7f93 1e3c
000000c0: d462 c3bd 0c56 8f3d 8d1b 8f3d e7a3 7ebd
000000d0: 3675 d33d 427c 94bd ba97 303c 0221 b2bd
000000e0: fe5a 2bbd 445b 553d 1d57 62bd 3c4f b73b
000000f0: 7c3e c73d efc9 ff3d 2ad9 cf3d 9fc8 ca3d
00000100: 5b48 4a3d 017a 98bd 8113 14bc 3cf7 eabd
00000110: 2b89 e43d 37c0 9cbb 85ea 3cbd 57bf c3bd
00000120: aead 743d 1ec0 803d 87f8 dabd 1a45 96bd
00000130: 9ca0 dd3c 4716 89bd 23f2 72bd 9cdf ba3c
00000140: 838d 88bb a425 58bd 9479 1abb 1827 bcbd
00000150: 624a 13bd f314 f3bd 98f6 2c3d 3605 ffbd
00000160: 540d fc3d ff7a 97bd b425 dc3d e261 c03d
00000170: 839b ea3b 0b36 ee3c 6396 ec3d 413d 90bd
00000180: 0924 483d 7333 e1bc d1b4 38bc a253 c83d
00000190: e6b9 c13d d6b9 f13c a7c1 37bd 1991 ae3d
000001a0: 0b86 d2bc 8933 a83c 6751 b03b e1b9 66bd
000001b0: 7fb6 0cbd 50ea bbbd bbc1 48bd 833a dbbd
000001c0: ff24 53bd 558f 1c3d 05f7 cfbb 23fc e83d
000001d0: 2011 97bd c2b7 e63d a957 bebc 49e4 183d
000001e0: 332a 13bd 1f24 8abd 55bb a1bc c1a5 d43d
000001f0: a9f2 543c 66ed fe3d 1db5 04bd c9c4 cabd
00000200: 61c3 593d 9b3e d7bd 9d9d d9bd 8053 c63d
00000210: ed67 953d 4042 703c 77ca 933b dba3 f13c
00000220: 6ef2 e1bc 6cd1 333c 1c27 e0bd 5808 fb3d
00000230: 8bf1 7c3d 51ad 183d 11e5 8ebd 8216 dfbb
00000240: 7901 cf3d 61d3 93bd e356 0abd 4835 60bc
00000250: 3d0b 48bb 88d9 cb3d 0425 9c3d 5f88 23bd
00000260: d25d 37bd 1d50 9fbc f3b2 c23c 1dba b73c
00000270: 38f6 cebd f603 fa3d 0579 78bc 9226 853c
00000280: 8f05 0cbc 8db3 8b3d c2d5 c0bb 48e8 e93d
00000290: 7a15 52bd 7f1c ecbc b6e9 70bc ce27 083c
000002a0: 7fca bc3d 2661 81bd 3585 ccbd 33a6 9c3d
000002b0: b934 71bd d4df 89bd c45a 98bd 306e f13d
000002c0: d832 00bd ec0e 883c 4553 f3bd 2bf0 83bb
000002d0: 651e 81bd 3611 333d 7b22 e53d 74ce 50bd
000002e0: 5d79 58bc 37c6 cfbb ad00 a93d 7b0f 81bc
000002f0: 3642 c73d 9221 6c3d b1e6 d3bd 77f6 a9bc
00000300: 57b3 cdbd a890 a43d 028e a23d eebb ad3d
00000310: 229f da3d 3d77 e13d 3467 3c3d 7715 873d
00000320: b77c 4a3d 2fe0 10bd 995c 7f3d d079 94bd
00000330: b43b df3d 247d 753d 311c 953d 03d3 9fbd
00000340: 7584 2abd 9f7f 99bb c465 8d3d eb2c a1bd
00000350: be8c 85bc b838 f9bd 9617 05bd 086a bd3d
00000360: 9f4f 713c 28ad f8bc 651a c3bd cff4 b43d
00000370: 1722 fe3d edb9 6a3d ffaa 60bc 3aab cbbc
00000380: d7e2 5cbd c87a ebbc c606 393d b4f8 35bd
00000390: 417d a1bd 3cac 62bd 4976 533d 4539 98bd
000003a0: 9ff6 3a3d 76c7 9f3d 90e9 e0bd 6f8c f2bd
000003b0: 2636 f93d cac3 59bd efdd f5bd 1469 babc
000003c0: b34b c13d 501a 9d3d 989b 78bc 5d28 96bd
000003d0: 9ce5 efbd 9f68 74bd d605 d73c 39bf 9dbc
000003e0: 9e9a dcbc 7150 be3d ff5c cdbd a791 b13d
000003f0: e8d9 c5bd 867c 973c e1ff 42bd c455 673d

model.1.weight f4 [64, 256]
-0.03881438 0.050169256 -0.037074856 0.051528715 0.009760762 -0.05568432 -0.04966749 0.03599048
0.0023979775 -0.010382888 -0.05424682 -0.027898353 -0.0041515008 -0.009313561 -0.052149568 0.056638535
0.009850968 -0.03125727 -0.041000005 0.03750245 -0.054974873 -0.022416556 -0.020521458 0.030058438
-0.021138782 -0.051319286 0.006826291 -0.00798733 -0.02372117 -0.030215295 -0.056285825 -0.02662077
0.033608604 -0.01711312 0.05919058 0.05575904 0.03983516 0.014728993 0.054109193 -0.016401893
0.03715283 -0.04277633 -0.040266853 -0.020500297 0.009263647 -0.0022572808 0.041324392 -0.039213423
0.04299245 0.041362528 0.024302164 -0.039365795 0.013769435 0.017558185 0.03229189 0.020665823
-0.029294884 -0.052803937 -0.027918871 0.02963548 -0.050553862 0.032623306 0.046829067 0.022587126
0.01227429 0.015887683 0.05542145 -0.045176752 0.020395555 -0.007245917 0.04772233 -0.005544561
-0.019625723 -0.004756422 0.027700359 0.0019058883 -0.045378264 -0.013516392 -0.061304964 -0.03143539
0.033910934 -0.04613869 -0.00051228056 -0.054307245 -0.03799125 0.052281562 -0.008132167 0.046124265
0.006043314 0.0327491 -0.020740328 -0.056869254 -0.012069221 0.05478653 -0.020795986 -0.0013638887
0.014631378 -0.048994936 -0.027611947 0.041650634 0.015942987 -0.025666466 0.046750795 -0.011027741
-0.020000255 -0.043425076 0.0026646412 -0.018379014 -0.05594981 -0.033982426 -0.0229333 -0.007957837
0.048128933 0.0074122627 0.013579008 0.057923667 0.00078280736 0.043848038 0.027335607 0.023164095
-0.0437116 0.05148175 -0.053862184 0.047200322 0.0075689387 0.014932744 -0.033778798 -0.024735173
-0.041261166 0.002114406 0.01149084 -0.046639774 0.046376523 0.041956652 -0.03546897 -0.031419374
-0.02251537 -0.05663286 -0.05320664 -0.036758084 0.021383254 -0.0345057 0.03917117 0.051310938
-0.047532704 -0.018690504 -0.004709448 -0.03659608 0.042149235 0.04873929 0.0514993 -0.0062478646
-0.055150487 -0.013410249 -0.050984837 -0.04651324 0.004430249 0.03972859 -0.023349239 -0.0031788421
-0.0003304723 0.03241387 0.009744587 -0.038814172 0.005289136 -0.05301629 -0.038876913 -0.03116881
-0.02127531 0.053590134 -0.010162431 -0.049385566 -0.0081925765 0.0024620858 0.04384945 -0.033265304
0.012334724 -0.011686431 -0.060020506 -0.03408065 -0.052626584 -0.054231502 0.053405035 -0.01999563
-0.049771518 0.021473773 -0.05611822 -0.03549318 0.027601698 -0.019816307 0.02011348 0.034963906
0.03161147 -0.059945475 0.059445955 -0.009509357 -0.061082285 -0.056676384 -0.04752722 0.020389503
-0.04742751 0.013845773 0.04282676 0.016530517 0.01940044 0.05906896 -0.045812033 -0.03690061
-0.046052307 -0.04213553 -0.024600426 0.045431565 0.010851509 -0.015916716 -0.03291685 0.00617327
0.0331059 0.014774588 -0.059845302 0.036589663 0.03207693 0.005531606 -0.042675566 0.026931932
-0.03341572 -0.059721686 -0.016671969 0.021560319 -0.02499115 -0.020089036 0.011548971 -0.045985527
0.020588942 -0.033174515 0.040523887 0.036406167 0.0059135268 -0.006866836 -0.029213265 -0.014308187
-0.02473791 -0.040364128 0.05902085 -0.012851147 -0.048651777 0.007011661 0.044196244 0.051301714
0.04260995 0.035364307 -0.025711797 -0.052188143 -0.06012163 -0.05527095 0.03466372 -0.04655058
00000000: d4fb 1ebd 477e 4d3d cedb 17bd c60f 533d
00000010: 9aeb 1f3c 3e15 64bd 2370 4bbd c16a 133d
00000020: 6327 1d3b fd1c 2abc ea31 5ebd 168b e4bc
00000030: 5009 88bb e897 18bc c99a 55bd cffd 673d
00000040: f465 213c a007 00bd 9fef 27bd 2b9c 193d
00000050: 552d 61bd eda2 b7bc 9e1c a8bc 1d3d f63c
00000060: 3d2b adbc 2c34 52bd 14af df3b 4add 02bc
00000070: e652 c2bc 1186 f7bc f78b 66bd cd13 dabc
00000080: 2da9 093d d030 8cbc d271 723d 9763 643d
00000090: 312a 233d e051 713c 9aa1 5d3d 435d 86bc
000000a0: 912d 183d 3c36 2fbd dbee 24bd 3df0 a7bc
000000b0: 8dc6 173c e3ee 13bb c443 293d 419e 20bd
000000c0: da18 303d c16b 293d 5515 c73c 073e 21bd
000000d0: 3299 613c 2fd6 8f3c 8044 043d 5f4b a93c
000000e0: d3fb efbc f148 58bd 1eb6 e4bc 1bc6 f23c
000000f0: 9111 4fbd 04a0 053d d6cf 3f3d a308 b93c
00000100: 1b1a 493c e326 823c 9a01 633d 420b 39bd
00000110: 9414 a73c 286f edbb 7d78 433d 26af b5bb
00000120: 20c6 a0bc c2db 9bbb ddeb e23c 00cf f93a
00000130: 8fde 39bd db73 5dbc ea1a 7bbd 65c2 00bd
00000140: 31e6 0a3d ecfb 3cbd 914a 06ba 4671 5ebd
00000150: b79c 1bbd 3125 563d c83c 05bc ccec 3c3d
00000160: fe06 c63b ec23 063d 9fe7 a9bc bcef 68bd
00000170: fbbd 45bc d767 603d 585c aabc 83c4 b2ba
00000180: 73b8 6f3c eaae 48bd 7332 e2bc db99 2a3d
00000190: de9a 823c 7b42 d2bc c37d 3f3d b3ad 34bc
000001a0: 93d7 a3bc 7ede 31bd 43a1 2e3b 968f 96bc
000001b0: a12b 65bd 2831 0bbd 9ede bbbc 9661 02bc
000001c0: d822 453d 91e2 f23b 7d7a 5e3c 5e41 6d3d
000001d0: 5035 4d3a 009a 333d ecee df3c a1c2 bd3c
000001e0: ef0a 33bd 87de 523d 989e 5cbd 2055 413d
000001f0: dc04 f83b 78a8 743c a35b 0abd 6ba1 cabc
00000200: 7801 29bd d991 0a3b 1444 3c3c 5909 3fbd
00000210: 4ff5 3d3d bdda 2b3d e947 11bd 9ab1 00bd
00000220: 2772 b8bc dcf7 67bd 35ef 59bd a58f 16bd
00000230: ef2b af3c d955 0dbd f371 203d 6b2b 523d
00000240: a7b1 42bd d41c 99bc b751 9abb c5e5 15bd
00000250: ada4 2c3d daa2 473d eef0 523d e3ba ccbb
00000260: 7ae5 61bd a9b6 5bbc 7ad5 50bd ab84 3ebd
00000270: 9f2b 913b 72ba 223d e746 bfbc 1f54 50bb
00000280: 3e43 adb9 68c4 043d c3a7 1f3c 9cfb 1ebd
00000290: 7d50 ad3b 9c27 59bd 663d 1fbd bb55 ffbc
000002a0: 8f49 aebc 5481 5b3d 5380 26bc 8548 4abd
000002b0: 283a 06bc f25a 213b 7b9b 333d 3341 08bd
000002c0: 9517 4a3c 7278 3fbc 10d8 75bd 2798 0bbd
000002d0: f98e 57bd da21 5ebd 3dbf 5a3d e0cd a3bc
000002e0: 38dd 4bbd c4e9 af3c 38dc 65bd 4c61 11bd
000002f0: f51c e23c cf55 a2bc 06c5 a43c 5036 0f3d
00000300: 077b 013d 6389 75bd 9a7d 733d 22cd 1bbc
00000310: 6b31 7abd 7f25 68bd e7ab 42bd e307 a73c
00000320: 5943 42bd 62d9 623c 1d6b 2f3d 026b 873c
00000330: aced 9e3c 4bf2 713d 66a5 3bbd 1825 17bd
00000340: 58a1 3cbd 4e96 2cbd d586 c9bc 7316 3a3d
00000350: 87ca 313c c663 82bc d2d3 06bd 2449 ca3b
00000360: 0d9a 073d 1d11 723c 5920 75bd 0bdf 153d
00000370: 1963 033d 7942 b53b 93cc 2ebd 5ba0 dc3c
00000380: ecde 08bd ba9e 74bd a793 88bc 449f b03c
00000390: 3dba ccbc c391 a4bc e537 3d3c 525b 3cbd
000003a0: 24aa a83c 00e2 07bd 60fc 253d a21e 153d
000003b0: 42c6 c13b 3203 e1bb a850 efbc e36c 6abc
000003c0: 28a7 cabc db54 25bd d9bf 713d 9e8d 52bc
000003d0: 1647 47bd 13c2 e53b 1f07 353d bf21 523d
000003e0: c587 2e3d 2ada 103d 8ca1 d2bc 3cc3 55bd
000003f0: 1942 76bd cb63 62bd 8bfb 0d3d d2ab 3ebd

model.1.bias f4 [64]
-0.051565666 -0.04083357 0.055726126 -0.0115915015 -0.053886726 0.03611703 -0.017020326 -0.060362477
-0.0055310032 0.044372734 -0.03607312 0.03884615 0.02617994 0.017687423 0.022281373 0.029091975
-0.02716544 0.010654929 0.023753684 0.03595792 0.05171569 0.038555965 -0.05240087 -0.061168976
-0.042221688 -0.03348296 0.04498567 -0.031447794 0.022155404 -0.013700255 0.005260532 -0.06205076
-0.044392966 0.028643975 0.010335601 0.008509821 -0.022374133 -0.0034900713 0.021086615 -0.034853786
0.017517725 -0.016730128 0.045259543 -0.009568424 0.013343875 0.025354825 0.030039396 -0.05213186
-0.0031895114 -0.017477583 -0.007873557 0.031041494 0.041226275 -0.03956291 0.044420753 -0.05408075
0.008514436 -0.037163243 -0.05048838 0.042235702 -0.007601373 0.026586112 -0.056825414 -0.03703908
00000000: 8536 53bd 1a41 27bd 1441 643d 48ea 3dbc
00000010: 54b8 5cbd 73ef 133d 366e 8bbc a53e 77bd
00000020: 6b3d b5bb 2fc0 353d 68c1 13bd 241d 1f3d
00000030: 5077 d63c 37e5 903c 6d87 b63c 4b52 ee3c
00000040: 0f8a debc 0392 2e3c 1697 c23c 9d48 133d
00000050: d5d3 533d dcec 1d3d 4ba2 56bd 528c 7abd
00000060: a6f0 2cbd 6e25 09bd e542 383d 67cf 00bd
00000070: 407f b53c 0977 60bc 8a60 ac3b f028 7ebd
00000080: 66d5 35bd c5a6 ea3c a756 293c c76c 0b3c
00000090: f549 b7bc aeb9 64bb d6bd ac3c d8c2 0ebd
000000a0: 5581 8f3c 9f0d 89bc 1262 393d e1c4 1cbc
000000b0: 45a0 5a3c ecb4 cf3c 2e15 f63c 3888 55bd
000000c0: 1f07 51bb 262d 8fbc 1700 01bc bb4a fe3c
000000d0: e2dc 283d b80c 22bd 89f2 353d c783 5dbd
000000e0: 2280 0b3c 7c38 18bd e7cc 4ebd 58ff 2c3d
000000f0: f014 f9bb 1ecb d93c c4c1 68bd 4ab6 17bd

model.2.weight f4 [1, 64]
-0.0029384457 0.010311898 0.093578406 -0.110572904 -0.088722125 -0.08568945 0.07901264 0.10466743
-0.11967144 -0.075550355 -0.026380127 0.109310426 -0.03624097 0.038358152 0.04477233 -0.03301644
0.013267853 -0.1037909 -0.0860611 -0.05008463 0.120455414 -0.09608352 -0.08612961 -0.05262435
0.07479544 0.006492759 0.007321018 0.09365058 0.036938123 0.12514247 -0.043755963 0.072776
0.06718219 -0.0053732214 -0.05882133 -0.09682455 -0.070897676 -0.08217263 -0.11340447 -0.067596145
0.117594495 0.07922466 -0.121797696 0.08120029 -0.016802039 0.082081035 -0.058708347 -0.006837725
-0.10797324 -0.012201614 0.027999537 -0.09101844 -0.0054512043 0.021223463 0.09657173 -0.02948581
0.074687496 -0.053074446 0.06848211 0.043228224 -0.07960706 0.07794591 0.12009488 0.052538916
00000000: f092 40bb 3cf3 283c 09a6 bf3d 0c74 e2bd
00000010: f2b3 b5bd f37d afbd 61d1 a13d e15b d63d
00000020: 4d16 f5bd 25ba 9abd 231b d8bc 25de df3d
00000030: 6971 14bd 701d 1d3d 3163 373d 3f3c 07bd
00000040: 6961 593c 5390 d4bd cd40 b0bd 8a25 4dbd
00000050: 54b1 f63d 70c7 c4bd b964 b0bd a18c 57bd
00000060: 5a2e 993d 36c1 d43b 26e5 ef3b e0cb bf3d
00000070: 6e4c 173d 5925 003e 7439 33bd 950b 953d
00000080: d196 893d d911 b0bb a3ee 70bd f34b c6bd
00000090: cd32 91bd 204a a8bd 9a40 e8bd d96f 8abd
000000a0: 62d5 f03d 8a40 a23d 1271 f9bd 564c a63d
000000b0: 6ea4 89bc 1a1a a83d 2a78 70bd ff0e e0bb
000000c0: 1321 ddbd 47e9 47bc 495f e53c e067 babd
000000d0: 04a0 b2bb d4dc ad3c 66c7 c53d 3a8c f1bc
000000e0: c2f5 983d 9764 59bd 5940 8c3d 1410 313d
000000f0: 0709 a3bd 1ba2 9f3d 4ef4 f53d 0c33 573d
